{"format": "graph-model", "generatedBy": "2.9.0", "convertedBy": "TensorFlow.js Converter v3.19.0", "signature": {"inputs": {"x": {"name": "x:0", "dtype": "DT_FLOAT", "tensorShape": {"dim": [{"size": "1"}, {"size": "640"}, {"size": "640"}, {"size": "3"}]}}}, "outputs": {"Identity_2:0": {"name": "Identity_2:0", "dtype": "DT_FLOAT", "tensorShape": {"dim": [{"size": "1"}, {"size": "-1"}]}}, "Identity_1:0": {"name": "Identity_1:0", "dtype": "DT_FLOAT", "tensorShape": {"dim": [{"size": "1"}, {"size": "-1"}]}}, "output_3": {"name": "Identity_3:0", "dtype": "DT_INT32", "tensorShape": {"dim": [{"size": "1"}]}}, "output_0": {"name": "Identity:0", "dtype": "DT_FLOAT", "tensorShape": {"dim": [{"size": "1"}, {"size": "-1"}, {"size": "4"}]}}}}, "modelTopology": {"node": [{"name": "x", "op": "Placeholder", "attr": {"shape": {"shape": {"dim": [{"size": "1"}, {"size": "640"}, {"size": "640"}, {"size": "3"}]}}, "dtype": {"type": "DT_FLOAT"}}}, {"name": "PartitionedCall/PartitionedCall", "op": "PartitionedCall", "input": ["x"], "attr": {"executor_type": {"s": ""}, "Tin": {"list": {"type": ["DT_FLOAT"]}}, "_read_only_resource_inputs": {"list": {}}, "f": {"func": {"name": "__inference_pruned_1369"}}, "Tout": {"list": {"type": ["DT_FLOAT", "DT_FLOAT", "DT_FLOAT", "DT_INT32"]}}, "config_proto": {"s": "CgcKA0NQVRABCgcKA0dQVRAAMgJKADgBggEA"}, "config": {"s": ""}}}, {"name": "Identity", "op": "Identity", "input": ["PartitionedCall/PartitionedCall"], "attr": {"T": {"type": "DT_FLOAT"}}}, {"name": "Identity_1", "op": "Identity", "input": ["PartitionedCall/PartitionedCall:1"], "attr": {"T": {"type": "DT_FLOAT"}}}, {"name": "Identity_2", "op": "Identity", "input": ["PartitionedCall/PartitionedCall:2"], "attr": {"T": {"type": "DT_FLOAT"}}}, {"name": "Identity_3", "op": "Identity", "input": ["PartitionedCall/PartitionedCall:3"], "attr": {"T": {"type": "DT_INT32"}}}], "library": {"function": [{"signature": {"name": "__inference_pruned_1369", "inputArg": [{"name": "x", "type": "DT_FLOAT"}], "outputArg": [{"name": "identity", "type": "DT_FLOAT"}, {"name": "identity_1", "type": "DT_FLOAT"}, {"name": "identity_2", "type": "DT_FLOAT"}, {"name": "identity_3", "type": "DT_INT32"}]}, "nodeDef": [{"name": "__inference_pruned_1369/model/agnostic_nms_1/agnostic_nms/TensorArrayV2_4/element_shape", "op": "Const", "attr": {"dtype": {"type": "DT_INT32"}, "value": {"tensor": {"dtype": "DT_INT32", "tensorShape": {}}}}}, {"name": "__inference_pruned_1369/model/agnostic_nms_1/agnostic_nms/TensorArrayV2_4/num_elements", "op": "Const", "attr": {"dtype": {"type": "DT_INT32"}, "value": {"tensor": {"dtype": "DT_INT32", "tensorShape": {}}}}}, {"name": "__inference_pruned_1369/model/agnostic_nms_1/agnostic_nms/TensorArrayV2Stack_1/TensorListStack/element_shape", "op": "Const", "attr": {"value": {"tensor": {"dtype": "DT_INT32", "tensorShape": {"dim": [{"size": "1"}]}}}, "dtype": {"type": "DT_INT32"}}}, {"name": "__inference_pruned_1369/model/agnostic_nms_1/agnostic_nms/TensorArrayV2_5/element_shape", "op": "Const", "attr": {"value": {"tensor": {"dtype": "DT_INT32", "tensorShape": {}}}, "dtype": {"type": "DT_INT32"}}}, {"name": "__inference_pruned_1369/model/agnostic_nms_1/agnostic_nms/TensorArrayV2_5/num_elements", "op": "Const", "attr": {"value": {"tensor": {"dtype": "DT_INT32", "tensorShape": {}}}, "dtype": {"type": "DT_INT32"}}}, {"name": "__inference_pruned_1369/model/agnostic_nms_1/agnostic_nms/TensorArrayUnstack_1/TensorListFromTensor/element_shape", "op": "Const", "attr": {"dtype": {"type": "DT_INT32"}, "value": {"tensor": {"dtype": "DT_INT32", "tensorShape": {"dim": [{"size": "2"}]}}}}}, {"name": "__inference_pruned_1369/model/agnostic_nms_1/agnostic_nms/TensorArrayV2Stack_2/TensorListStack/element_shape", "op": "Const", "attr": {"value": {"tensor": {"dtype": "DT_INT32", "tensorShape": {"dim": [{"size": "1"}]}}}, "dtype": {"type": "DT_INT32"}}}, {"name": "__inference_pruned_1369/model/agnostic_nms_1/agnostic_nms/TensorArrayV2_6/element_shape", "op": "Const", "attr": {"value": {"tensor": {"dtype": "DT_INT32", "tensorShape": {}}}, "dtype": {"type": "DT_INT32"}}}, {"name": "__inference_pruned_1369/model/agnostic_nms_1/agnostic_nms/TensorArrayV2_6/num_elements", "op": "Const", "attr": {"value": {"tensor": {"dtype": "DT_INT32", "tensorShape": {}}}, "dtype": {"type": "DT_INT32"}}}, {"name": "__inference_pruned_1369/model/agnostic_nms_1/agnostic_nms/TensorArrayV2Stack_3/Const", "op": "Const", "attr": {"value": {"tensor": {"dtype": "DT_INT32", "tensorShape": {"dim": [{}]}}}, "dtype": {"type": "DT_INT32"}}}, {"name": "__inference_pruned_1369/model/agnostic_nms_1/agnostic_nms/TensorArrayV2_3/element_shape", "op": "Const", "attr": {"value": {"tensor": {"dtype": "DT_INT32", "tensorShape": {}}}, "dtype": {"type": "DT_INT32"}}}, {"name": "__inference_pruned_1369/model/agnostic_nms_1/agnostic_nms/TensorArrayV2_3/num_elements", "op": "Const", "attr": {"value": {"tensor": {"dtype": "DT_INT32", "tensorShape": {}}}, "dtype": {"type": "DT_INT32"}}}, {"name": "__inference_pruned_1369/ConstantFolding/model/tf.math.truediv/truediv_recip", "op": "Const", "attr": {"value": {"tensor": {"dtype": "DT_FLOAT", "tensorShape": {}}}, "dtype": {"type": "DT_FLOAT"}}}, {"name": "__inference_pruned_1369/ConstantFolding/model/tf.math.truediv_1/truediv_recip", "op": "Const", "attr": {"dtype": {"type": "DT_FLOAT"}, "value": {"tensor": {"dtype": "DT_FLOAT", "tensorShape": {}}}}}, {"name": "__inference_pruned_1369/ConstantFolding/model/tf.math.truediv_2/truediv_recip", "op": "Const", "attr": {"dtype": {"type": "DT_FLOAT"}, "value": {"tensor": {"dtype": "DT_FLOAT", "tensorShape": {}}}}}, {"name": "__inference_pruned_1369/model/tf.split/split/split_dim", "op": "Const", "attr": {"dtype": {"type": "DT_INT32"}, "value": {"tensor": {"dtype": "DT_INT32", "tensorShape": {}}}}}, {"name": "__inference_pruned_1369/model/tf.__operators__.getitem/strided_slice/stack", "op": "Const", "attr": {"value": {"tensor": {"dtype": "DT_INT32", "tensorShape": {"dim": [{"size": "2"}]}}}, "dtype": {"type": "DT_INT32"}}}, {"name": "__inference_pruned_1369/model/tf.__operators__.getitem/strided_slice/stack_1", "op": "Const", "attr": {"dtype": {"type": "DT_INT32"}, "value": {"tensor": {"dtype": "DT_INT32", "tensorShape": {"dim": [{"size": "2"}]}}}}}, {"name": "__inference_pruned_1369/model/tf.__operators__.getitem/strided_slice/stack_2", "op": "Const", "attr": {"dtype": {"type": "DT_INT32"}, "value": {"tensor": {"dtype": "DT_INT32", "tensorShape": {"dim": [{"size": "2"}]}}}}}, {"name": "__inference_pruned_1369/ConstantFolding/model/tf.math.truediv_3/truediv_recip", "op": "Const", "attr": {"value": {"tensor": {"dtype": "DT_FLOAT", "tensorShape": {}}}, "dtype": {"type": "DT_FLOAT"}}}, {"name": "__inference_pruned_1369/model/tf.concat/concat/axis", "op": "Const", "attr": {"value": {"tensor": {"dtype": "DT_INT32", "tensorShape": {}}}, "dtype": {"type": "DT_INT32"}}}, {"name": "__inference_pruned_1369/model/agnostic_nms_1/agnostic_nms/TensorArrayUnstack/TensorListFromTensor/element_shape", "op": "Const", "attr": {"value": {"tensor": {"dtype": "DT_INT32", "tensorShape": {"dim": [{"size": "2"}]}}}, "dtype": {"type": "DT_INT32"}}}, {"name": "__inference_pruned_1369/model/tf.__operators__.getitem_1/strided_slice/stack", "op": "Const", "attr": {"value": {"tensor": {"dtype": "DT_INT32", "tensorShape": {"dim": [{"size": "3"}]}}}, "dtype": {"type": "DT_INT32"}}}, {"name": "__inference_pruned_1369/model/tf.__operators__.getitem_1/strided_slice/stack_1", "op": "Const", "attr": {"dtype": {"type": "DT_INT32"}, "value": {"tensor": {"dtype": "DT_INT32", "tensorShape": {"dim": [{"size": "3"}]}}}}}, {"name": "__inference_pruned_1369/model/tf.__operators__.getitem_1/strided_slice/stack_2", "op": "Const", "attr": {"value": {"tensor": {"dtype": "DT_INT32", "tensorShape": {"dim": [{"size": "3"}]}}}, "dtype": {"type": "DT_INT32"}}}, {"name": "__inference_pruned_1369/model/tf_detect/strided_slice_3/stack", "op": "Const", "attr": {"dtype": {"type": "DT_INT32"}, "value": {"tensor": {"dtype": "DT_INT32", "tensorShape": {"dim": [{"size": "2"}]}}}}}, {"name": "__inference_pruned_1369/model/tf_detect/strided_slice_3/stack_1", "op": "Const", "attr": {"value": {"tensor": {"dtype": "DT_INT32", "tensorShape": {"dim": [{"size": "2"}]}}}, "dtype": {"type": "DT_INT32"}}}, {"name": "__inference_pruned_1369/model/tf_detect/strided_slice_3/stack_2", "op": "Const", "attr": {"dtype": {"type": "DT_INT32"}, "value": {"tensor": {"dtype": "DT_INT32", "tensorShape": {"dim": [{"size": "2"}]}}}}}, {"name": "__inference_pruned_1369/model/tf_detect/mul_2/y", "op": "Const", "attr": {"value": {"tensor": {"dtype": "DT_FLOAT", "tensorShape": {}}}, "dtype": {"type": "DT_FLOAT"}}}, {"name": "__inference_pruned_1369/model/tf_detect/sub", "op": "Const", "attr": {"value": {"tensor": {"dtype": "DT_FLOAT", "tensorShape": {"dim": [{"size": "1"}, {"size": "6400"}, {"size": "1"}, {"size": "2"}]}}}, "dtype": {"type": "DT_FLOAT"}}}, {"name": "__inference_pruned_1369/model/tf_detect/mul_3", "op": "Const", "attr": {"value": {"tensor": {"dtype": "DT_FLOAT", "tensorShape": {"dim": [{"size": "1"}, {"size": "2"}]}}}, "dtype": {"type": "DT_FLOAT"}}}, {"name": "__inference_pruned_1369/model/tf_detect/strided_slice_5/stack", "op": "Const", "attr": {"dtype": {"type": "DT_INT32"}, "value": {"tensor": {"dtype": "DT_INT32", "tensorShape": {"dim": [{"size": "2"}]}}}}}, {"name": "__inference_pruned_1369/model/tf_detect/strided_slice_5/stack_1", "op": "Const", "attr": {"value": {"tensor": {"dtype": "DT_INT32", "tensorShape": {"dim": [{"size": "2"}]}}}, "dtype": {"type": "DT_INT32"}}}, {"name": "__inference_pruned_1369/model/tf_detect/strided_slice_5/stack_2", "op": "Const", "attr": {"value": {"tensor": {"dtype": "DT_INT32", "tensorShape": {"dim": [{"size": "2"}]}}}, "dtype": {"type": "DT_INT32"}}}, {"name": "__inference_pruned_1369/model/tf_detect/mul_4", "op": "Const", "attr": {"dtype": {"type": "DT_FLOAT"}, "value": {"tensor": {"dtype": "DT_FLOAT", "tensorShape": {"dim": [{"size": "1"}, {"size": "1"}, {"size": "3"}, {"size": "2"}]}}}}}, {"name": "__inference_pruned_1369/model/tf_detect/strided_slice_6/stack", "op": "Const", "attr": {"value": {"tensor": {"dtype": "DT_INT32", "tensorShape": {"dim": [{"size": "2"}]}}}, "dtype": {"type": "DT_INT32"}}}, {"name": "__inference_pruned_1369/model/tf_detect/strided_slice_6/stack_1", "op": "Const", "attr": {"dtype": {"type": "DT_INT32"}, "value": {"tensor": {"dtype": "DT_INT32", "tensorShape": {"dim": [{"size": "2"}]}}}}}, {"name": "__inference_pruned_1369/model/tf_detect/strided_slice_6/stack_2", "op": "Const", "attr": {"dtype": {"type": "DT_INT32"}, "value": {"tensor": {"dtype": "DT_INT32", "tensorShape": {"dim": [{"size": "2"}]}}}}}, {"name": "__inference_pruned_1369/model/tf_detect/tf_conv2d/conv2d_57/Conv2D/ReadVariableOp", "op": "Const", "attr": {"value": {"tensor": {"dtype": "DT_FLOAT", "tensorShape": {"dim": [{"size": "1"}, {"size": "1"}, {"size": "128"}, {"size": "18"}]}}}, "dtype": {"type": "DT_FLOAT"}}}, {"name": "__inference_pruned_1369/model/tf_detect/tf_conv2d/conv2d_57/BiasAdd/ReadVariableOp", "op": "Const", "attr": {"value": {"tensor": {"dtype": "DT_FLOAT", "tensorShape": {"dim": [{"size": "18"}]}}}, "dtype": {"type": "DT_FLOAT"}}}, {"name": "__inference_pruned_1369/model/tf_detect/Reshape/shape_1", "op": "Const", "attr": {"value": {"tensor": {"dtype": "DT_INT32", "tensorShape": {"dim": [{"size": "4"}]}}}, "dtype": {"type": "DT_INT32"}}}, {"name": "__inference_pruned_1369/model/tf_detect/strided_slice_7/stack", "op": "Const", "attr": {"value": {"tensor": {"dtype": "DT_INT32", "tensorShape": {"dim": [{"size": "2"}]}}}, "dtype": {"type": "DT_INT32"}}}, {"name": "__inference_pruned_1369/model/tf_detect/strided_slice_7/stack_1", "op": "Const", "attr": {"dtype": {"type": "DT_INT32"}, "value": {"tensor": {"dtype": "DT_INT32", "tensorShape": {"dim": [{"size": "2"}]}}}}}, {"name": "__inference_pruned_1369/model/tf_detect/strided_slice_7/stack_2", "op": "Const", "attr": {"dtype": {"type": "DT_INT32"}, "value": {"tensor": {"dtype": "DT_INT32", "tensorShape": {"dim": [{"size": "2"}]}}}}}, {"name": "__inference_pruned_1369/model/tf_detect/concat/axis", "op": "Const", "attr": {"value": {"tensor": {"dtype": "DT_INT32", "tensorShape": {}}}, "dtype": {"type": "DT_INT32"}}}, {"name": "__inference_pruned_1369/model/tf_detect/Reshape_1/shape_1", "op": "Const", "attr": {"value": {"tensor": {"dtype": "DT_INT32", "tensorShape": {"dim": [{"size": "3"}]}}}, "dtype": {"type": "DT_INT32"}}}, {"name": "__inference_pruned_1369/model/tf_detect/strided_slice_11/stack", "op": "Const", "attr": {"value": {"tensor": {"dtype": "DT_INT32", "tensorShape": {"dim": [{"size": "2"}]}}}, "dtype": {"type": "DT_INT32"}}}, {"name": "__inference_pruned_1369/model/tf_detect/strided_slice_11/stack_1", "op": "Const", "attr": {"dtype": {"type": "DT_INT32"}, "value": {"tensor": {"dtype": "DT_INT32", "tensorShape": {"dim": [{"size": "2"}]}}}}}, {"name": "__inference_pruned_1369/model/tf_detect/strided_slice_11/stack_2", "op": "Const", "attr": {"value": {"tensor": {"dtype": "DT_INT32", "tensorShape": {"dim": [{"size": "2"}]}}}, "dtype": {"type": "DT_INT32"}}}, {"name": "__inference_pruned_1369/model/tf_detect/mul_9/y", "op": "Const", "attr": {"value": {"tensor": {"dtype": "DT_FLOAT", "tensorShape": {}}}, "dtype": {"type": "DT_FLOAT"}}}, {"name": "__inference_pruned_1369/model/tf_detect/sub_1", "op": "Const", "attr": {"dtype": {"type": "DT_FLOAT"}, "value": {"tensor": {"dtype": "DT_FLOAT", "tensorShape": {"dim": [{"size": "1"}, {"size": "1600"}, {"size": "1"}, {"size": "2"}]}}}}}, {"name": "__inference_pruned_1369/model/tf_detect/mul_10", "op": "Const", "attr": {"value": {"tensor": {"dtype": "DT_FLOAT", "tensorShape": {"dim": [{"size": "1"}, {"size": "2"}]}}}, "dtype": {"type": "DT_FLOAT"}}}, {"name": "__inference_pruned_1369/model/tf_detect/strided_slice_13/stack", "op": "Const", "attr": {"value": {"tensor": {"dtype": "DT_INT32", "tensorShape": {"dim": [{"size": "2"}]}}}, "dtype": {"type": "DT_INT32"}}}, {"name": "__inference_pruned_1369/model/tf_detect/strided_slice_13/stack_1", "op": "Const", "attr": {"value": {"tensor": {"dtype": "DT_INT32", "tensorShape": {"dim": [{"size": "2"}]}}}, "dtype": {"type": "DT_INT32"}}}, {"name": "__inference_pruned_1369/model/tf_detect/strided_slice_13/stack_2", "op": "Const", "attr": {"value": {"tensor": {"dtype": "DT_INT32", "tensorShape": {"dim": [{"size": "2"}]}}}, "dtype": {"type": "DT_INT32"}}}, {"name": "__inference_pruned_1369/model/tf_detect/mul_11", "op": "Const", "attr": {"value": {"tensor": {"dtype": "DT_FLOAT", "tensorShape": {"dim": [{"size": "1"}, {"size": "1"}, {"size": "3"}, {"size": "2"}]}}}, "dtype": {"type": "DT_FLOAT"}}}, {"name": "__inference_pruned_1369/model/tf_detect/strided_slice_14/stack", "op": "Const", "attr": {"value": {"tensor": {"dtype": "DT_INT32", "tensorShape": {"dim": [{"size": "2"}]}}}, "dtype": {"type": "DT_INT32"}}}, {"name": "__inference_pruned_1369/model/tf_detect/strided_slice_14/stack_1", "op": "Const", "attr": {"value": {"tensor": {"dtype": "DT_INT32", "tensorShape": {"dim": [{"size": "2"}]}}}, "dtype": {"type": "DT_INT32"}}}, {"name": "__inference_pruned_1369/model/tf_detect/strided_slice_14/stack_2", "op": "Const", "attr": {"value": {"tensor": {"dtype": "DT_INT32", "tensorShape": {"dim": [{"size": "2"}]}}}, "dtype": {"type": "DT_INT32"}}}, {"name": "__inference_pruned_1369/model/tf_detect/tf_conv2d_1/conv2d_58/Conv2D/ReadVariableOp", "op": "Const", "attr": {"value": {"tensor": {"dtype": "DT_FLOAT", "tensorShape": {"dim": [{"size": "1"}, {"size": "1"}, {"size": "256"}, {"size": "18"}]}}}, "dtype": {"type": "DT_FLOAT"}}}, {"name": "__inference_pruned_1369/model/tf_detect/tf_conv2d_1/conv2d_58/BiasAdd/ReadVariableOp", "op": "Const", "attr": {"dtype": {"type": "DT_FLOAT"}, "value": {"tensor": {"dtype": "DT_FLOAT", "tensorShape": {"dim": [{"size": "18"}]}}}}}, {"name": "__inference_pruned_1369/model/tf_detect/Reshape_2/shape_1", "op": "Const", "attr": {"dtype": {"type": "DT_INT32"}, "value": {"tensor": {"dtype": "DT_INT32", "tensorShape": {"dim": [{"size": "4"}]}}}}}, {"name": "__inference_pruned_1369/model/tf_detect/strided_slice_15/stack", "op": "Const", "attr": {"value": {"tensor": {"dtype": "DT_INT32", "tensorShape": {"dim": [{"size": "2"}]}}}, "dtype": {"type": "DT_INT32"}}}, {"name": "__inference_pruned_1369/model/tf_detect/strided_slice_15/stack_1", "op": "Const", "attr": {"value": {"tensor": {"dtype": "DT_INT32", "tensorShape": {"dim": [{"size": "2"}]}}}, "dtype": {"type": "DT_INT32"}}}, {"name": "__inference_pruned_1369/model/tf_detect/strided_slice_15/stack_2", "op": "Const", "attr": {"value": {"tensor": {"dtype": "DT_INT32", "tensorShape": {"dim": [{"size": "2"}]}}}, "dtype": {"type": "DT_INT32"}}}, {"name": "__inference_pruned_1369/model/tf_detect/concat_1/axis", "op": "Const", "attr": {"dtype": {"type": "DT_INT32"}, "value": {"tensor": {"dtype": "DT_INT32", "tensorShape": {}}}}}, {"name": "__inference_pruned_1369/model/tf_detect/Reshape_3/shape_1", "op": "Const", "attr": {"value": {"tensor": {"dtype": "DT_INT32", "tensorShape": {"dim": [{"size": "3"}]}}}, "dtype": {"type": "DT_INT32"}}}, {"name": "__inference_pruned_1369/model/tf_detect/strided_slice_19/stack", "op": "Const", "attr": {"dtype": {"type": "DT_INT32"}, "value": {"tensor": {"dtype": "DT_INT32", "tensorShape": {"dim": [{"size": "2"}]}}}}}, {"name": "__inference_pruned_1369/model/tf_detect/strided_slice_19/stack_1", "op": "Const", "attr": {"dtype": {"type": "DT_INT32"}, "value": {"tensor": {"dtype": "DT_INT32", "tensorShape": {"dim": [{"size": "2"}]}}}}}, {"name": "__inference_pruned_1369/model/tf_detect/strided_slice_19/stack_2", "op": "Const", "attr": {"value": {"tensor": {"dtype": "DT_INT32", "tensorShape": {"dim": [{"size": "2"}]}}}, "dtype": {"type": "DT_INT32"}}}, {"name": "__inference_pruned_1369/model/tf_detect/mul_16/y", "op": "Const", "attr": {"value": {"tensor": {"dtype": "DT_FLOAT", "tensorShape": {}}}, "dtype": {"type": "DT_FLOAT"}}}, {"name": "__inference_pruned_1369/model/tf_detect/sub_2", "op": "Const", "attr": {"value": {"tensor": {"dtype": "DT_FLOAT", "tensorShape": {"dim": [{"size": "1"}, {"size": "400"}, {"size": "1"}, {"size": "2"}]}}}, "dtype": {"type": "DT_FLOAT"}}}, {"name": "__inference_pruned_1369/model/tf_detect/mul_17", "op": "Const", "attr": {"value": {"tensor": {"dtype": "DT_FLOAT", "tensorShape": {"dim": [{"size": "1"}, {"size": "2"}]}}}, "dtype": {"type": "DT_FLOAT"}}}, {"name": "__inference_pruned_1369/model/tf_detect/strided_slice_21/stack", "op": "Const", "attr": {"value": {"tensor": {"dtype": "DT_INT32", "tensorShape": {"dim": [{"size": "2"}]}}}, "dtype": {"type": "DT_INT32"}}}, {"name": "__inference_pruned_1369/model/tf_detect/strided_slice_21/stack_1", "op": "Const", "attr": {"value": {"tensor": {"dtype": "DT_INT32", "tensorShape": {"dim": [{"size": "2"}]}}}, "dtype": {"type": "DT_INT32"}}}, {"name": "__inference_pruned_1369/model/tf_detect/strided_slice_21/stack_2", "op": "Const", "attr": {"dtype": {"type": "DT_INT32"}, "value": {"tensor": {"dtype": "DT_INT32", "tensorShape": {"dim": [{"size": "2"}]}}}}}, {"name": "__inference_pruned_1369/model/tf_detect/mul_18", "op": "Const", "attr": {"value": {"tensor": {"dtype": "DT_FLOAT", "tensorShape": {"dim": [{"size": "1"}, {"size": "1"}, {"size": "3"}, {"size": "2"}]}}}, "dtype": {"type": "DT_FLOAT"}}}, {"name": "__inference_pruned_1369/model/tf_detect/strided_slice_22/stack", "op": "Const", "attr": {"value": {"tensor": {"dtype": "DT_INT32", "tensorShape": {"dim": [{"size": "2"}]}}}, "dtype": {"type": "DT_INT32"}}}, {"name": "__inference_pruned_1369/model/tf_detect/strided_slice_22/stack_1", "op": "Const", "attr": {"value": {"tensor": {"dtype": "DT_INT32", "tensorShape": {"dim": [{"size": "2"}]}}}, "dtype": {"type": "DT_INT32"}}}, {"name": "__inference_pruned_1369/model/tf_detect/strided_slice_22/stack_2", "op": "Const", "attr": {"value": {"tensor": {"dtype": "DT_INT32", "tensorShape": {"dim": [{"size": "2"}]}}}, "dtype": {"type": "DT_INT32"}}}, {"name": "__inference_pruned_1369/model/tfc3_7/tf_conv_52/conv2d_52/Conv2D/ReadVariableOp", "op": "Const", "attr": {"value": {"tensor": {"dtype": "DT_FLOAT", "tensorShape": {"dim": [{"size": "1"}, {"size": "1"}, {"size": "512"}, {"size": "256"}]}}}, "dtype": {"type": "DT_FLOAT"}}}, {"name": "__inference_pruned_1369/model/tfc3_7/tf_conv_52/conv2d_52/BiasAdd/ReadVariableOp", "op": "Const", "attr": {"value": {"tensor": {"dtype": "DT_FLOAT", "tensorShape": {"dim": [{"size": "256"}]}}}, "dtype": {"type": "DT_FLOAT"}}}, {"name": "__inference_pruned_1369/model/tfc3_7/sequential_14/tf_bottleneck_10/tf_conv_55/conv2d_55/Conv2D/ReadVariableOp", "op": "Const", "attr": {"value": {"tensor": {"dtype": "DT_FLOAT", "tensorShape": {"dim": [{"size": "1"}, {"size": "1"}, {"size": "256"}, {"size": "256"}]}}}, "dtype": {"type": "DT_FLOAT"}}}, {"name": "__inference_pruned_1369/model/tfc3_7/sequential_14/tf_bottleneck_10/tf_conv_55/conv2d_55/BiasAdd/ReadVariableOp", "op": "Const", "attr": {"value": {"tensor": {"dtype": "DT_FLOAT", "tensorShape": {"dim": [{"size": "256"}]}}}, "dtype": {"type": "DT_FLOAT"}}}, {"name": "__inference_pruned_1369/model/tfc3_7/sequential_14/tf_bottleneck_10/tf_conv_56/conv2d_56/Conv2D/ReadVariableOp", "op": "Const", "attr": {"value": {"tensor": {"dtype": "DT_FLOAT", "tensorShape": {"dim": [{"size": "3"}, {"size": "3"}, {"size": "256"}, {"size": "256"}]}}}, "dtype": {"type": "DT_FLOAT"}}}, {"name": "__inference_pruned_1369/model/tfc3_7/sequential_14/tf_bottleneck_10/tf_conv_56/conv2d_56/BiasAdd/ReadVariableOp", "op": "Const", "attr": {"value": {"tensor": {"dtype": "DT_FLOAT", "tensorShape": {"dim": [{"size": "256"}]}}}, "dtype": {"type": "DT_FLOAT"}}}, {"name": "__inference_pruned_1369/model/tfc3_6/tf_conv_46/conv2d_46/Conv2D/ReadVariableOp", "op": "Const", "attr": {"value": {"tensor": {"dtype": "DT_FLOAT", "tensorShape": {"dim": [{"size": "1"}, {"size": "1"}, {"size": "256"}, {"size": "128"}]}}}, "dtype": {"type": "DT_FLOAT"}}}, {"name": "__inference_pruned_1369/model/tfc3_6/tf_conv_46/conv2d_46/BiasAdd/ReadVariableOp", "op": "Const", "attr": {"value": {"tensor": {"dtype": "DT_FLOAT", "tensorShape": {"dim": [{"size": "128"}]}}}, "dtype": {"type": "DT_FLOAT"}}}, {"name": "__inference_pruned_1369/model/tfc3_6/sequential_12/tf_bottleneck_9/tf_conv_49/conv2d_49/Conv2D/ReadVariableOp", "op": "Const", "attr": {"value": {"tensor": {"dtype": "DT_FLOAT", "tensorShape": {"dim": [{"size": "1"}, {"size": "1"}, {"size": "128"}, {"size": "128"}]}}}, "dtype": {"type": "DT_FLOAT"}}}, {"name": "__inference_pruned_1369/model/tfc3_6/sequential_12/tf_bottleneck_9/tf_conv_49/conv2d_49/BiasAdd/ReadVariableOp", "op": "Const", "attr": {"dtype": {"type": "DT_FLOAT"}, "value": {"tensor": {"dtype": "DT_FLOAT", "tensorShape": {"dim": [{"size": "128"}]}}}}}, {"name": "__inference_pruned_1369/model/tfc3_6/sequential_12/tf_bottleneck_9/tf_conv_50/conv2d_50/Conv2D/ReadVariableOp", "op": "Const", "attr": {"value": {"tensor": {"dtype": "DT_FLOAT", "tensorShape": {"dim": [{"size": "3"}, {"size": "3"}, {"size": "128"}, {"size": "128"}]}}}, "dtype": {"type": "DT_FLOAT"}}}, {"name": "__inference_pruned_1369/model/tfc3_6/sequential_12/tf_bottleneck_9/tf_conv_50/conv2d_50/BiasAdd/ReadVariableOp", "op": "Const", "attr": {"dtype": {"type": "DT_FLOAT"}, "value": {"tensor": {"dtype": "DT_FLOAT", "tensorShape": {"dim": [{"size": "128"}]}}}}}, {"name": "__inference_pruned_1369/model/tfc3_5/tf_conv_40/conv2d_40/Conv2D/ReadVariableOp", "op": "Const", "attr": {"value": {"tensor": {"dtype": "DT_FLOAT", "tensorShape": {"dim": [{"size": "1"}, {"size": "1"}, {"size": "256"}, {"size": "64"}]}}}, "dtype": {"type": "DT_FLOAT"}}}, {"name": "__inference_pruned_1369/model/tfc3_5/tf_conv_40/conv2d_40/BiasAdd/ReadVariableOp", "op": "Const", "attr": {"value": {"tensor": {"dtype": "DT_FLOAT", "tensorShape": {"dim": [{"size": "64"}]}}}, "dtype": {"type": "DT_FLOAT"}}}, {"name": "__inference_pruned_1369/model/tfc3_5/sequential_10/tf_bottleneck_8/tf_conv_43/conv2d_43/Conv2D/ReadVariableOp", "op": "Const", "attr": {"value": {"tensor": {"dtype": "DT_FLOAT", "tensorShape": {"dim": [{"size": "1"}, {"size": "1"}, {"size": "64"}, {"size": "64"}]}}}, "dtype": {"type": "DT_FLOAT"}}}, {"name": "__inference_pruned_1369/model/tfc3_5/sequential_10/tf_bottleneck_8/tf_conv_43/conv2d_43/BiasAdd/ReadVariableOp", "op": "Const", "attr": {"value": {"tensor": {"dtype": "DT_FLOAT", "tensorShape": {"dim": [{"size": "64"}]}}}, "dtype": {"type": "DT_FLOAT"}}}, {"name": "__inference_pruned_1369/model/tfc3_5/sequential_10/tf_bottleneck_8/tf_conv_44/conv2d_44/Conv2D/ReadVariableOp", "op": "Const", "attr": {"value": {"tensor": {"dtype": "DT_FLOAT", "tensorShape": {"dim": [{"size": "3"}, {"size": "3"}, {"size": "64"}, {"size": "64"}]}}}, "dtype": {"type": "DT_FLOAT"}}}, {"name": "__inference_pruned_1369/model/tfc3_5/sequential_10/tf_bottleneck_8/tf_conv_44/conv2d_44/BiasAdd/ReadVariableOp", "op": "Const", "attr": {"value": {"tensor": {"dtype": "DT_FLOAT", "tensorShape": {"dim": [{"size": "64"}]}}}, "dtype": {"type": "DT_FLOAT"}}}, {"name": "__inference_pruned_1369/model/tf_upsample_1/resize/size", "op": "Const", "attr": {"value": {"tensor": {"dtype": "DT_INT32", "tensorShape": {"dim": [{"size": "2"}]}}}, "dtype": {"type": "DT_INT32"}}}, {"name": "__inference_pruned_1369/model/tf_concat_1/concat/axis", "op": "Const", "attr": {"value": {"tensor": {"dtype": "DT_INT32", "tensorShape": {}}}, "dtype": {"type": "DT_INT32"}}}, {"name": "__inference_pruned_1369/model/tfc3_5/tf_conv_41/conv2d_41/Conv2D/ReadVariableOp", "op": "Const", "attr": {"value": {"tensor": {"dtype": "DT_FLOAT", "tensorShape": {"dim": [{"size": "1"}, {"size": "1"}, {"size": "256"}, {"size": "64"}]}}}, "dtype": {"type": "DT_FLOAT"}}}, {"name": "__inference_pruned_1369/model/tfc3_5/tf_conv_41/conv2d_41/BiasAdd/ReadVariableOp", "op": "Const", "attr": {"value": {"tensor": {"dtype": "DT_FLOAT", "tensorShape": {"dim": [{"size": "64"}]}}}, "dtype": {"type": "DT_FLOAT"}}}, {"name": "__inference_pruned_1369/model/tfc3_5/concat/axis", "op": "Const", "attr": {"value": {"tensor": {"dtype": "DT_INT32", "tensorShape": {}}}, "dtype": {"type": "DT_INT32"}}}, {"name": "__inference_pruned_1369/model/tfc3_5/tf_conv_42/conv2d_42/Conv2D/ReadVariableOp", "op": "Const", "attr": {"value": {"tensor": {"dtype": "DT_FLOAT", "tensorShape": {"dim": [{"size": "1"}, {"size": "1"}, {"size": "128"}, {"size": "128"}]}}}, "dtype": {"type": "DT_FLOAT"}}}, {"name": "__inference_pruned_1369/model/tfc3_5/tf_conv_42/conv2d_42/BiasAdd/ReadVariableOp", "op": "Const", "attr": {"value": {"tensor": {"dtype": "DT_FLOAT", "tensorShape": {"dim": [{"size": "128"}]}}}, "dtype": {"type": "DT_FLOAT"}}}, {"name": "__inference_pruned_1369/model/tf_conv_45/sequential_11/tf_pad_5/Pad/paddings", "op": "Const", "attr": {"value": {"tensor": {"dtype": "DT_INT32", "tensorShape": {"dim": [{"size": "4"}, {"size": "2"}]}}}, "dtype": {"type": "DT_INT32"}}}, {"name": "__inference_pruned_1369/model/tf_conv_45/sequential_11/conv2d_45/Conv2D/ReadVariableOp", "op": "Const", "attr": {"value": {"tensor": {"dtype": "DT_FLOAT", "tensorShape": {"dim": [{"size": "3"}, {"size": "3"}, {"size": "128"}, {"size": "128"}]}}}, "dtype": {"type": "DT_FLOAT"}}}, {"name": "__inference_pruned_1369/model/tf_conv_45/sequential_11/conv2d_45/BiasAdd/ReadVariableOp", "op": "Const", "attr": {"value": {"tensor": {"dtype": "DT_FLOAT", "tensorShape": {"dim": [{"size": "128"}]}}}, "dtype": {"type": "DT_FLOAT"}}}, {"name": "__inference_pruned_1369/model/tfc3_4/tf_conv_34/conv2d_34/Conv2D/ReadVariableOp", "op": "Const", "attr": {"value": {"tensor": {"dtype": "DT_FLOAT", "tensorShape": {"dim": [{"size": "1"}, {"size": "1"}, {"size": "512"}, {"size": "128"}]}}}, "dtype": {"type": "DT_FLOAT"}}}, {"name": "__inference_pruned_1369/model/tfc3_4/tf_conv_34/conv2d_34/BiasAdd/ReadVariableOp", "op": "Const", "attr": {"dtype": {"type": "DT_FLOAT"}, "value": {"tensor": {"dtype": "DT_FLOAT", "tensorShape": {"dim": [{"size": "128"}]}}}}}, {"name": "__inference_pruned_1369/model/tfc3_4/sequential_9/tf_bottleneck_7/tf_conv_37/conv2d_37/Conv2D/ReadVariableOp", "op": "Const", "attr": {"value": {"tensor": {"dtype": "DT_FLOAT", "tensorShape": {"dim": [{"size": "1"}, {"size": "1"}, {"size": "128"}, {"size": "128"}]}}}, "dtype": {"type": "DT_FLOAT"}}}, {"name": "__inference_pruned_1369/model/tfc3_4/sequential_9/tf_bottleneck_7/tf_conv_37/conv2d_37/BiasAdd/ReadVariableOp", "op": "Const", "attr": {"value": {"tensor": {"dtype": "DT_FLOAT", "tensorShape": {"dim": [{"size": "128"}]}}}, "dtype": {"type": "DT_FLOAT"}}}, {"name": "__inference_pruned_1369/model/tfc3_4/sequential_9/tf_bottleneck_7/tf_conv_38/conv2d_38/Conv2D/ReadVariableOp", "op": "Const", "attr": {"value": {"tensor": {"dtype": "DT_FLOAT", "tensorShape": {"dim": [{"size": "3"}, {"size": "3"}, {"size": "128"}, {"size": "128"}]}}}, "dtype": {"type": "DT_FLOAT"}}}, {"name": "__inference_pruned_1369/model/tfc3_4/sequential_9/tf_bottleneck_7/tf_conv_38/conv2d_38/BiasAdd/ReadVariableOp", "op": "Const", "attr": {"dtype": {"type": "DT_FLOAT"}, "value": {"tensor": {"dtype": "DT_FLOAT", "tensorShape": {"dim": [{"size": "128"}]}}}}}, {"name": "__inference_pruned_1369/model/tf_upsample/resize/size", "op": "Const", "attr": {"value": {"tensor": {"dtype": "DT_INT32", "tensorShape": {"dim": [{"size": "2"}]}}}, "dtype": {"type": "DT_INT32"}}}, {"name": "__inference_pruned_1369/model/tf_concat/concat/axis", "op": "Const", "attr": {"dtype": {"type": "DT_INT32"}, "value": {"tensor": {"dtype": "DT_INT32", "tensorShape": {}}}}}, {"name": "__inference_pruned_1369/model/tfc3_4/tf_conv_35/conv2d_35/Conv2D/ReadVariableOp", "op": "Const", "attr": {"value": {"tensor": {"dtype": "DT_FLOAT", "tensorShape": {"dim": [{"size": "1"}, {"size": "1"}, {"size": "512"}, {"size": "128"}]}}}, "dtype": {"type": "DT_FLOAT"}}}, {"name": "__inference_pruned_1369/model/tfc3_4/tf_conv_35/conv2d_35/BiasAdd/ReadVariableOp", "op": "Const", "attr": {"value": {"tensor": {"dtype": "DT_FLOAT", "tensorShape": {"dim": [{"size": "128"}]}}}, "dtype": {"type": "DT_FLOAT"}}}, {"name": "__inference_pruned_1369/model/tfc3_4/concat/axis", "op": "Const", "attr": {"value": {"tensor": {"dtype": "DT_INT32", "tensorShape": {}}}, "dtype": {"type": "DT_INT32"}}}, {"name": "__inference_pruned_1369/model/tfc3_4/tf_conv_36/conv2d_36/Conv2D/ReadVariableOp", "op": "Const", "attr": {"value": {"tensor": {"dtype": "DT_FLOAT", "tensorShape": {"dim": [{"size": "1"}, {"size": "1"}, {"size": "256"}, {"size": "256"}]}}}, "dtype": {"type": "DT_FLOAT"}}}, {"name": "__inference_pruned_1369/model/tfc3_4/tf_conv_36/conv2d_36/BiasAdd/ReadVariableOp", "op": "Const", "attr": {"value": {"tensor": {"dtype": "DT_FLOAT", "tensorShape": {"dim": [{"size": "256"}]}}}, "dtype": {"type": "DT_FLOAT"}}}, {"name": "__inference_pruned_1369/model/tf_conv_39/conv2d_39/Conv2D/ReadVariableOp", "op": "Const", "attr": {"dtype": {"type": "DT_FLOAT"}, "value": {"tensor": {"dtype": "DT_FLOAT", "tensorShape": {"dim": [{"size": "1"}, {"size": "1"}, {"size": "256"}, {"size": "128"}]}}}}}, {"name": "__inference_pruned_1369/model/tf_conv_39/conv2d_39/BiasAdd/ReadVariableOp", "op": "Const", "attr": {"dtype": {"type": "DT_FLOAT"}, "value": {"tensor": {"dtype": "DT_FLOAT", "tensorShape": {"dim": [{"size": "128"}]}}}}}, {"name": "__inference_pruned_1369/model/tf_concat_2/concat/axis", "op": "Const", "attr": {"dtype": {"type": "DT_INT32"}, "value": {"tensor": {"dtype": "DT_INT32", "tensorShape": {}}}}}, {"name": "__inference_pruned_1369/model/tfc3_6/tf_conv_47/conv2d_47/Conv2D/ReadVariableOp", "op": "Const", "attr": {"value": {"tensor": {"dtype": "DT_FLOAT", "tensorShape": {"dim": [{"size": "1"}, {"size": "1"}, {"size": "256"}, {"size": "128"}]}}}, "dtype": {"type": "DT_FLOAT"}}}, {"name": "__inference_pruned_1369/model/tfc3_6/tf_conv_47/conv2d_47/BiasAdd/ReadVariableOp", "op": "Const", "attr": {"value": {"tensor": {"dtype": "DT_FLOAT", "tensorShape": {"dim": [{"size": "128"}]}}}, "dtype": {"type": "DT_FLOAT"}}}, {"name": "__inference_pruned_1369/model/tfc3_6/concat/axis", "op": "Const", "attr": {"value": {"tensor": {"dtype": "DT_INT32", "tensorShape": {}}}, "dtype": {"type": "DT_INT32"}}}, {"name": "__inference_pruned_1369/model/tfc3_6/tf_conv_48/conv2d_48/Conv2D/ReadVariableOp", "op": "Const", "attr": {"value": {"tensor": {"dtype": "DT_FLOAT", "tensorShape": {"dim": [{"size": "1"}, {"size": "1"}, {"size": "256"}, {"size": "256"}]}}}, "dtype": {"type": "DT_FLOAT"}}}, {"name": "__inference_pruned_1369/model/tfc3_6/tf_conv_48/conv2d_48/BiasAdd/ReadVariableOp", "op": "Const", "attr": {"value": {"tensor": {"dtype": "DT_FLOAT", "tensorShape": {"dim": [{"size": "256"}]}}}, "dtype": {"type": "DT_FLOAT"}}}, {"name": "__inference_pruned_1369/model/tf_conv_51/sequential_13/tf_pad_6/Pad/paddings", "op": "Const", "attr": {"value": {"tensor": {"dtype": "DT_INT32", "tensorShape": {"dim": [{"size": "4"}, {"size": "2"}]}}}, "dtype": {"type": "DT_INT32"}}}, {"name": "__inference_pruned_1369/model/tf_conv_51/sequential_13/conv2d_51/Conv2D/ReadVariableOp", "op": "Const", "attr": {"value": {"tensor": {"dtype": "DT_FLOAT", "tensorShape": {"dim": [{"size": "3"}, {"size": "3"}, {"size": "256"}, {"size": "256"}]}}}, "dtype": {"type": "DT_FLOAT"}}}, {"name": "__inference_pruned_1369/model/tf_conv_51/sequential_13/conv2d_51/BiasAdd/ReadVariableOp", "op": "Const", "attr": {"value": {"tensor": {"dtype": "DT_FLOAT", "tensorShape": {"dim": [{"size": "256"}]}}}, "dtype": {"type": "DT_FLOAT"}}}, {"name": "__inference_pruned_1369/model/tfc3_3/tf_conv_26/conv2d_26/Conv2D/ReadVariableOp", "op": "Const", "attr": {"value": {"tensor": {"dtype": "DT_FLOAT", "tensorShape": {"dim": [{"size": "1"}, {"size": "1"}, {"size": "512"}, {"size": "256"}]}}}, "dtype": {"type": "DT_FLOAT"}}}, {"name": "__inference_pruned_1369/model/tfc3_3/tf_conv_26/conv2d_26/BiasAdd/ReadVariableOp", "op": "Const", "attr": {"dtype": {"type": "DT_FLOAT"}, "value": {"tensor": {"dtype": "DT_FLOAT", "tensorShape": {"dim": [{"size": "256"}]}}}}}, {"name": "__inference_pruned_1369/model/tfc3_3/sequential_8/tf_bottleneck_6/tf_conv_29/conv2d_29/Conv2D/ReadVariableOp", "op": "Const", "attr": {"value": {"tensor": {"dtype": "DT_FLOAT", "tensorShape": {"dim": [{"size": "1"}, {"size": "1"}, {"size": "256"}, {"size": "256"}]}}}, "dtype": {"type": "DT_FLOAT"}}}, {"name": "__inference_pruned_1369/model/tfc3_3/sequential_8/tf_bottleneck_6/tf_conv_29/conv2d_29/BiasAdd/ReadVariableOp", "op": "Const", "attr": {"value": {"tensor": {"dtype": "DT_FLOAT", "tensorShape": {"dim": [{"size": "256"}]}}}, "dtype": {"type": "DT_FLOAT"}}}, {"name": "__inference_pruned_1369/model/tfc3_3/sequential_8/tf_bottleneck_6/tf_conv_30/conv2d_30/Conv2D/ReadVariableOp", "op": "Const", "attr": {"value": {"tensor": {"dtype": "DT_FLOAT", "tensorShape": {"dim": [{"size": "3"}, {"size": "3"}, {"size": "256"}, {"size": "256"}]}}}, "dtype": {"type": "DT_FLOAT"}}}, {"name": "__inference_pruned_1369/model/tfc3_3/sequential_8/tf_bottleneck_6/tf_conv_30/conv2d_30/BiasAdd/ReadVariableOp", "op": "Const", "attr": {"value": {"tensor": {"dtype": "DT_FLOAT", "tensorShape": {"dim": [{"size": "256"}]}}}, "dtype": {"type": "DT_FLOAT"}}}, {"name": "__inference_pruned_1369/model/tfc3_2/tf_conv_16/conv2d_16/Conv2D/ReadVariableOp", "op": "Const", "attr": {"value": {"tensor": {"dtype": "DT_FLOAT", "tensorShape": {"dim": [{"size": "1"}, {"size": "1"}, {"size": "256"}, {"size": "128"}]}}}, "dtype": {"type": "DT_FLOAT"}}}, {"name": "__inference_pruned_1369/model/tfc3_2/tf_conv_16/conv2d_16/BiasAdd/ReadVariableOp", "op": "Const", "attr": {"value": {"tensor": {"dtype": "DT_FLOAT", "tensorShape": {"dim": [{"size": "128"}]}}}, "dtype": {"type": "DT_FLOAT"}}}, {"name": "__inference_pruned_1369/model/tfc3_2/sequential_6/tf_bottleneck_3/tf_conv_19/conv2d_19/Conv2D/ReadVariableOp", "op": "Const", "attr": {"value": {"tensor": {"dtype": "DT_FLOAT", "tensorShape": {"dim": [{"size": "1"}, {"size": "1"}, {"size": "128"}, {"size": "128"}]}}}, "dtype": {"type": "DT_FLOAT"}}}, {"name": "__inference_pruned_1369/model/tfc3_2/sequential_6/tf_bottleneck_3/tf_conv_19/conv2d_19/BiasAdd/ReadVariableOp", "op": "Const", "attr": {"dtype": {"type": "DT_FLOAT"}, "value": {"tensor": {"dtype": "DT_FLOAT", "tensorShape": {"dim": [{"size": "128"}]}}}}}, {"name": "__inference_pruned_1369/model/tfc3_2/sequential_6/tf_bottleneck_3/tf_conv_20/conv2d_20/Conv2D/ReadVariableOp", "op": "Const", "attr": {"value": {"tensor": {"dtype": "DT_FLOAT", "tensorShape": {"dim": [{"size": "3"}, {"size": "3"}, {"size": "128"}, {"size": "128"}]}}}, "dtype": {"type": "DT_FLOAT"}}}, {"name": "__inference_pruned_1369/model/tfc3_2/sequential_6/tf_bottleneck_3/tf_conv_20/conv2d_20/BiasAdd/ReadVariableOp", "op": "Const", "attr": {"value": {"tensor": {"dtype": "DT_FLOAT", "tensorShape": {"dim": [{"size": "128"}]}}}, "dtype": {"type": "DT_FLOAT"}}}, {"name": "__inference_pruned_1369/model/tfc3_2/sequential_6/tf_bottleneck_4/tf_conv_21/conv2d_21/Conv2D/ReadVariableOp", "op": "Const", "attr": {"dtype": {"type": "DT_FLOAT"}, "value": {"tensor": {"dtype": "DT_FLOAT", "tensorShape": {"dim": [{"size": "1"}, {"size": "1"}, {"size": "128"}, {"size": "128"}]}}}}}, {"name": "__inference_pruned_1369/model/tfc3_2/sequential_6/tf_bottleneck_4/tf_conv_21/conv2d_21/BiasAdd/ReadVariableOp", "op": "Const", "attr": {"value": {"tensor": {"dtype": "DT_FLOAT", "tensorShape": {"dim": [{"size": "128"}]}}}, "dtype": {"type": "DT_FLOAT"}}}, {"name": "__inference_pruned_1369/model/tfc3_2/sequential_6/tf_bottleneck_4/tf_conv_22/conv2d_22/Conv2D/ReadVariableOp", "op": "Const", "attr": {"value": {"tensor": {"dtype": "DT_FLOAT", "tensorShape": {"dim": [{"size": "3"}, {"size": "3"}, {"size": "128"}, {"size": "128"}]}}}, "dtype": {"type": "DT_FLOAT"}}}, {"name": "__inference_pruned_1369/model/tfc3_2/sequential_6/tf_bottleneck_4/tf_conv_22/conv2d_22/BiasAdd/ReadVariableOp", "op": "Const", "attr": {"dtype": {"type": "DT_FLOAT"}, "value": {"tensor": {"dtype": "DT_FLOAT", "tensorShape": {"dim": [{"size": "128"}]}}}}}, {"name": "__inference_pruned_1369/model/tfc3_2/sequential_6/tf_bottleneck_5/tf_conv_23/conv2d_23/Conv2D/ReadVariableOp", "op": "Const", "attr": {"value": {"tensor": {"dtype": "DT_FLOAT", "tensorShape": {"dim": [{"size": "1"}, {"size": "1"}, {"size": "128"}, {"size": "128"}]}}}, "dtype": {"type": "DT_FLOAT"}}}, {"name": "__inference_pruned_1369/model/tfc3_2/sequential_6/tf_bottleneck_5/tf_conv_23/conv2d_23/BiasAdd/ReadVariableOp", "op": "Const", "attr": {"value": {"tensor": {"dtype": "DT_FLOAT", "tensorShape": {"dim": [{"size": "128"}]}}}, "dtype": {"type": "DT_FLOAT"}}}, {"name": "__inference_pruned_1369/model/tfc3_2/sequential_6/tf_bottleneck_5/tf_conv_24/conv2d_24/Conv2D/ReadVariableOp", "op": "Const", "attr": {"dtype": {"type": "DT_FLOAT"}, "value": {"tensor": {"dtype": "DT_FLOAT", "tensorShape": {"dim": [{"size": "3"}, {"size": "3"}, {"size": "128"}, {"size": "128"}]}}}}}, {"name": "__inference_pruned_1369/model/tfc3_2/sequential_6/tf_bottleneck_5/tf_conv_24/conv2d_24/BiasAdd/ReadVariableOp", "op": "Const", "attr": {"dtype": {"type": "DT_FLOAT"}, "value": {"tensor": {"dtype": "DT_FLOAT", "tensorShape": {"dim": [{"size": "128"}]}}}}}, {"name": "__inference_pruned_1369/model/tfc3_1/tf_conv_8/conv2d_8/Conv2D/ReadVariableOp", "op": "Const", "attr": {"dtype": {"type": "DT_FLOAT"}, "value": {"tensor": {"dtype": "DT_FLOAT", "tensorShape": {"dim": [{"size": "1"}, {"size": "1"}, {"size": "128"}, {"size": "64"}]}}}}}, {"name": "__inference_pruned_1369/model/tfc3_1/tf_conv_8/conv2d_8/BiasAdd/ReadVariableOp", "op": "Const", "attr": {"dtype": {"type": "DT_FLOAT"}, "value": {"tensor": {"dtype": "DT_FLOAT", "tensorShape": {"dim": [{"size": "64"}]}}}}}, {"name": "__inference_pruned_1369/model/tfc3_1/sequential_4/tf_bottleneck_1/tf_conv_11/conv2d_11/Conv2D/ReadVariableOp", "op": "Const", "attr": {"value": {"tensor": {"dtype": "DT_FLOAT", "tensorShape": {"dim": [{"size": "1"}, {"size": "1"}, {"size": "64"}, {"size": "64"}]}}}, "dtype": {"type": "DT_FLOAT"}}}, {"name": "__inference_pruned_1369/model/tfc3_1/sequential_4/tf_bottleneck_1/tf_conv_11/conv2d_11/BiasAdd/ReadVariableOp", "op": "Const", "attr": {"dtype": {"type": "DT_FLOAT"}, "value": {"tensor": {"dtype": "DT_FLOAT", "tensorShape": {"dim": [{"size": "64"}]}}}}}, {"name": "__inference_pruned_1369/model/tfc3_1/sequential_4/tf_bottleneck_1/tf_conv_12/conv2d_12/Conv2D/ReadVariableOp", "op": "Const", "attr": {"dtype": {"type": "DT_FLOAT"}, "value": {"tensor": {"dtype": "DT_FLOAT", "tensorShape": {"dim": [{"size": "3"}, {"size": "3"}, {"size": "64"}, {"size": "64"}]}}}}}, {"name": "__inference_pruned_1369/model/tfc3_1/sequential_4/tf_bottleneck_1/tf_conv_12/conv2d_12/BiasAdd/ReadVariableOp", "op": "Const", "attr": {"dtype": {"type": "DT_FLOAT"}, "value": {"tensor": {"dtype": "DT_FLOAT", "tensorShape": {"dim": [{"size": "64"}]}}}}}, {"name": "__inference_pruned_1369/model/tfc3_1/sequential_4/tf_bottleneck_2/tf_conv_13/conv2d_13/Conv2D/ReadVariableOp", "op": "Const", "attr": {"value": {"tensor": {"dtype": "DT_FLOAT", "tensorShape": {"dim": [{"size": "1"}, {"size": "1"}, {"size": "64"}, {"size": "64"}]}}}, "dtype": {"type": "DT_FLOAT"}}}, {"name": "__inference_pruned_1369/model/tfc3_1/sequential_4/tf_bottleneck_2/tf_conv_13/conv2d_13/BiasAdd/ReadVariableOp", "op": "Const", "attr": {"dtype": {"type": "DT_FLOAT"}, "value": {"tensor": {"dtype": "DT_FLOAT", "tensorShape": {"dim": [{"size": "64"}]}}}}}, {"name": "__inference_pruned_1369/model/tfc3_1/sequential_4/tf_bottleneck_2/tf_conv_14/conv2d_14/Conv2D/ReadVariableOp", "op": "Const", "attr": {"dtype": {"type": "DT_FLOAT"}, "value": {"tensor": {"dtype": "DT_FLOAT", "tensorShape": {"dim": [{"size": "3"}, {"size": "3"}, {"size": "64"}, {"size": "64"}]}}}}}, {"name": "__inference_pruned_1369/model/tfc3_1/sequential_4/tf_bottleneck_2/tf_conv_14/conv2d_14/BiasAdd/ReadVariableOp", "op": "Const", "attr": {"dtype": {"type": "DT_FLOAT"}, "value": {"tensor": {"dtype": "DT_FLOAT", "tensorShape": {"dim": [{"size": "64"}]}}}}}, {"name": "__inference_pruned_1369/model/tfc3/tf_conv_2/conv2d_2/Conv2D/ReadVariableOp", "op": "Const", "attr": {"dtype": {"type": "DT_FLOAT"}, "value": {"tensor": {"dtype": "DT_FLOAT", "tensorShape": {"dim": [{"size": "1"}, {"size": "1"}, {"size": "64"}, {"size": "32"}]}}}}}, {"name": "__inference_pruned_1369/model/tfc3/tf_conv_2/conv2d_2/BiasAdd/ReadVariableOp", "op": "Const", "attr": {"dtype": {"type": "DT_FLOAT"}, "value": {"tensor": {"dtype": "DT_FLOAT", "tensorShape": {"dim": [{"size": "32"}]}}}}}, {"name": "__inference_pruned_1369/model/tfc3/sequential_2/tf_bottleneck/tf_conv_5/conv2d_5/Conv2D/ReadVariableOp", "op": "Const", "attr": {"value": {"tensor": {"dtype": "DT_FLOAT", "tensorShape": {"dim": [{"size": "1"}, {"size": "1"}, {"size": "32"}, {"size": "32"}]}}}, "dtype": {"type": "DT_FLOAT"}}}, {"name": "__inference_pruned_1369/model/tfc3/sequential_2/tf_bottleneck/tf_conv_5/conv2d_5/BiasAdd/ReadVariableOp", "op": "Const", "attr": {"dtype": {"type": "DT_FLOAT"}, "value": {"tensor": {"dtype": "DT_FLOAT", "tensorShape": {"dim": [{"size": "32"}]}}}}}, {"name": "__inference_pruned_1369/model/tfc3/sequential_2/tf_bottleneck/tf_conv_6/conv2d_6/Conv2D/ReadVariableOp", "op": "Const", "attr": {"dtype": {"type": "DT_FLOAT"}, "value": {"tensor": {"dtype": "DT_FLOAT", "tensorShape": {"dim": [{"size": "3"}, {"size": "3"}, {"size": "32"}, {"size": "32"}]}}}}}, {"name": "__inference_pruned_1369/model/tfc3/sequential_2/tf_bottleneck/tf_conv_6/conv2d_6/BiasAdd/ReadVariableOp", "op": "Const", "attr": {"dtype": {"type": "DT_FLOAT"}, "value": {"tensor": {"dtype": "DT_FLOAT", "tensorShape": {"dim": [{"size": "32"}]}}}}}, {"name": "__inference_pruned_1369/model/tf_conv/sequential/tf_pad/Pad/paddings", "op": "Const", "attr": {"dtype": {"type": "DT_INT32"}, "value": {"tensor": {"dtype": "DT_INT32", "tensorShape": {"dim": [{"size": "4"}, {"size": "2"}]}}}}}, {"name": "__inference_pruned_1369/model/tf_conv/sequential/conv2d/Conv2D/ReadVariableOp", "op": "Const", "attr": {"dtype": {"type": "DT_FLOAT"}, "value": {"tensor": {"dtype": "DT_FLOAT", "tensorShape": {"dim": [{"size": "6"}, {"size": "6"}, {"size": "3"}, {"size": "32"}]}}}}}, {"name": "__inference_pruned_1369/model/tf_conv/sequential/conv2d/BiasAdd/ReadVariableOp", "op": "Const", "attr": {"dtype": {"type": "DT_FLOAT"}, "value": {"tensor": {"dtype": "DT_FLOAT", "tensorShape": {"dim": [{"size": "32"}]}}}}}, {"name": "__inference_pruned_1369/model/tf_conv_1/sequential_1/tf_pad_1/Pad/paddings", "op": "Const", "attr": {"dtype": {"type": "DT_INT32"}, "value": {"tensor": {"dtype": "DT_INT32", "tensorShape": {"dim": [{"size": "4"}, {"size": "2"}]}}}}}, {"name": "__inference_pruned_1369/model/tf_conv_1/sequential_1/conv2d_1/Conv2D/ReadVariableOp", "op": "Const", "attr": {"dtype": {"type": "DT_FLOAT"}, "value": {"tensor": {"dtype": "DT_FLOAT", "tensorShape": {"dim": [{"size": "3"}, {"size": "3"}, {"size": "32"}, {"size": "64"}]}}}}}, {"name": "__inference_pruned_1369/model/tf_conv_1/sequential_1/conv2d_1/BiasAdd/ReadVariableOp", "op": "Const", "attr": {"dtype": {"type": "DT_FLOAT"}, "value": {"tensor": {"dtype": "DT_FLOAT", "tensorShape": {"dim": [{"size": "64"}]}}}}}, {"name": "__inference_pruned_1369/model/tfc3/tf_conv_3/conv2d_3/Conv2D/ReadVariableOp", "op": "Const", "attr": {"dtype": {"type": "DT_FLOAT"}, "value": {"tensor": {"dtype": "DT_FLOAT", "tensorShape": {"dim": [{"size": "1"}, {"size": "1"}, {"size": "64"}, {"size": "32"}]}}}}}, {"name": "__inference_pruned_1369/model/tfc3/tf_conv_3/conv2d_3/BiasAdd/ReadVariableOp", "op": "Const", "attr": {"dtype": {"type": "DT_FLOAT"}, "value": {"tensor": {"dtype": "DT_FLOAT", "tensorShape": {"dim": [{"size": "32"}]}}}}}, {"name": "__inference_pruned_1369/model/tfc3/concat/axis", "op": "Const", "attr": {"dtype": {"type": "DT_INT32"}, "value": {"tensor": {"dtype": "DT_INT32", "tensorShape": {}}}}}, {"name": "__inference_pruned_1369/model/tfc3/tf_conv_4/conv2d_4/Conv2D/ReadVariableOp", "op": "Const", "attr": {"dtype": {"type": "DT_FLOAT"}, "value": {"tensor": {"dtype": "DT_FLOAT", "tensorShape": {"dim": [{"size": "1"}, {"size": "1"}, {"size": "64"}, {"size": "64"}]}}}}}, {"name": "__inference_pruned_1369/model/tfc3/tf_conv_4/conv2d_4/BiasAdd/ReadVariableOp", "op": "Const", "attr": {"value": {"tensor": {"dtype": "DT_FLOAT", "tensorShape": {"dim": [{"size": "64"}]}}}, "dtype": {"type": "DT_FLOAT"}}}, {"name": "__inference_pruned_1369/model/tf_conv_7/sequential_3/tf_pad_2/Pad/paddings", "op": "Const", "attr": {"dtype": {"type": "DT_INT32"}, "value": {"tensor": {"dtype": "DT_INT32", "tensorShape": {"dim": [{"size": "4"}, {"size": "2"}]}}}}}, {"name": "__inference_pruned_1369/model/tf_conv_7/sequential_3/conv2d_7/Conv2D/ReadVariableOp", "op": "Const", "attr": {"dtype": {"type": "DT_FLOAT"}, "value": {"tensor": {"dtype": "DT_FLOAT", "tensorShape": {"dim": [{"size": "3"}, {"size": "3"}, {"size": "64"}, {"size": "128"}]}}}}}, {"name": "__inference_pruned_1369/model/tf_conv_7/sequential_3/conv2d_7/BiasAdd/ReadVariableOp", "op": "Const", "attr": {"dtype": {"type": "DT_FLOAT"}, "value": {"tensor": {"dtype": "DT_FLOAT", "tensorShape": {"dim": [{"size": "128"}]}}}}}, {"name": "__inference_pruned_1369/model/tfc3_1/tf_conv_9/conv2d_9/Conv2D/ReadVariableOp", "op": "Const", "attr": {"dtype": {"type": "DT_FLOAT"}, "value": {"tensor": {"dtype": "DT_FLOAT", "tensorShape": {"dim": [{"size": "1"}, {"size": "1"}, {"size": "128"}, {"size": "64"}]}}}}}, {"name": "__inference_pruned_1369/model/tfc3_1/tf_conv_9/conv2d_9/BiasAdd/ReadVariableOp", "op": "Const", "attr": {"value": {"tensor": {"dtype": "DT_FLOAT", "tensorShape": {"dim": [{"size": "64"}]}}}, "dtype": {"type": "DT_FLOAT"}}}, {"name": "__inference_pruned_1369/model/tfc3_1/concat/axis", "op": "Const", "attr": {"dtype": {"type": "DT_INT32"}, "value": {"tensor": {"dtype": "DT_INT32", "tensorShape": {}}}}}, {"name": "__inference_pruned_1369/model/tfc3_1/tf_conv_10/conv2d_10/Conv2D/ReadVariableOp", "op": "Const", "attr": {"dtype": {"type": "DT_FLOAT"}, "value": {"tensor": {"dtype": "DT_FLOAT", "tensorShape": {"dim": [{"size": "1"}, {"size": "1"}, {"size": "128"}, {"size": "128"}]}}}}}, {"name": "__inference_pruned_1369/model/tfc3_1/tf_conv_10/conv2d_10/BiasAdd/ReadVariableOp", "op": "Const", "attr": {"dtype": {"type": "DT_FLOAT"}, "value": {"tensor": {"dtype": "DT_FLOAT", "tensorShape": {"dim": [{"size": "128"}]}}}}}, {"name": "__inference_pruned_1369/model/tf_conv_15/sequential_5/tf_pad_3/Pad/paddings", "op": "Const", "attr": {"dtype": {"type": "DT_INT32"}, "value": {"tensor": {"dtype": "DT_INT32", "tensorShape": {"dim": [{"size": "4"}, {"size": "2"}]}}}}}, {"name": "__inference_pruned_1369/model/tf_conv_15/sequential_5/conv2d_15/Conv2D/ReadVariableOp", "op": "Const", "attr": {"value": {"tensor": {"dtype": "DT_FLOAT", "tensorShape": {"dim": [{"size": "3"}, {"size": "3"}, {"size": "128"}, {"size": "256"}]}}}, "dtype": {"type": "DT_FLOAT"}}}, {"name": "__inference_pruned_1369/model/tf_conv_15/sequential_5/conv2d_15/BiasAdd/ReadVariableOp", "op": "Const", "attr": {"dtype": {"type": "DT_FLOAT"}, "value": {"tensor": {"dtype": "DT_FLOAT", "tensorShape": {"dim": [{"size": "256"}]}}}}}, {"name": "__inference_pruned_1369/model/tfc3_2/tf_conv_17/conv2d_17/Conv2D/ReadVariableOp", "op": "Const", "attr": {"dtype": {"type": "DT_FLOAT"}, "value": {"tensor": {"dtype": "DT_FLOAT", "tensorShape": {"dim": [{"size": "1"}, {"size": "1"}, {"size": "256"}, {"size": "128"}]}}}}}, {"name": "__inference_pruned_1369/model/tfc3_2/tf_conv_17/conv2d_17/BiasAdd/ReadVariableOp", "op": "Const", "attr": {"dtype": {"type": "DT_FLOAT"}, "value": {"tensor": {"dtype": "DT_FLOAT", "tensorShape": {"dim": [{"size": "128"}]}}}}}, {"name": "__inference_pruned_1369/model/tfc3_2/concat/axis", "op": "Const", "attr": {"dtype": {"type": "DT_INT32"}, "value": {"tensor": {"dtype": "DT_INT32", "tensorShape": {}}}}}, {"name": "__inference_pruned_1369/model/tfc3_2/tf_conv_18/conv2d_18/Conv2D/ReadVariableOp", "op": "Const", "attr": {"dtype": {"type": "DT_FLOAT"}, "value": {"tensor": {"dtype": "DT_FLOAT", "tensorShape": {"dim": [{"size": "1"}, {"size": "1"}, {"size": "256"}, {"size": "256"}]}}}}}, {"name": "__inference_pruned_1369/model/tfc3_2/tf_conv_18/conv2d_18/BiasAdd/ReadVariableOp", "op": "Const", "attr": {"dtype": {"type": "DT_FLOAT"}, "value": {"tensor": {"dtype": "DT_FLOAT", "tensorShape": {"dim": [{"size": "256"}]}}}}}, {"name": "__inference_pruned_1369/model/tf_conv_25/sequential_7/tf_pad_4/Pad/paddings", "op": "Const", "attr": {"dtype": {"type": "DT_INT32"}, "value": {"tensor": {"dtype": "DT_INT32", "tensorShape": {"dim": [{"size": "4"}, {"size": "2"}]}}}}}, {"name": "__inference_pruned_1369/model/tf_conv_25/sequential_7/conv2d_25/Conv2D/ReadVariableOp", "op": "Const", "attr": {"dtype": {"type": "DT_FLOAT"}, "value": {"tensor": {"dtype": "DT_FLOAT", "tensorShape": {"dim": [{"size": "3"}, {"size": "3"}, {"size": "256"}, {"size": "512"}]}}}}}, {"name": "__inference_pruned_1369/model/tf_conv_25/sequential_7/conv2d_25/BiasAdd/ReadVariableOp", "op": "Const", "attr": {"value": {"tensor": {"dtype": "DT_FLOAT", "tensorShape": {"dim": [{"size": "512"}]}}}, "dtype": {"type": "DT_FLOAT"}}}, {"name": "__inference_pruned_1369/model/tfc3_3/tf_conv_27/conv2d_27/Conv2D/ReadVariableOp", "op": "Const", "attr": {"value": {"tensor": {"dtype": "DT_FLOAT", "tensorShape": {"dim": [{"size": "1"}, {"size": "1"}, {"size": "512"}, {"size": "256"}]}}}, "dtype": {"type": "DT_FLOAT"}}}, {"name": "__inference_pruned_1369/model/tfc3_3/tf_conv_27/conv2d_27/BiasAdd/ReadVariableOp", "op": "Const", "attr": {"dtype": {"type": "DT_FLOAT"}, "value": {"tensor": {"dtype": "DT_FLOAT", "tensorShape": {"dim": [{"size": "256"}]}}}}}, {"name": "__inference_pruned_1369/model/tfc3_3/concat/axis", "op": "Const", "attr": {"dtype": {"type": "DT_INT32"}, "value": {"tensor": {"dtype": "DT_INT32", "tensorShape": {}}}}}, {"name": "__inference_pruned_1369/model/tfc3_3/tf_conv_28/conv2d_28/Conv2D/ReadVariableOp", "op": "Const", "attr": {"dtype": {"type": "DT_FLOAT"}, "value": {"tensor": {"dtype": "DT_FLOAT", "tensorShape": {"dim": [{"size": "1"}, {"size": "1"}, {"size": "512"}, {"size": "512"}]}}}}}, {"name": "__inference_pruned_1369/model/tfc3_3/tf_conv_28/conv2d_28/BiasAdd/ReadVariableOp", "op": "Const", "attr": {"dtype": {"type": "DT_FLOAT"}, "value": {"tensor": {"dtype": "DT_FLOAT", "tensorShape": {"dim": [{"size": "512"}]}}}}}, {"name": "__inference_pruned_1369/model/tfsppf/tf_conv_31/conv2d_31/Conv2D/ReadVariableOp", "op": "Const", "attr": {"dtype": {"type": "DT_FLOAT"}, "value": {"tensor": {"dtype": "DT_FLOAT", "tensorShape": {"dim": [{"size": "1"}, {"size": "1"}, {"size": "512"}, {"size": "256"}]}}}}}, {"name": "__inference_pruned_1369/model/tfsppf/tf_conv_31/conv2d_31/BiasAdd/ReadVariableOp", "op": "Const", "attr": {"dtype": {"type": "DT_FLOAT"}, "value": {"tensor": {"dtype": "DT_FLOAT", "tensorShape": {"dim": [{"size": "256"}]}}}}}, {"name": "__inference_pruned_1369/model/tfsppf/concat/axis", "op": "Const", "attr": {"dtype": {"type": "DT_INT32"}, "value": {"tensor": {"dtype": "DT_INT32", "tensorShape": {}}}}}, {"name": "__inference_pruned_1369/model/tfsppf/tf_conv_32/conv2d_32/Conv2D/ReadVariableOp", "op": "Const", "attr": {"dtype": {"type": "DT_FLOAT"}, "value": {"tensor": {"dtype": "DT_FLOAT", "tensorShape": {"dim": [{"size": "1"}, {"size": "1"}, {"size": "1024"}, {"size": "512"}]}}}}}, {"name": "__inference_pruned_1369/model/tfsppf/tf_conv_32/conv2d_32/BiasAdd/ReadVariableOp", "op": "Const", "attr": {"dtype": {"type": "DT_FLOAT"}, "value": {"tensor": {"dtype": "DT_FLOAT", "tensorShape": {"dim": [{"size": "512"}]}}}}}, {"name": "__inference_pruned_1369/model/tf_conv_33/conv2d_33/Conv2D/ReadVariableOp", "op": "Const", "attr": {"dtype": {"type": "DT_FLOAT"}, "value": {"tensor": {"dtype": "DT_FLOAT", "tensorShape": {"dim": [{"size": "1"}, {"size": "1"}, {"size": "512"}, {"size": "256"}]}}}}}, {"name": "__inference_pruned_1369/model/tf_conv_33/conv2d_33/BiasAdd/ReadVariableOp", "op": "Const", "attr": {"dtype": {"type": "DT_FLOAT"}, "value": {"tensor": {"dtype": "DT_FLOAT", "tensorShape": {"dim": [{"size": "256"}]}}}}}, {"name": "__inference_pruned_1369/model/tf_concat_3/concat/axis", "op": "Const", "attr": {"dtype": {"type": "DT_INT32"}, "value": {"tensor": {"dtype": "DT_INT32", "tensorShape": {}}}}}, {"name": "__inference_pruned_1369/model/tfc3_7/tf_conv_53/conv2d_53/Conv2D/ReadVariableOp", "op": "Const", "attr": {"value": {"tensor": {"dtype": "DT_FLOAT", "tensorShape": {"dim": [{"size": "1"}, {"size": "1"}, {"size": "512"}, {"size": "256"}]}}}, "dtype": {"type": "DT_FLOAT"}}}, {"name": "__inference_pruned_1369/model/tfc3_7/tf_conv_53/conv2d_53/BiasAdd/ReadVariableOp", "op": "Const", "attr": {"dtype": {"type": "DT_FLOAT"}, "value": {"tensor": {"dtype": "DT_FLOAT", "tensorShape": {"dim": [{"size": "256"}]}}}}}, {"name": "__inference_pruned_1369/model/tfc3_7/concat/axis", "op": "Const", "attr": {"dtype": {"type": "DT_INT32"}, "value": {"tensor": {"dtype": "DT_INT32", "tensorShape": {}}}}}, {"name": "__inference_pruned_1369/model/tfc3_7/tf_conv_54/conv2d_54/Conv2D/ReadVariableOp", "op": "Const", "attr": {"value": {"tensor": {"dtype": "DT_FLOAT", "tensorShape": {"dim": [{"size": "1"}, {"size": "1"}, {"size": "512"}, {"size": "512"}]}}}, "dtype": {"type": "DT_FLOAT"}}}, {"name": "__inference_pruned_1369/model/tfc3_7/tf_conv_54/conv2d_54/BiasAdd/ReadVariableOp", "op": "Const", "attr": {"value": {"tensor": {"dtype": "DT_FLOAT", "tensorShape": {"dim": [{"size": "512"}]}}}, "dtype": {"type": "DT_FLOAT"}}}, {"name": "__inference_pruned_1369/model/tf_detect/tf_conv2d_2/conv2d_59/Conv2D/ReadVariableOp", "op": "Const", "attr": {"value": {"tensor": {"dtype": "DT_FLOAT", "tensorShape": {"dim": [{"size": "1"}, {"size": "1"}, {"size": "512"}, {"size": "18"}]}}}, "dtype": {"type": "DT_FLOAT"}}}, {"name": "__inference_pruned_1369/model/tf_detect/tf_conv2d_2/conv2d_59/BiasAdd/ReadVariableOp", "op": "Const", "attr": {"dtype": {"type": "DT_FLOAT"}, "value": {"tensor": {"dtype": "DT_FLOAT", "tensorShape": {"dim": [{"size": "18"}]}}}}}, {"name": "__inference_pruned_1369/model/tf_detect/Reshape_4/shape_1", "op": "Const", "attr": {"value": {"tensor": {"dtype": "DT_INT32", "tensorShape": {"dim": [{"size": "4"}]}}}, "dtype": {"type": "DT_INT32"}}}, {"name": "__inference_pruned_1369/model/tf_detect/strided_slice_23/stack", "op": "Const", "attr": {"dtype": {"type": "DT_INT32"}, "value": {"tensor": {"dtype": "DT_INT32", "tensorShape": {"dim": [{"size": "2"}]}}}}}, {"name": "__inference_pruned_1369/model/tf_detect/strided_slice_23/stack_1", "op": "Const", "attr": {"value": {"tensor": {"dtype": "DT_INT32", "tensorShape": {"dim": [{"size": "2"}]}}}, "dtype": {"type": "DT_INT32"}}}, {"name": "__inference_pruned_1369/model/tf_detect/strided_slice_23/stack_2", "op": "Const", "attr": {"dtype": {"type": "DT_INT32"}, "value": {"tensor": {"dtype": "DT_INT32", "tensorShape": {"dim": [{"size": "2"}]}}}}}, {"name": "__inference_pruned_1369/model/tf_detect/concat_2/axis", "op": "Const", "attr": {"value": {"tensor": {"dtype": "DT_INT32", "tensorShape": {}}}, "dtype": {"type": "DT_INT32"}}}, {"name": "__inference_pruned_1369/model/tf_detect/Reshape_5/shape_1", "op": "Const", "attr": {"value": {"tensor": {"dtype": "DT_INT32", "tensorShape": {"dim": [{"size": "3"}]}}}, "dtype": {"type": "DT_INT32"}}}, {"name": "__inference_pruned_1369/model/tf_detect/concat_3/axis", "op": "Const", "attr": {"value": {"tensor": {"dtype": "DT_INT32", "tensorShape": {}}}, "dtype": {"type": "DT_INT32"}}}, {"name": "__inference_pruned_1369/model/tf.__operators__.getitem_2/strided_slice/stack", "op": "Const", "attr": {"value": {"tensor": {"dtype": "DT_INT32", "tensorShape": {"dim": [{"size": "3"}]}}}, "dtype": {"type": "DT_INT32"}}}, {"name": "__inference_pruned_1369/model/tf.__operators__.getitem_2/strided_slice/stack_1", "op": "Const", "attr": {"value": {"tensor": {"dtype": "DT_INT32", "tensorShape": {"dim": [{"size": "3"}]}}}, "dtype": {"type": "DT_INT32"}}}, {"name": "__inference_pruned_1369/model/tf.__operators__.getitem_2/strided_slice/stack_2", "op": "Const", "attr": {"value": {"tensor": {"dtype": "DT_INT32", "tensorShape": {"dim": [{"size": "3"}]}}}, "dtype": {"type": "DT_INT32"}}}, {"name": "__inference_pruned_1369/model/agnostic_nms_1/agnostic_nms/TensorArrayUnstack_2/TensorListFromTensor/element_shape", "op": "Const", "attr": {"value": {"tensor": {"dtype": "DT_INT32", "tensorShape": {"dim": [{"size": "2"}]}}}, "dtype": {"type": "DT_INT32"}}}, {"name": "__inference_pruned_1369/model/agnostic_nms_1/agnostic_nms/while/maximum_iterations", "op": "Const", "attr": {"value": {"tensor": {"dtype": "DT_INT32", "tensorShape": {}}}, "dtype": {"type": "DT_INT32"}}}, {"name": "__inference_pruned_1369/model/agnostic_nms_1/agnostic_nms/Const", "op": "Const", "attr": {"dtype": {"type": "DT_INT32"}, "value": {"tensor": {"dtype": "DT_INT32", "tensorShape": {}}}}}, {"name": "__inference_pruned_1369/model/agnostic_nms_1/agnostic_nms/while/loop_counter", "op": "Const", "attr": {"value": {"tensor": {"dtype": "DT_INT32", "tensorShape": {}}}, "dtype": {"type": "DT_INT32"}}}, {"name": "__inference_pruned_1369/model/agnostic_nms_1/agnostic_nms/TensorArrayV2Stack/TensorListStack/element_shape", "op": "Const", "attr": {"dtype": {"type": "DT_INT32"}, "value": {"tensor": {"dtype": "DT_INT32", "tensorShape": {"dim": [{"size": "2"}]}}}}}, {"name": "model/agnostic_nms_1/agnostic_nms/TensorArrayV2_4", "op": "TensorListReserve", "input": ["__inference_pruned_1369/model/agnostic_nms_1/agnostic_nms/TensorArrayV2_4/element_shape:output:0", "__inference_pruned_1369/model/agnostic_nms_1/agnostic_nms/TensorArrayV2_4/num_elements:output:0"], "attr": {"element_dtype": {"type": "DT_FLOAT"}, "shape_type": {"type": "DT_INT32"}}, "experimentalType": {"typeId": "TFT_PRODUCT", "args": [{"typeId": "TFT_ARRAY", "args": [{"typeId": "TFT_TENSOR", "args": [{"typeId": "TFT_FLOAT"}]}]}]}}, {"name": "model/agnostic_nms_1/agnostic_nms/TensorArrayV2_5", "op": "TensorListReserve", "input": ["__inference_pruned_1369/model/agnostic_nms_1/agnostic_nms/TensorArrayV2_5/element_shape:output:0", "__inference_pruned_1369/model/agnostic_nms_1/agnostic_nms/TensorArrayV2_5/num_elements:output:0"], "attr": {"element_dtype": {"type": "DT_FLOAT"}, "shape_type": {"type": "DT_INT32"}}, "experimentalType": {"typeId": "TFT_PRODUCT", "args": [{"typeId": "TFT_ARRAY", "args": [{"typeId": "TFT_TENSOR", "args": [{"typeId": "TFT_FLOAT"}]}]}]}}, {"name": "model/agnostic_nms_1/agnostic_nms/TensorArrayV2_6", "op": "TensorListReserve", "input": ["__inference_pruned_1369/model/agnostic_nms_1/agnostic_nms/TensorArrayV2_6/element_shape:output:0", "__inference_pruned_1369/model/agnostic_nms_1/agnostic_nms/TensorArrayV2_6/num_elements:output:0"], "attr": {"shape_type": {"type": "DT_INT32"}, "element_dtype": {"type": "DT_INT32"}}, "experimentalType": {"typeId": "TFT_PRODUCT", "args": [{"typeId": "TFT_ARRAY", "args": [{"typeId": "TFT_TENSOR", "args": [{"typeId": "TFT_INT32"}]}]}]}}, {"name": "model/agnostic_nms_1/agnostic_nms/TensorArrayV2_3", "op": "TensorListReserve", "input": ["__inference_pruned_1369/model/agnostic_nms_1/agnostic_nms/TensorArrayV2_3/element_shape:output:0", "__inference_pruned_1369/model/agnostic_nms_1/agnostic_nms/TensorArrayV2_3/num_elements:output:0"], "attr": {"element_dtype": {"type": "DT_FLOAT"}, "shape_type": {"type": "DT_INT32"}}, "experimentalType": {"typeId": "TFT_PRODUCT", "args": [{"typeId": "TFT_ARRAY", "args": [{"typeId": "TFT_TENSOR", "args": [{"typeId": "TFT_FLOAT"}]}]}]}}, {"name": "model/tf_conv/sequential/tf_pad/Pad", "op": "Pad", "input": ["x", "__inference_pruned_1369/model/tf_conv/sequential/tf_pad/Pad/paddings:output:0"], "attr": {"T": {"type": "DT_FLOAT"}, "Tpaddings": {"type": "DT_INT32"}}}, {"name": "model/agnostic_nms_1/agnostic_nms/while/enter/_3", "op": "Enter", "input": ["__inference_pruned_1369/model/agnostic_nms_1/agnostic_nms/while/maximum_iterations:output:0"], "attr": {"parallel_iterations": {"i": "10"}, "is_constant": {"b": false}, "T": {"type": "DT_INT32"}, "frame_name": {"s": "bW9kZWwvYWdub3N0aWNfbm1zXzEvYWdub3N0aWNfbm1zL3doaWxl"}}}, {"name": "model/agnostic_nms_1/agnostic_nms/while/enter/_4", "op": "Enter", "input": ["__inference_pruned_1369/model/agnostic_nms_1/agnostic_nms/Const:output:0"], "attr": {"frame_name": {"s": "bW9kZWwvYWdub3N0aWNfbm1zXzEvYWdub3N0aWNfbm1zL3doaWxl"}, "is_constant": {"b": false}, "T": {"type": "DT_INT32"}, "parallel_iterations": {"i": "10"}}}, {"name": "model/agnostic_nms_1/agnostic_nms/while/enter/_2", "op": "Enter", "input": ["__inference_pruned_1369/model/agnostic_nms_1/agnostic_nms/while/loop_counter:output:0"], "attr": {"frame_name": {"s": "bW9kZWwvYWdub3N0aWNfbm1zXzEvYWdub3N0aWNfbm1zL3doaWxl"}, "T": {"type": "DT_INT32"}, "parallel_iterations": {"i": "10"}, "is_constant": {"b": false}}}, {"name": "model/agnostic_nms_1/agnostic_nms/while/enter/_6", "op": "Enter", "input": ["model/agnostic_nms_1/agnostic_nms/TensorArrayV2_4:handle:0"], "attr": {"parallel_iterations": {"i": "10"}, "is_constant": {"b": false}, "T": {"type": "DT_VARIANT"}, "frame_name": {"s": "bW9kZWwvYWdub3N0aWNfbm1zXzEvYWdub3N0aWNfbm1zL3doaWxl"}}}, {"name": "model/agnostic_nms_1/agnostic_nms/while/enter/_7", "op": "Enter", "input": ["model/agnostic_nms_1/agnostic_nms/TensorArrayV2_5:handle:0"], "attr": {"parallel_iterations": {"i": "10"}, "frame_name": {"s": "bW9kZWwvYWdub3N0aWNfbm1zXzEvYWdub3N0aWNfbm1zL3doaWxl"}, "is_constant": {"b": false}, "T": {"type": "DT_VARIANT"}}}, {"name": "model/agnostic_nms_1/agnostic_nms/while/enter/_8", "op": "Enter", "input": ["model/agnostic_nms_1/agnostic_nms/TensorArrayV2_6:handle:0"], "attr": {"T": {"type": "DT_VARIANT"}, "frame_name": {"s": "bW9kZWwvYWdub3N0aWNfbm1zXzEvYWdub3N0aWNfbm1zL3doaWxl"}, "parallel_iterations": {"i": "10"}, "is_constant": {"b": false}}}, {"name": "model/agnostic_nms_1/agnostic_nms/while/enter/_5", "op": "Enter", "input": ["model/agnostic_nms_1/agnostic_nms/TensorArrayV2_3:handle:0"], "attr": {"parallel_iterations": {"i": "10"}, "is_constant": {"b": false}, "T": {"type": "DT_VARIANT"}, "frame_name": {"s": "bW9kZWwvYWdub3N0aWNfbm1zXzEvYWdub3N0aWNfbm1zL3doaWxl"}}}, {"name": "model/tf_conv/sequential/conv2d/Conv2D", "op": "Conv2D", "input": ["model/tf_conv/sequential/tf_pad/Pad:output:0", "__inference_pruned_1369/model/tf_conv/sequential/conv2d/Conv2D/ReadVariableOp:output:0"], "attr": {"dilations": {"list": {"i": ["1", "1", "1", "1"]}}, "T": {"type": "DT_FLOAT"}, "padding": {"s": "VkFMSUQ="}, "explicit_paddings": {"list": {}}, "data_format": {"s": "TkhXQw=="}, "use_cudnn_on_gpu": {"b": true}, "strides": {"list": {"i": ["1", "2", "2", "1"]}}}}, {"name": "model/agnostic_nms_1/agnostic_nms/while/merge/_13", "op": "Merge", "input": ["model/agnostic_nms_1/agnostic_nms/while/enter/_3:output:0", "model/agnostic_nms_1/agnostic_nms/while/next_iteration/_46:output:0"], "attr": {"N": {"i": "2"}, "T": {"type": "DT_INT32"}}}, {"name": "model/agnostic_nms_1/agnostic_nms/while/merge/_14", "op": "Merge", "input": ["model/agnostic_nms_1/agnostic_nms/while/enter/_4:output:0", "model/agnostic_nms_1/agnostic_nms/while/next_iteration/_47:output:0"], "attr": {"N": {"i": "2"}, "T": {"type": "DT_INT32"}}}, {"name": "model/agnostic_nms_1/agnostic_nms/while/merge/_12", "op": "Merge", "input": ["model/agnostic_nms_1/agnostic_nms/while/enter/_2:output:0", "model/agnostic_nms_1/agnostic_nms/while/next_iteration/_45:output:0"], "attr": {"N": {"i": "2"}, "T": {"type": "DT_INT32"}}}, {"name": "model/agnostic_nms_1/agnostic_nms/while/merge/_16", "op": "Merge", "input": ["model/agnostic_nms_1/agnostic_nms/while/enter/_6:output:0", "model/agnostic_nms_1/agnostic_nms/while/next_iteration/_49:output:0"], "attr": {"T": {"type": "DT_VARIANT"}, "N": {"i": "2"}}}, {"name": "model/agnostic_nms_1/agnostic_nms/while/merge/_17", "op": "Merge", "input": ["model/agnostic_nms_1/agnostic_nms/while/enter/_7:output:0", "model/agnostic_nms_1/agnostic_nms/while/next_iteration/_50:output:0"], "attr": {"T": {"type": "DT_VARIANT"}, "N": {"i": "2"}}}, {"name": "model/agnostic_nms_1/agnostic_nms/while/merge/_18", "op": "Merge", "input": ["model/agnostic_nms_1/agnostic_nms/while/enter/_8:output:0", "model/agnostic_nms_1/agnostic_nms/while/next_iteration/_51:output:0"], "attr": {"T": {"type": "DT_VARIANT"}, "N": {"i": "2"}}}, {"name": "model/agnostic_nms_1/agnostic_nms/while/merge/_15", "op": "Merge", "input": ["model/agnostic_nms_1/agnostic_nms/while/enter/_5:output:0", "model/agnostic_nms_1/agnostic_nms/while/next_iteration/_48:output:0"], "attr": {"N": {"i": "2"}, "T": {"type": "DT_VARIANT"}}}, {"name": "model/tf_conv/sequential/conv2d/BiasAdd", "op": "BiasAdd", "input": ["model/tf_conv/sequential/conv2d/Conv2D:output:0", "__inference_pruned_1369/model/tf_conv/sequential/conv2d/BiasAdd/ReadVariableOp:output:0"], "attr": {"data_format": {"s": "TkhXQw=="}, "T": {"type": "DT_FLOAT"}}}, {"name": "model/agnostic_nms_1/agnostic_nms/while/cond/_0/model/agnostic_nms_1/agnostic_nms/while/Less_1", "op": "Less", "input": ["model/agnostic_nms_1/agnostic_nms/while/merge/_12:output:0", "model/agnostic_nms_1/agnostic_nms/while/merge/_13:output:0"], "attr": {"T": {"type": "DT_INT32"}}}, {"name": "__inference_pruned_1369/model/agnostic_nms_1/agnostic_nms/while/cond/_0/model/agnostic_nms_1/agnostic_nms/while/Less/y", "op": "Const", "input": ["^model/agnostic_nms_1/agnostic_nms/while/merge/_12"], "attr": {"dtype": {"type": "DT_INT32"}, "value": {"tensor": {"dtype": "DT_INT32", "tensorShape": {}}}}}, {"name": "model/tf_conv/Sigmoid", "op": "Sigmoid", "input": ["model/tf_conv/sequential/conv2d/BiasAdd:output:0"], "attr": {"T": {"type": "DT_FLOAT"}}}, {"name": "model/agnostic_nms_1/agnostic_nms/while/cond/_0/model/agnostic_nms_1/agnostic_nms/while/Less", "op": "Less", "input": ["model/agnostic_nms_1/agnostic_nms/while/merge/_14:output:0", "__inference_pruned_1369/model/agnostic_nms_1/agnostic_nms/while/cond/_0/model/agnostic_nms_1/agnostic_nms/while/Less/y:output:0", "^model/agnostic_nms_1/agnostic_nms/while/merge/_12"], "attr": {"T": {"type": "DT_INT32"}}}, {"name": "model/tf_conv/mul_1", "op": "Mul", "input": ["model/tf_conv/sequential/conv2d/BiasAdd:output:0", "model/tf_conv/Sigmoid:y:0"], "attr": {"T": {"type": "DT_FLOAT"}}}, {"name": "model/agnostic_nms_1/agnostic_nms/while/cond/_0/model/agnostic_nms_1/agnostic_nms/while/LogicalAnd", "op": "LogicalAnd", "input": ["model/agnostic_nms_1/agnostic_nms/while/cond/_0/model/agnostic_nms_1/agnostic_nms/while/Less_1:z:0", "model/agnostic_nms_1/agnostic_nms/while/cond/_0/model/agnostic_nms_1/agnostic_nms/while/Less:z:0"]}, {"name": "model/tf_conv_1/sequential_1/tf_pad_1/Pad", "op": "Pad", "input": ["model/tf_conv/mul_1:z:0", "__inference_pruned_1369/model/tf_conv_1/sequential_1/tf_pad_1/Pad/paddings:output:0"], "attr": {"T": {"type": "DT_FLOAT"}, "Tpaddings": {"type": "DT_INT32"}}}, {"name": "model/agnostic_nms_1/agnostic_nms/while/LoopCond/_22", "op": "LoopCond", "input": ["model/agnostic_nms_1/agnostic_nms/while/cond/_0/model/agnostic_nms_1/agnostic_nms/while/LogicalAnd:z:0"]}, {"name": "model/tf_conv_1/sequential_1/conv2d_1/Conv2D", "op": "Conv2D", "input": ["model/tf_conv_1/sequential_1/tf_pad_1/Pad:output:0", "__inference_pruned_1369/model/tf_conv_1/sequential_1/conv2d_1/Conv2D/ReadVariableOp:output:0"], "attr": {"strides": {"list": {"i": ["1", "2", "2", "1"]}}, "T": {"type": "DT_FLOAT"}, "explicit_paddings": {"list": {}}, "padding": {"s": "VkFMSUQ="}, "data_format": {"s": "TkhXQw=="}, "use_cudnn_on_gpu": {"b": true}, "dilations": {"list": {"i": ["1", "1", "1", "1"]}}}}, {"name": "model/agnostic_nms_1/agnostic_nms/while/model/agnostic_nms_1/agnostic_nms/TensorArrayV2_4_switch/_27", "op": "Switch", "input": ["model/agnostic_nms_1/agnostic_nms/while/merge/_16:output:0", "model/agnostic_nms_1/agnostic_nms/while/LoopCond/_22:output:0"], "attr": {"T": {"type": "DT_VARIANT"}}}, {"name": "model/agnostic_nms_1/agnostic_nms/while/model/agnostic_nms_1/agnostic_nms/TensorArrayV2_5_switch/_28", "op": "Switch", "input": ["model/agnostic_nms_1/agnostic_nms/while/merge/_17:output:0", "model/agnostic_nms_1/agnostic_nms/while/LoopCond/_22:output:0"], "attr": {"T": {"type": "DT_VARIANT"}}}, {"name": "model/agnostic_nms_1/agnostic_nms/while/model/agnostic_nms_1/agnostic_nms/TensorArrayV2_6_switch/_29", "op": "Switch", "input": ["model/agnostic_nms_1/agnostic_nms/while/merge/_18:output:0", "model/agnostic_nms_1/agnostic_nms/while/LoopCond/_22:output:0"], "attr": {"T": {"type": "DT_VARIANT"}}}, {"name": "model/agnostic_nms_1/agnostic_nms/while/model/agnostic_nms_1/agnostic_nms/while/maximum_iterations_switch/_24", "op": "Switch", "input": ["model/agnostic_nms_1/agnostic_nms/while/merge/_13:output:0", "model/agnostic_nms_1/agnostic_nms/while/LoopCond/_22:output:0"], "attr": {"T": {"type": "DT_INT32"}}}, {"name": "model/agnostic_nms_1/agnostic_nms/while/model/agnostic_nms_1/agnostic_nms/Const_switch/_25", "op": "Switch", "input": ["model/agnostic_nms_1/agnostic_nms/while/merge/_14:output:0", "model/agnostic_nms_1/agnostic_nms/while/LoopCond/_22:output:0"], "attr": {"T": {"type": "DT_INT32"}}}, {"name": "model/agnostic_nms_1/agnostic_nms/while/model/agnostic_nms_1/agnostic_nms/while/loop_counter_switch/_23", "op": "Switch", "input": ["model/agnostic_nms_1/agnostic_nms/while/merge/_12:output:0", "model/agnostic_nms_1/agnostic_nms/while/LoopCond/_22:output:0"], "attr": {"T": {"type": "DT_INT32"}}}, {"name": "model/agnostic_nms_1/agnostic_nms/while/model/agnostic_nms_1/agnostic_nms/TensorArrayV2_3_switch/_26", "op": "Switch", "input": ["model/agnostic_nms_1/agnostic_nms/while/merge/_15:output:0", "model/agnostic_nms_1/agnostic_nms/while/LoopCond/_22:output:0"], "attr": {"T": {"type": "DT_VARIANT"}}}, {"name": "model/tf_conv_1/sequential_1/conv2d_1/BiasAdd", "op": "BiasAdd", "input": ["model/tf_conv_1/sequential_1/conv2d_1/Conv2D:output:0", "__inference_pruned_1369/model/tf_conv_1/sequential_1/conv2d_1/BiasAdd/ReadVariableOp:output:0"], "attr": {"T": {"type": "DT_FLOAT"}, "data_format": {"s": "TkhXQw=="}}}, {"name": "model/agnostic_nms_1/agnostic_nms/while/exit/_38", "op": "Exit", "input": ["model/agnostic_nms_1/agnostic_nms/while/model/agnostic_nms_1/agnostic_nms/TensorArrayV2_4_switch/_27:output_false:0"], "attr": {"T": {"type": "DT_VARIANT"}}}, {"name": "model/agnostic_nms_1/agnostic_nms/while/exit/_39", "op": "Exit", "input": ["model/agnostic_nms_1/agnostic_nms/while/model/agnostic_nms_1/agnostic_nms/TensorArrayV2_5_switch/_28:output_false:0"], "attr": {"T": {"type": "DT_VARIANT"}}}, {"name": "model/agnostic_nms_1/agnostic_nms/while/exit/_40", "op": "Exit", "input": ["model/agnostic_nms_1/agnostic_nms/while/model/agnostic_nms_1/agnostic_nms/TensorArrayV2_6_switch/_29:output_false:0"], "attr": {"T": {"type": "DT_VARIANT"}}}, {"name": "model/agnostic_nms_1/agnostic_nms/while/loop_body_control/_33", "op": "Identity", "input": ["model/agnostic_nms_1/agnostic_nms/while/model/agnostic_nms_1/agnostic_nms/while/loop_counter_switch/_23:output_true:0"], "attr": {"T": {"type": "DT_INT32"}}}, {"name": "model/agnostic_nms_1/agnostic_nms/while/exit/_37", "op": "Exit", "input": ["model/agnostic_nms_1/agnostic_nms/while/model/agnostic_nms_1/agnostic_nms/TensorArrayV2_3_switch/_26:output_false:0"], "attr": {"T": {"type": "DT_VARIANT"}}}, {"name": "model/tf_conv_1/Sigmoid", "op": "Sigmoid", "input": ["model/tf_conv_1/sequential_1/conv2d_1/BiasAdd:output:0"], "attr": {"T": {"type": "DT_FLOAT"}}}, {"name": "model/agnostic_nms_1/agnostic_nms/TensorArrayV2Stack_1/TensorListStack", "op": "TensorListStack", "input": ["model/agnostic_nms_1/agnostic_nms/while/exit/_38:output:0", "__inference_pruned_1369/model/agnostic_nms_1/agnostic_nms/TensorArrayV2Stack_1/TensorListStack/element_shape:output:0"], "attr": {"element_dtype": {"type": "DT_FLOAT"}, "num_elements": {"i": "1"}}}, {"name": "model/agnostic_nms_1/agnostic_nms/TensorArrayV2Stack_2/TensorListStack", "op": "TensorListStack", "input": ["model/agnostic_nms_1/agnostic_nms/while/exit/_39:output:0", "__inference_pruned_1369/model/agnostic_nms_1/agnostic_nms/TensorArrayV2Stack_2/TensorListStack/element_shape:output:0"], "attr": {"element_dtype": {"type": "DT_FLOAT"}, "num_elements": {"i": "1"}}}, {"name": "model/agnostic_nms_1/agnostic_nms/TensorArrayV2Stack_3/TensorListStack", "op": "TensorListStack", "input": ["model/agnostic_nms_1/agnostic_nms/while/exit/_40:output:0", "__inference_pruned_1369/model/agnostic_nms_1/agnostic_nms/TensorArrayV2Stack_3/Const:output:0"], "attr": {"element_dtype": {"type": "DT_INT32"}, "num_elements": {"i": "1"}}}, {"name": "__inference_pruned_1369/model/agnostic_nms_1/agnostic_nms/while/body/_1/model/agnostic_nms_1/agnostic_nms/while/GatherV2_1/axis", "op": "Const", "input": ["^model/agnostic_nms_1/agnostic_nms/while/loop_body_control/_33"], "attr": {"dtype": {"type": "DT_INT32"}, "value": {"tensor": {"dtype": "DT_INT32", "tensorShape": {}}}}}, {"name": "__inference_pruned_1369/model/agnostic_nms_1/agnostic_nms/while/body/_1/model/agnostic_nms_1/agnostic_nms/while/PadV2/paddings/0/0", "op": "Const", "input": ["^model/agnostic_nms_1/agnostic_nms/while/loop_body_control/_33"], "attr": {"dtype": {"type": "DT_INT32"}, "value": {"tensor": {"dtype": "DT_INT32", "tensorShape": {}}}}}, {"name": "__inference_pruned_1369/model/agnostic_nms_1/agnostic_nms/while/body/_1/model/agnostic_nms_1/agnostic_nms/while/sub_1/x", "op": "Const", "input": ["^model/agnostic_nms_1/agnostic_nms/while/loop_body_control/_33"], "attr": {"dtype": {"type": "DT_INT32"}, "value": {"tensor": {"dtype": "DT_INT32", "tensorShape": {}}}}}, {"name": "__inference_pruned_1369/model/agnostic_nms_1/agnostic_nms/while/body/_1/model/agnostic_nms_1/agnostic_nms/while/strided_slice_1/stack", "op": "Const", "input": ["^model/agnostic_nms_1/agnostic_nms/while/loop_body_control/_33"], "attr": {"value": {"tensor": {"dtype": "DT_INT32", "tensorShape": {"dim": [{"size": "1"}]}}}, "dtype": {"type": "DT_INT32"}}}, {"name": "__inference_pruned_1369/model/agnostic_nms_1/agnostic_nms/while/body/_1/model/agnostic_nms_1/agnostic_nms/while/strided_slice_1/stack_1", "op": "Const", "input": ["^model/agnostic_nms_1/agnostic_nms/while/loop_body_control/_33"], "attr": {"dtype": {"type": "DT_INT32"}, "value": {"tensor": {"dtype": "DT_INT32", "tensorShape": {"dim": [{"size": "1"}]}}}}}, {"name": "__inference_pruned_1369/model/agnostic_nms_1/agnostic_nms/while/body/_1/model/agnostic_nms_1/agnostic_nms/while/strided_slice_1/stack_2", "op": "Const", "input": ["^model/agnostic_nms_1/agnostic_nms/while/loop_body_control/_33"], "attr": {"dtype": {"type": "DT_INT32"}, "value": {"tensor": {"dtype": "DT_INT32", "tensorShape": {"dim": [{"size": "1"}]}}}}}, {"name": "__inference_pruned_1369/model/agnostic_nms_1/agnostic_nms/while/body/_1/model/agnostic_nms_1/agnostic_nms/while/PadV2/constant_values", "op": "Const", "input": ["^model/agnostic_nms_1/agnostic_nms/while/loop_body_control/_33"], "attr": {"value": {"tensor": {"dtype": "DT_FLOAT", "tensorShape": {}}}, "dtype": {"type": "DT_FLOAT"}}}, {"name": "__inference_pruned_1369/model/agnostic_nms_1/agnostic_nms/while/body/_1/model/agnostic_nms_1/agnostic_nms/while/TensorArrayV2Read_1/TensorListGetItem/element_shape", "op": "Const", "input": ["^model/agnostic_nms_1/agnostic_nms/while/loop_body_control/_33"], "attr": {"dtype": {"type": "DT_INT32"}, "value": {"tensor": {"dtype": "DT_INT32", "tensorShape": {"dim": [{"size": "2"}]}}}}}, {"name": "__inference_pruned_1369/model/agnostic_nms_1/agnostic_nms/while/body/_1/model/agnostic_nms_1/agnostic_nms/while/ArgMax/dimension", "op": "Const", "input": ["^model/agnostic_nms_1/agnostic_nms/while/loop_body_control/_33"], "attr": {"value": {"tensor": {"dtype": "DT_INT32", "tensorShape": {}}}, "dtype": {"type": "DT_INT32"}}}, {"name": "__inference_pruned_1369/model/agnostic_nms_1/agnostic_nms/while/body/_1/model/agnostic_nms_1/agnostic_nms/while/GatherV2_2/axis", "op": "Const", "input": ["^model/agnostic_nms_1/agnostic_nms/while/loop_body_control/_33"], "attr": {"dtype": {"type": "DT_INT32"}, "value": {"tensor": {"dtype": "DT_INT32", "tensorShape": {}}}}}, {"name": "__inference_pruned_1369/model/agnostic_nms_1/agnostic_nms/while/body/_1/model/agnostic_nms_1/agnostic_nms/while/PadV2_1/paddings/0/0", "op": "Const", "input": ["^model/agnostic_nms_1/agnostic_nms/while/loop_body_control/_33"], "attr": {"dtype": {"type": "DT_INT32"}, "value": {"tensor": {"dtype": "DT_INT32", "tensorShape": {}}}}}, {"name": "__inference_pruned_1369/model/agnostic_nms_1/agnostic_nms/while/body/_1/model/agnostic_nms_1/agnostic_nms/while/sub_2/x", "op": "Const", "input": ["^model/agnostic_nms_1/agnostic_nms/while/loop_body_control/_33"], "attr": {"dtype": {"type": "DT_INT32"}, "value": {"tensor": {"dtype": "DT_INT32", "tensorShape": {}}}}}, {"name": "__inference_pruned_1369/model/agnostic_nms_1/agnostic_nms/while/body/_1/model/agnostic_nms_1/agnostic_nms/while/strided_slice_2/stack", "op": "Const", "input": ["^model/agnostic_nms_1/agnostic_nms/while/loop_body_control/_33"], "attr": {"dtype": {"type": "DT_INT32"}, "value": {"tensor": {"dtype": "DT_INT32", "tensorShape": {"dim": [{"size": "1"}]}}}}}, {"name": "__inference_pruned_1369/model/agnostic_nms_1/agnostic_nms/while/body/_1/model/agnostic_nms_1/agnostic_nms/while/strided_slice_2/stack_1", "op": "Const", "input": ["^model/agnostic_nms_1/agnostic_nms/while/loop_body_control/_33"], "attr": {"dtype": {"type": "DT_INT32"}, "value": {"tensor": {"dtype": "DT_INT32", "tensorShape": {"dim": [{"size": "1"}]}}}}}, {"name": "__inference_pruned_1369/model/agnostic_nms_1/agnostic_nms/while/body/_1/model/agnostic_nms_1/agnostic_nms/while/strided_slice_2/stack_2", "op": "Const", "input": ["^model/agnostic_nms_1/agnostic_nms/while/loop_body_control/_33"], "attr": {"dtype": {"type": "DT_INT32"}, "value": {"tensor": {"dtype": "DT_INT32", "tensorShape": {"dim": [{"size": "1"}]}}}}}, {"name": "__inference_pruned_1369/model/agnostic_nms_1/agnostic_nms/while/body/_1/model/agnostic_nms_1/agnostic_nms/while/PadV2_1/constant_values", "op": "Const", "input": ["^model/agnostic_nms_1/agnostic_nms/while/loop_body_control/_33"], "attr": {"dtype": {"type": "DT_FLOAT"}, "value": {"tensor": {"dtype": "DT_FLOAT", "tensorShape": {}}}}}, {"name": "__inference_pruned_1369/model/agnostic_nms_1/agnostic_nms/while/body/_1/model/agnostic_nms_1/agnostic_nms/while/strided_slice_3/stack", "op": "Const", "input": ["^model/agnostic_nms_1/agnostic_nms/while/loop_body_control/_33"], "attr": {"value": {"tensor": {"dtype": "DT_INT32", "tensorShape": {"dim": [{"size": "1"}]}}}, "dtype": {"type": "DT_INT32"}}}, {"name": "__inference_pruned_1369/model/agnostic_nms_1/agnostic_nms/while/body/_1/model/agnostic_nms_1/agnostic_nms/while/strided_slice_3/stack_1", "op": "Const", "input": ["^model/agnostic_nms_1/agnostic_nms/while/loop_body_control/_33"], "attr": {"dtype": {"type": "DT_INT32"}, "value": {"tensor": {"dtype": "DT_INT32", "tensorShape": {"dim": [{"size": "1"}]}}}}}, {"name": "__inference_pruned_1369/model/agnostic_nms_1/agnostic_nms/while/body/_1/model/agnostic_nms_1/agnostic_nms/while/strided_slice_3/stack_2", "op": "Const", "input": ["^model/agnostic_nms_1/agnostic_nms/while/loop_body_control/_33"], "attr": {"value": {"tensor": {"dtype": "DT_INT32", "tensorShape": {"dim": [{"size": "1"}]}}}, "dtype": {"type": "DT_INT32"}}}, {"name": "__inference_pruned_1369/model/agnostic_nms_1/agnostic_nms/while/body/_1/model/agnostic_nms_1/agnostic_nms/while/Pad/paddings/0/0", "op": "Const", "input": ["^model/agnostic_nms_1/agnostic_nms/while/loop_body_control/_33"], "attr": {"dtype": {"type": "DT_INT32"}, "value": {"tensor": {"dtype": "DT_INT32", "tensorShape": {}}}}}, {"name": "__inference_pruned_1369/model/agnostic_nms_1/agnostic_nms/while/body/_1/model/agnostic_nms_1/agnostic_nms/while/sub/x", "op": "Const", "input": ["^model/agnostic_nms_1/agnostic_nms/while/loop_body_control/_33"], "attr": {"dtype": {"type": "DT_INT32"}, "value": {"tensor": {"dtype": "DT_INT32", "tensorShape": {}}}}}, {"name": "__inference_pruned_1369/model/agnostic_nms_1/agnostic_nms/while/body/_1/model/agnostic_nms_1/agnostic_nms/while/TensorArrayV2Read/TensorListGetItem/element_shape", "op": "Const", "input": ["^model/agnostic_nms_1/agnostic_nms/while/loop_body_control/_33"], "attr": {"dtype": {"type": "DT_INT32"}, "value": {"tensor": {"dtype": "DT_INT32", "tensorShape": {"dim": [{"size": "2"}]}}}}}, {"name": "__inference_pruned_1369/model/agnostic_nms_1/agnostic_nms/while/body/_1/model/agnostic_nms_1/agnostic_nms/while/TensorArrayV2Read_2/TensorListGetItem/element_shape", "op": "Const", "input": ["^model/agnostic_nms_1/agnostic_nms/while/loop_body_control/_33"], "attr": {"dtype": {"type": "DT_INT32"}, "value": {"tensor": {"dtype": "DT_INT32", "tensorShape": {"dim": [{"size": "2"}]}}}}}, {"name": "__inference_pruned_1369/model/agnostic_nms_1/agnostic_nms/while/body/_1/model/agnostic_nms_1/agnostic_nms/while/Max/reduction_indices", "op": "Const", "input": ["^model/agnostic_nms_1/agnostic_nms/while/loop_body_control/_33"], "attr": {"dtype": {"type": "DT_INT32"}, "value": {"tensor": {"dtype": "DT_INT32", "tensorShape": {}}}}}, {"name": "__inference_pruned_1369/model/agnostic_nms_1/agnostic_nms/while/body/_1/model/agnostic_nms_1/agnostic_nms/while/non_max_suppression/NonMaxSuppressionV3/max_output_size", "op": "Const", "input": ["^model/agnostic_nms_1/agnostic_nms/while/loop_body_control/_33"], "attr": {"dtype": {"type": "DT_INT32"}, "value": {"tensor": {"dtype": "DT_INT32", "tensorShape": {}}}}}, {"name": "__inference_pruned_1369/model/agnostic_nms_1/agnostic_nms/while/body/_1/model/agnostic_nms_1/agnostic_nms/while/non_max_suppression/iou_threshold", "op": "Const", "input": ["^model/agnostic_nms_1/agnostic_nms/while/loop_body_control/_33"], "attr": {"dtype": {"type": "DT_FLOAT"}, "value": {"tensor": {"dtype": "DT_FLOAT", "tensorShape": {}}}}}, {"name": "__inference_pruned_1369/model/agnostic_nms_1/agnostic_nms/while/body/_1/model/agnostic_nms_1/agnostic_nms/while/non_max_suppression/score_threshold", "op": "Const", "input": ["^model/agnostic_nms_1/agnostic_nms/while/loop_body_control/_33"], "attr": {"value": {"tensor": {"dtype": "DT_FLOAT", "tensorShape": {}}}, "dtype": {"type": "DT_FLOAT"}}}, {"name": "__inference_pruned_1369/model/agnostic_nms_1/agnostic_nms/while/body/_1/model/agnostic_nms_1/agnostic_nms/while/GatherV2/axis", "op": "Const", "input": ["^model/agnostic_nms_1/agnostic_nms/while/loop_body_control/_33"], "attr": {"dtype": {"type": "DT_INT32"}, "value": {"tensor": {"dtype": "DT_INT32", "tensorShape": {}}}}}, {"name": "__inference_pruned_1369/model/agnostic_nms_1/agnostic_nms/while/body/_1/model/agnostic_nms_1/agnostic_nms/while/strided_slice/stack", "op": "Const", "input": ["^model/agnostic_nms_1/agnostic_nms/while/loop_body_control/_33"], "attr": {"dtype": {"type": "DT_INT32"}, "value": {"tensor": {"dtype": "DT_INT32", "tensorShape": {"dim": [{"size": "1"}]}}}}}, {"name": "__inference_pruned_1369/model/agnostic_nms_1/agnostic_nms/while/body/_1/model/agnostic_nms_1/agnostic_nms/while/strided_slice/stack_1", "op": "Const", "input": ["^model/agnostic_nms_1/agnostic_nms/while/loop_body_control/_33"], "attr": {"dtype": {"type": "DT_INT32"}, "value": {"tensor": {"dtype": "DT_INT32", "tensorShape": {"dim": [{"size": "1"}]}}}}}, {"name": "__inference_pruned_1369/model/agnostic_nms_1/agnostic_nms/while/body/_1/model/agnostic_nms_1/agnostic_nms/while/strided_slice/stack_2", "op": "Const", "input": ["^model/agnostic_nms_1/agnostic_nms/while/loop_body_control/_33"], "attr": {"dtype": {"type": "DT_INT32"}, "value": {"tensor": {"dtype": "DT_INT32", "tensorShape": {"dim": [{"size": "1"}]}}}}}, {"name": "__inference_pruned_1369/model/agnostic_nms_1/agnostic_nms/while/body/_1/model/agnostic_nms_1/agnostic_nms/while/Pad/paddings/1_1", "op": "Const", "input": ["^model/agnostic_nms_1/agnostic_nms/while/loop_body_control/_33"], "attr": {"dtype": {"type": "DT_INT32"}, "value": {"tensor": {"dtype": "DT_INT32", "tensorShape": {"dim": [{"size": "2"}]}}}}}, {"name": "model/agnostic_nms_1/agnostic_nms/while/next_iteration/_46", "op": "NextIteration", "input": ["model/agnostic_nms_1/agnostic_nms/while/model/agnostic_nms_1/agnostic_nms/while/maximum_iterations_switch/_24:output_true:0", "^model/agnostic_nms_1/agnostic_nms/while/loop_body_control/_33"], "attr": {"T": {"type": "DT_INT32"}}}, {"name": "Func/model/agnostic_nms_1/agnostic_nms/while/body/_1/input/_70", "op": "Identity", "input": ["model/agnostic_nms_1/agnostic_nms/while/model/agnostic_nms_1/agnostic_nms/Const_switch/_25:output_true:0", "^model/agnostic_nms_1/agnostic_nms/while/loop_body_control/_33"], "attr": {"T": {"type": "DT_INT32"}}}, {"name": "__inference_pruned_1369/model/agnostic_nms_1/agnostic_nms/while/body/_1/model/agnostic_nms_1/agnostic_nms/while/add/y", "op": "Const", "input": ["^model/agnostic_nms_1/agnostic_nms/while/loop_body_control/_33"], "attr": {"dtype": {"type": "DT_INT32"}, "value": {"tensor": {"dtype": "DT_INT32", "tensorShape": {}}}}}, {"name": "__inference_pruned_1369/model/agnostic_nms_1/agnostic_nms/while/body/_1/model/agnostic_nms_1/agnostic_nms/while/add_1/y", "op": "Const", "input": ["^model/agnostic_nms_1/agnostic_nms/while/loop_body_control/_33"], "attr": {"dtype": {"type": "DT_INT32"}, "value": {"tensor": {"dtype": "DT_INT32", "tensorShape": {}}}}}, {"name": "model/agnostic_nms_1/agnostic_nms/TensorArrayV2Stack/TensorListStack", "op": "TensorListStack", "input": ["model/agnostic_nms_1/agnostic_nms/while/exit/_37:output:0", "__inference_pruned_1369/model/agnostic_nms_1/agnostic_nms/TensorArrayV2Stack/TensorListStack/element_shape:output:0"], "attr": {"num_elements": {"i": "1"}, "element_dtype": {"type": "DT_FLOAT"}}}, {"name": "model/tf_conv_1/mul_1", "op": "Mul", "input": ["model/tf_conv_1/sequential_1/conv2d_1/BiasAdd:output:0", "model/tf_conv_1/Sigmoid:y:0"], "attr": {"T": {"type": "DT_FLOAT"}}}, {"name": "model/agnostic_nms_1/agnostic_nms/while/body/_1/model/agnostic_nms_1/agnostic_nms/while/add", "op": "AddV2", "input": ["Func/model/agnostic_nms_1/agnostic_nms/while/body/_1/input/_70:output:0", "__inference_pruned_1369/model/agnostic_nms_1/agnostic_nms/while/body/_1/model/agnostic_nms_1/agnostic_nms/while/add/y:output:0"], "attr": {"T": {"type": "DT_INT32"}}}, {"name": "model/agnostic_nms_1/agnostic_nms/while/body/_1/model/agnostic_nms_1/agnostic_nms/while/add_1", "op": "AddV2", "input": ["model/agnostic_nms_1/agnostic_nms/while/model/agnostic_nms_1/agnostic_nms/while/loop_counter_switch/_23:output_true:0", "__inference_pruned_1369/model/agnostic_nms_1/agnostic_nms/while/body/_1/model/agnostic_nms_1/agnostic_nms/while/add_1/y:output:0"], "attr": {"T": {"type": "DT_INT32"}}}, {"name": "model/tfc3/tf_conv_2/conv2d_2/Conv2D", "op": "Conv2D", "input": ["model/tf_conv_1/mul_1:z:0", "__inference_pruned_1369/model/tfc3/tf_conv_2/conv2d_2/Conv2D/ReadVariableOp:output:0"], "attr": {"use_cudnn_on_gpu": {"b": true}, "dilations": {"list": {"i": ["1", "1", "1", "1"]}}, "padding": {"s": "U0FNRQ=="}, "strides": {"list": {"i": ["1", "1", "1", "1"]}}, "explicit_paddings": {"list": {}}, "T": {"type": "DT_FLOAT"}, "data_format": {"s": "TkhXQw=="}}}, {"name": "model/tfc3/tf_conv_3/conv2d_3/Conv2D", "op": "Conv2D", "input": ["model/tf_conv_1/mul_1:z:0", "__inference_pruned_1369/model/tfc3/tf_conv_3/conv2d_3/Conv2D/ReadVariableOp:output:0"], "attr": {"use_cudnn_on_gpu": {"b": true}, "dilations": {"list": {"i": ["1", "1", "1", "1"]}}, "T": {"type": "DT_FLOAT"}, "padding": {"s": "U0FNRQ=="}, "strides": {"list": {"i": ["1", "1", "1", "1"]}}, "data_format": {"s": "TkhXQw=="}, "explicit_paddings": {"list": {}}}}, {"name": "model/agnostic_nms_1/agnostic_nms/while/next_iteration/_47", "op": "NextIteration", "input": ["model/agnostic_nms_1/agnostic_nms/while/body/_1/model/agnostic_nms_1/agnostic_nms/while/add:z:0", "^model/agnostic_nms_1/agnostic_nms/while/loop_body_control/_33"], "attr": {"T": {"type": "DT_INT32"}}}, {"name": "model/agnostic_nms_1/agnostic_nms/while/next_iteration/_45", "op": "NextIteration", "input": ["model/agnostic_nms_1/agnostic_nms/while/body/_1/model/agnostic_nms_1/agnostic_nms/while/add_1:z:0", "^model/agnostic_nms_1/agnostic_nms/while/loop_body_control/_33"], "attr": {"T": {"type": "DT_INT32"}}}, {"name": "model/tfc3/tf_conv_2/conv2d_2/BiasAdd", "op": "BiasAdd", "input": ["model/tfc3/tf_conv_2/conv2d_2/Conv2D:output:0", "__inference_pruned_1369/model/tfc3/tf_conv_2/conv2d_2/BiasAdd/ReadVariableOp:output:0"], "attr": {"data_format": {"s": "TkhXQw=="}, "T": {"type": "DT_FLOAT"}}}, {"name": "model/tfc3/tf_conv_3/conv2d_3/BiasAdd", "op": "BiasAdd", "input": ["model/tfc3/tf_conv_3/conv2d_3/Conv2D:output:0", "__inference_pruned_1369/model/tfc3/tf_conv_3/conv2d_3/BiasAdd/ReadVariableOp:output:0"], "attr": {"T": {"type": "DT_FLOAT"}, "data_format": {"s": "TkhXQw=="}}}, {"name": "model/tfc3/tf_conv_2/Sigmoid", "op": "Sigmoid", "input": ["model/tfc3/tf_conv_2/conv2d_2/BiasAdd:output:0"], "attr": {"T": {"type": "DT_FLOAT"}}}, {"name": "model/tfc3/tf_conv_3/Sigmoid", "op": "Sigmoid", "input": ["model/tfc3/tf_conv_3/conv2d_3/BiasAdd:output:0"], "attr": {"T": {"type": "DT_FLOAT"}}}, {"name": "model/tfc3/tf_conv_2/mul_1", "op": "Mul", "input": ["model/tfc3/tf_conv_2/conv2d_2/BiasAdd:output:0", "model/tfc3/tf_conv_2/Sigmoid:y:0"], "attr": {"T": {"type": "DT_FLOAT"}}}, {"name": "model/tfc3/tf_conv_3/mul_1", "op": "Mul", "input": ["model/tfc3/tf_conv_3/conv2d_3/BiasAdd:output:0", "model/tfc3/tf_conv_3/Sigmoid:y:0"], "attr": {"T": {"type": "DT_FLOAT"}}}, {"name": "model/tfc3/sequential_2/tf_bottleneck/tf_conv_5/conv2d_5/Conv2D", "op": "Conv2D", "input": ["model/tfc3/tf_conv_2/mul_1:z:0", "__inference_pruned_1369/model/tfc3/sequential_2/tf_bottleneck/tf_conv_5/conv2d_5/Conv2D/ReadVariableOp:output:0"], "attr": {"explicit_paddings": {"list": {}}, "data_format": {"s": "TkhXQw=="}, "T": {"type": "DT_FLOAT"}, "padding": {"s": "U0FNRQ=="}, "dilations": {"list": {"i": ["1", "1", "1", "1"]}}, "use_cudnn_on_gpu": {"b": true}, "strides": {"list": {"i": ["1", "1", "1", "1"]}}}}, {"name": "model/tfc3/sequential_2/tf_bottleneck/tf_conv_5/conv2d_5/BiasAdd", "op": "BiasAdd", "input": ["model/tfc3/sequential_2/tf_bottleneck/tf_conv_5/conv2d_5/Conv2D:output:0", "__inference_pruned_1369/model/tfc3/sequential_2/tf_bottleneck/tf_conv_5/conv2d_5/BiasAdd/ReadVariableOp:output:0"], "attr": {"T": {"type": "DT_FLOAT"}, "data_format": {"s": "TkhXQw=="}}}, {"name": "model/tfc3/sequential_2/tf_bottleneck/tf_conv_5/Sigmoid", "op": "Sigmoid", "input": ["model/tfc3/sequential_2/tf_bottleneck/tf_conv_5/conv2d_5/BiasAdd:output:0"], "attr": {"T": {"type": "DT_FLOAT"}}}, {"name": "model/tfc3/sequential_2/tf_bottleneck/tf_conv_5/mul_1", "op": "Mul", "input": ["model/tfc3/sequential_2/tf_bottleneck/tf_conv_5/conv2d_5/BiasAdd:output:0", "model/tfc3/sequential_2/tf_bottleneck/tf_conv_5/Sigmoid:y:0"], "attr": {"T": {"type": "DT_FLOAT"}}}, {"name": "model/tfc3/sequential_2/tf_bottleneck/tf_conv_6/conv2d_6/Conv2D", "op": "Conv2D", "input": ["model/tfc3/sequential_2/tf_bottleneck/tf_conv_5/mul_1:z:0", "__inference_pruned_1369/model/tfc3/sequential_2/tf_bottleneck/tf_conv_6/conv2d_6/Conv2D/ReadVariableOp:output:0"], "attr": {"dilations": {"list": {"i": ["1", "1", "1", "1"]}}, "T": {"type": "DT_FLOAT"}, "strides": {"list": {"i": ["1", "1", "1", "1"]}}, "explicit_paddings": {"list": {}}, "padding": {"s": "U0FNRQ=="}, "data_format": {"s": "TkhXQw=="}, "use_cudnn_on_gpu": {"b": true}}}, {"name": "model/tfc3/sequential_2/tf_bottleneck/tf_conv_6/conv2d_6/BiasAdd", "op": "BiasAdd", "input": ["model/tfc3/sequential_2/tf_bottleneck/tf_conv_6/conv2d_6/Conv2D:output:0", "__inference_pruned_1369/model/tfc3/sequential_2/tf_bottleneck/tf_conv_6/conv2d_6/BiasAdd/ReadVariableOp:output:0"], "attr": {"data_format": {"s": "TkhXQw=="}, "T": {"type": "DT_FLOAT"}}}, {"name": "model/tfc3/sequential_2/tf_bottleneck/tf_conv_6/Sigmoid", "op": "Sigmoid", "input": ["model/tfc3/sequential_2/tf_bottleneck/tf_conv_6/conv2d_6/BiasAdd:output:0"], "attr": {"T": {"type": "DT_FLOAT"}}}, {"name": "model/tfc3/sequential_2/tf_bottleneck/tf_conv_6/mul_1", "op": "Mul", "input": ["model/tfc3/sequential_2/tf_bottleneck/tf_conv_6/conv2d_6/BiasAdd:output:0", "model/tfc3/sequential_2/tf_bottleneck/tf_conv_6/Sigmoid:y:0"], "attr": {"T": {"type": "DT_FLOAT"}}}, {"name": "model/tfc3/sequential_2/tf_bottleneck/add", "op": "AddV2", "input": ["model/tfc3/tf_conv_2/mul_1:z:0", "model/tfc3/sequential_2/tf_bottleneck/tf_conv_6/mul_1:z:0"], "attr": {"T": {"type": "DT_FLOAT"}}}, {"name": "model/tfc3/concat", "op": "ConcatV2", "input": ["model/tfc3/sequential_2/tf_bottleneck/add:z:0", "model/tfc3/tf_conv_3/mul_1:z:0", "__inference_pruned_1369/model/tfc3/concat/axis:output:0"], "attr": {"T": {"type": "DT_FLOAT"}, "Tidx": {"type": "DT_INT32"}, "N": {"i": "2"}}}, {"name": "model/tfc3/tf_conv_4/conv2d_4/Conv2D", "op": "Conv2D", "input": ["model/tfc3/concat:output:0", "__inference_pruned_1369/model/tfc3/tf_conv_4/conv2d_4/Conv2D/ReadVariableOp:output:0"], "attr": {"strides": {"list": {"i": ["1", "1", "1", "1"]}}, "padding": {"s": "U0FNRQ=="}, "T": {"type": "DT_FLOAT"}, "explicit_paddings": {"list": {}}, "data_format": {"s": "TkhXQw=="}, "dilations": {"list": {"i": ["1", "1", "1", "1"]}}, "use_cudnn_on_gpu": {"b": true}}}, {"name": "model/tfc3/tf_conv_4/conv2d_4/BiasAdd", "op": "BiasAdd", "input": ["model/tfc3/tf_conv_4/conv2d_4/Conv2D:output:0", "__inference_pruned_1369/model/tfc3/tf_conv_4/conv2d_4/BiasAdd/ReadVariableOp:output:0"], "attr": {"T": {"type": "DT_FLOAT"}, "data_format": {"s": "TkhXQw=="}}}, {"name": "model/tfc3/tf_conv_4/Sigmoid", "op": "Sigmoid", "input": ["model/tfc3/tf_conv_4/conv2d_4/BiasAdd:output:0"], "attr": {"T": {"type": "DT_FLOAT"}}}, {"name": "model/tfc3/tf_conv_4/mul_1", "op": "Mul", "input": ["model/tfc3/tf_conv_4/conv2d_4/BiasAdd:output:0", "model/tfc3/tf_conv_4/Sigmoid:y:0"], "attr": {"T": {"type": "DT_FLOAT"}}}, {"name": "model/tf_conv_7/sequential_3/tf_pad_2/Pad", "op": "Pad", "input": ["model/tfc3/tf_conv_4/mul_1:z:0", "__inference_pruned_1369/model/tf_conv_7/sequential_3/tf_pad_2/Pad/paddings:output:0"], "attr": {"T": {"type": "DT_FLOAT"}, "Tpaddings": {"type": "DT_INT32"}}}, {"name": "model/tf_conv_7/sequential_3/conv2d_7/Conv2D", "op": "Conv2D", "input": ["model/tf_conv_7/sequential_3/tf_pad_2/Pad:output:0", "__inference_pruned_1369/model/tf_conv_7/sequential_3/conv2d_7/Conv2D/ReadVariableOp:output:0"], "attr": {"data_format": {"s": "TkhXQw=="}, "strides": {"list": {"i": ["1", "2", "2", "1"]}}, "explicit_paddings": {"list": {}}, "padding": {"s": "VkFMSUQ="}, "dilations": {"list": {"i": ["1", "1", "1", "1"]}}, "use_cudnn_on_gpu": {"b": true}, "T": {"type": "DT_FLOAT"}}}, {"name": "model/tf_conv_7/sequential_3/conv2d_7/BiasAdd", "op": "BiasAdd", "input": ["model/tf_conv_7/sequential_3/conv2d_7/Conv2D:output:0", "__inference_pruned_1369/model/tf_conv_7/sequential_3/conv2d_7/BiasAdd/ReadVariableOp:output:0"], "attr": {"data_format": {"s": "TkhXQw=="}, "T": {"type": "DT_FLOAT"}}}, {"name": "model/tf_conv_7/Sigmoid", "op": "Sigmoid", "input": ["model/tf_conv_7/sequential_3/conv2d_7/BiasAdd:output:0"], "attr": {"T": {"type": "DT_FLOAT"}}}, {"name": "model/tf_conv_7/mul_1", "op": "Mul", "input": ["model/tf_conv_7/sequential_3/conv2d_7/BiasAdd:output:0", "model/tf_conv_7/Sigmoid:y:0"], "attr": {"T": {"type": "DT_FLOAT"}}}, {"name": "model/tfc3_1/tf_conv_8/conv2d_8/Conv2D", "op": "Conv2D", "input": ["model/tf_conv_7/mul_1:z:0", "__inference_pruned_1369/model/tfc3_1/tf_conv_8/conv2d_8/Conv2D/ReadVariableOp:output:0"], "attr": {"data_format": {"s": "TkhXQw=="}, "explicit_paddings": {"list": {}}, "dilations": {"list": {"i": ["1", "1", "1", "1"]}}, "use_cudnn_on_gpu": {"b": true}, "strides": {"list": {"i": ["1", "1", "1", "1"]}}, "T": {"type": "DT_FLOAT"}, "padding": {"s": "U0FNRQ=="}}}, {"name": "model/tfc3_1/tf_conv_9/conv2d_9/Conv2D", "op": "Conv2D", "input": ["model/tf_conv_7/mul_1:z:0", "__inference_pruned_1369/model/tfc3_1/tf_conv_9/conv2d_9/Conv2D/ReadVariableOp:output:0"], "attr": {"data_format": {"s": "TkhXQw=="}, "explicit_paddings": {"list": {}}, "use_cudnn_on_gpu": {"b": true}, "T": {"type": "DT_FLOAT"}, "dilations": {"list": {"i": ["1", "1", "1", "1"]}}, "strides": {"list": {"i": ["1", "1", "1", "1"]}}, "padding": {"s": "U0FNRQ=="}}}, {"name": "model/tfc3_1/tf_conv_8/conv2d_8/BiasAdd", "op": "BiasAdd", "input": ["model/tfc3_1/tf_conv_8/conv2d_8/Conv2D:output:0", "__inference_pruned_1369/model/tfc3_1/tf_conv_8/conv2d_8/BiasAdd/ReadVariableOp:output:0"], "attr": {"data_format": {"s": "TkhXQw=="}, "T": {"type": "DT_FLOAT"}}}, {"name": "model/tfc3_1/tf_conv_9/conv2d_9/BiasAdd", "op": "BiasAdd", "input": ["model/tfc3_1/tf_conv_9/conv2d_9/Conv2D:output:0", "__inference_pruned_1369/model/tfc3_1/tf_conv_9/conv2d_9/BiasAdd/ReadVariableOp:output:0"], "attr": {"data_format": {"s": "TkhXQw=="}, "T": {"type": "DT_FLOAT"}}}, {"name": "model/tfc3_1/tf_conv_8/Sigmoid", "op": "Sigmoid", "input": ["model/tfc3_1/tf_conv_8/conv2d_8/BiasAdd:output:0"], "attr": {"T": {"type": "DT_FLOAT"}}}, {"name": "model/tfc3_1/tf_conv_9/Sigmoid", "op": "Sigmoid", "input": ["model/tfc3_1/tf_conv_9/conv2d_9/BiasAdd:output:0"], "attr": {"T": {"type": "DT_FLOAT"}}}, {"name": "model/tfc3_1/tf_conv_8/mul_1", "op": "Mul", "input": ["model/tfc3_1/tf_conv_8/conv2d_8/BiasAdd:output:0", "model/tfc3_1/tf_conv_8/Sigmoid:y:0"], "attr": {"T": {"type": "DT_FLOAT"}}}, {"name": "model/tfc3_1/tf_conv_9/mul_1", "op": "Mul", "input": ["model/tfc3_1/tf_conv_9/conv2d_9/BiasAdd:output:0", "model/tfc3_1/tf_conv_9/Sigmoid:y:0"], "attr": {"T": {"type": "DT_FLOAT"}}}, {"name": "model/tfc3_1/sequential_4/tf_bottleneck_1/tf_conv_11/conv2d_11/Conv2D", "op": "Conv2D", "input": ["model/tfc3_1/tf_conv_8/mul_1:z:0", "__inference_pruned_1369/model/tfc3_1/sequential_4/tf_bottleneck_1/tf_conv_11/conv2d_11/Conv2D/ReadVariableOp:output:0"], "attr": {"dilations": {"list": {"i": ["1", "1", "1", "1"]}}, "strides": {"list": {"i": ["1", "1", "1", "1"]}}, "T": {"type": "DT_FLOAT"}, "padding": {"s": "U0FNRQ=="}, "explicit_paddings": {"list": {}}, "data_format": {"s": "TkhXQw=="}, "use_cudnn_on_gpu": {"b": true}}}, {"name": "model/tfc3_1/sequential_4/tf_bottleneck_1/tf_conv_11/conv2d_11/BiasAdd", "op": "BiasAdd", "input": ["model/tfc3_1/sequential_4/tf_bottleneck_1/tf_conv_11/conv2d_11/Conv2D:output:0", "__inference_pruned_1369/model/tfc3_1/sequential_4/tf_bottleneck_1/tf_conv_11/conv2d_11/BiasAdd/ReadVariableOp:output:0"], "attr": {"data_format": {"s": "TkhXQw=="}, "T": {"type": "DT_FLOAT"}}}, {"name": "model/tfc3_1/sequential_4/tf_bottleneck_1/tf_conv_11/Sigmoid", "op": "Sigmoid", "input": ["model/tfc3_1/sequential_4/tf_bottleneck_1/tf_conv_11/conv2d_11/BiasAdd:output:0"], "attr": {"T": {"type": "DT_FLOAT"}}}, {"name": "model/tfc3_1/sequential_4/tf_bottleneck_1/tf_conv_11/mul_1", "op": "Mul", "input": ["model/tfc3_1/sequential_4/tf_bottleneck_1/tf_conv_11/conv2d_11/BiasAdd:output:0", "model/tfc3_1/sequential_4/tf_bottleneck_1/tf_conv_11/Sigmoid:y:0"], "attr": {"T": {"type": "DT_FLOAT"}}}, {"name": "model/tfc3_1/sequential_4/tf_bottleneck_1/tf_conv_12/conv2d_12/Conv2D", "op": "Conv2D", "input": ["model/tfc3_1/sequential_4/tf_bottleneck_1/tf_conv_11/mul_1:z:0", "__inference_pruned_1369/model/tfc3_1/sequential_4/tf_bottleneck_1/tf_conv_12/conv2d_12/Conv2D/ReadVariableOp:output:0"], "attr": {"padding": {"s": "U0FNRQ=="}, "data_format": {"s": "TkhXQw=="}, "strides": {"list": {"i": ["1", "1", "1", "1"]}}, "explicit_paddings": {"list": {}}, "dilations": {"list": {"i": ["1", "1", "1", "1"]}}, "use_cudnn_on_gpu": {"b": true}, "T": {"type": "DT_FLOAT"}}}, {"name": "model/tfc3_1/sequential_4/tf_bottleneck_1/tf_conv_12/conv2d_12/BiasAdd", "op": "BiasAdd", "input": ["model/tfc3_1/sequential_4/tf_bottleneck_1/tf_conv_12/conv2d_12/Conv2D:output:0", "__inference_pruned_1369/model/tfc3_1/sequential_4/tf_bottleneck_1/tf_conv_12/conv2d_12/BiasAdd/ReadVariableOp:output:0"], "attr": {"T": {"type": "DT_FLOAT"}, "data_format": {"s": "TkhXQw=="}}}, {"name": "model/tfc3_1/sequential_4/tf_bottleneck_1/tf_conv_12/Sigmoid", "op": "Sigmoid", "input": ["model/tfc3_1/sequential_4/tf_bottleneck_1/tf_conv_12/conv2d_12/BiasAdd:output:0"], "attr": {"T": {"type": "DT_FLOAT"}}}, {"name": "model/tfc3_1/sequential_4/tf_bottleneck_1/tf_conv_12/mul_1", "op": "Mul", "input": ["model/tfc3_1/sequential_4/tf_bottleneck_1/tf_conv_12/conv2d_12/BiasAdd:output:0", "model/tfc3_1/sequential_4/tf_bottleneck_1/tf_conv_12/Sigmoid:y:0"], "attr": {"T": {"type": "DT_FLOAT"}}}, {"name": "model/tfc3_1/sequential_4/tf_bottleneck_1/add", "op": "AddV2", "input": ["model/tfc3_1/tf_conv_8/mul_1:z:0", "model/tfc3_1/sequential_4/tf_bottleneck_1/tf_conv_12/mul_1:z:0"], "attr": {"T": {"type": "DT_FLOAT"}}}, {"name": "model/tfc3_1/sequential_4/tf_bottleneck_2/tf_conv_13/conv2d_13/Conv2D", "op": "Conv2D", "input": ["model/tfc3_1/sequential_4/tf_bottleneck_1/add:z:0", "__inference_pruned_1369/model/tfc3_1/sequential_4/tf_bottleneck_2/tf_conv_13/conv2d_13/Conv2D/ReadVariableOp:output:0"], "attr": {"explicit_paddings": {"list": {}}, "padding": {"s": "U0FNRQ=="}, "data_format": {"s": "TkhXQw=="}, "dilations": {"list": {"i": ["1", "1", "1", "1"]}}, "use_cudnn_on_gpu": {"b": true}, "T": {"type": "DT_FLOAT"}, "strides": {"list": {"i": ["1", "1", "1", "1"]}}}}, {"name": "model/tfc3_1/sequential_4/tf_bottleneck_2/tf_conv_13/conv2d_13/BiasAdd", "op": "BiasAdd", "input": ["model/tfc3_1/sequential_4/tf_bottleneck_2/tf_conv_13/conv2d_13/Conv2D:output:0", "__inference_pruned_1369/model/tfc3_1/sequential_4/tf_bottleneck_2/tf_conv_13/conv2d_13/BiasAdd/ReadVariableOp:output:0"], "attr": {"T": {"type": "DT_FLOAT"}, "data_format": {"s": "TkhXQw=="}}}, {"name": "model/tfc3_1/sequential_4/tf_bottleneck_2/tf_conv_13/Sigmoid", "op": "Sigmoid", "input": ["model/tfc3_1/sequential_4/tf_bottleneck_2/tf_conv_13/conv2d_13/BiasAdd:output:0"], "attr": {"T": {"type": "DT_FLOAT"}}}, {"name": "model/tfc3_1/sequential_4/tf_bottleneck_2/tf_conv_13/mul_1", "op": "Mul", "input": ["model/tfc3_1/sequential_4/tf_bottleneck_2/tf_conv_13/conv2d_13/BiasAdd:output:0", "model/tfc3_1/sequential_4/tf_bottleneck_2/tf_conv_13/Sigmoid:y:0"], "attr": {"T": {"type": "DT_FLOAT"}}}, {"name": "model/tfc3_1/sequential_4/tf_bottleneck_2/tf_conv_14/conv2d_14/Conv2D", "op": "Conv2D", "input": ["model/tfc3_1/sequential_4/tf_bottleneck_2/tf_conv_13/mul_1:z:0", "__inference_pruned_1369/model/tfc3_1/sequential_4/tf_bottleneck_2/tf_conv_14/conv2d_14/Conv2D/ReadVariableOp:output:0"], "attr": {"dilations": {"list": {"i": ["1", "1", "1", "1"]}}, "strides": {"list": {"i": ["1", "1", "1", "1"]}}, "data_format": {"s": "TkhXQw=="}, "T": {"type": "DT_FLOAT"}, "padding": {"s": "U0FNRQ=="}, "use_cudnn_on_gpu": {"b": true}, "explicit_paddings": {"list": {}}}}, {"name": "model/tfc3_1/sequential_4/tf_bottleneck_2/tf_conv_14/conv2d_14/BiasAdd", "op": "BiasAdd", "input": ["model/tfc3_1/sequential_4/tf_bottleneck_2/tf_conv_14/conv2d_14/Conv2D:output:0", "__inference_pruned_1369/model/tfc3_1/sequential_4/tf_bottleneck_2/tf_conv_14/conv2d_14/BiasAdd/ReadVariableOp:output:0"], "attr": {"data_format": {"s": "TkhXQw=="}, "T": {"type": "DT_FLOAT"}}}, {"name": "model/tfc3_1/sequential_4/tf_bottleneck_2/tf_conv_14/Sigmoid", "op": "Sigmoid", "input": ["model/tfc3_1/sequential_4/tf_bottleneck_2/tf_conv_14/conv2d_14/BiasAdd:output:0"], "attr": {"T": {"type": "DT_FLOAT"}}}, {"name": "model/tfc3_1/sequential_4/tf_bottleneck_2/tf_conv_14/mul_1", "op": "Mul", "input": ["model/tfc3_1/sequential_4/tf_bottleneck_2/tf_conv_14/conv2d_14/BiasAdd:output:0", "model/tfc3_1/sequential_4/tf_bottleneck_2/tf_conv_14/Sigmoid:y:0"], "attr": {"T": {"type": "DT_FLOAT"}}}, {"name": "model/tfc3_1/sequential_4/tf_bottleneck_2/add", "op": "AddV2", "input": ["model/tfc3_1/sequential_4/tf_bottleneck_1/add:z:0", "model/tfc3_1/sequential_4/tf_bottleneck_2/tf_conv_14/mul_1:z:0"], "attr": {"T": {"type": "DT_FLOAT"}}}, {"name": "model/tfc3_1/concat", "op": "ConcatV2", "input": ["model/tfc3_1/sequential_4/tf_bottleneck_2/add:z:0", "model/tfc3_1/tf_conv_9/mul_1:z:0", "__inference_pruned_1369/model/tfc3_1/concat/axis:output:0"], "attr": {"Tidx": {"type": "DT_INT32"}, "T": {"type": "DT_FLOAT"}, "N": {"i": "2"}}}, {"name": "model/tfc3_1/tf_conv_10/conv2d_10/Conv2D", "op": "Conv2D", "input": ["model/tfc3_1/concat:output:0", "__inference_pruned_1369/model/tfc3_1/tf_conv_10/conv2d_10/Conv2D/ReadVariableOp:output:0"], "attr": {"use_cudnn_on_gpu": {"b": true}, "strides": {"list": {"i": ["1", "1", "1", "1"]}}, "T": {"type": "DT_FLOAT"}, "explicit_paddings": {"list": {}}, "padding": {"s": "U0FNRQ=="}, "dilations": {"list": {"i": ["1", "1", "1", "1"]}}, "data_format": {"s": "TkhXQw=="}}}, {"name": "model/tfc3_1/tf_conv_10/conv2d_10/BiasAdd", "op": "BiasAdd", "input": ["model/tfc3_1/tf_conv_10/conv2d_10/Conv2D:output:0", "__inference_pruned_1369/model/tfc3_1/tf_conv_10/conv2d_10/BiasAdd/ReadVariableOp:output:0"], "attr": {"data_format": {"s": "TkhXQw=="}, "T": {"type": "DT_FLOAT"}}}, {"name": "model/tfc3_1/tf_conv_10/Sigmoid", "op": "Sigmoid", "input": ["model/tfc3_1/tf_conv_10/conv2d_10/BiasAdd:output:0"], "attr": {"T": {"type": "DT_FLOAT"}}}, {"name": "model/tfc3_1/tf_conv_10/mul_1", "op": "Mul", "input": ["model/tfc3_1/tf_conv_10/conv2d_10/BiasAdd:output:0", "model/tfc3_1/tf_conv_10/Sigmoid:y:0"], "attr": {"T": {"type": "DT_FLOAT"}}}, {"name": "model/tf_conv_15/sequential_5/tf_pad_3/Pad", "op": "Pad", "input": ["model/tfc3_1/tf_conv_10/mul_1:z:0", "__inference_pruned_1369/model/tf_conv_15/sequential_5/tf_pad_3/Pad/paddings:output:0"], "attr": {"Tpaddings": {"type": "DT_INT32"}, "T": {"type": "DT_FLOAT"}}}, {"name": "model/tf_conv_15/sequential_5/conv2d_15/Conv2D", "op": "Conv2D", "input": ["model/tf_conv_15/sequential_5/tf_pad_3/Pad:output:0", "__inference_pruned_1369/model/tf_conv_15/sequential_5/conv2d_15/Conv2D/ReadVariableOp:output:0"], "attr": {"data_format": {"s": "TkhXQw=="}, "explicit_paddings": {"list": {}}, "dilations": {"list": {"i": ["1", "1", "1", "1"]}}, "padding": {"s": "VkFMSUQ="}, "strides": {"list": {"i": ["1", "2", "2", "1"]}}, "use_cudnn_on_gpu": {"b": true}, "T": {"type": "DT_FLOAT"}}}, {"name": "model/tf_conv_15/sequential_5/conv2d_15/BiasAdd", "op": "BiasAdd", "input": ["model/tf_conv_15/sequential_5/conv2d_15/Conv2D:output:0", "__inference_pruned_1369/model/tf_conv_15/sequential_5/conv2d_15/BiasAdd/ReadVariableOp:output:0"], "attr": {"data_format": {"s": "TkhXQw=="}, "T": {"type": "DT_FLOAT"}}}, {"name": "model/tf_conv_15/Sigmoid", "op": "Sigmoid", "input": ["model/tf_conv_15/sequential_5/conv2d_15/BiasAdd:output:0"], "attr": {"T": {"type": "DT_FLOAT"}}}, {"name": "model/tf_conv_15/mul_1", "op": "Mul", "input": ["model/tf_conv_15/sequential_5/conv2d_15/BiasAdd:output:0", "model/tf_conv_15/Sigmoid:y:0"], "attr": {"T": {"type": "DT_FLOAT"}}}, {"name": "model/tfc3_2/tf_conv_16/conv2d_16/Conv2D", "op": "Conv2D", "input": ["model/tf_conv_15/mul_1:z:0", "__inference_pruned_1369/model/tfc3_2/tf_conv_16/conv2d_16/Conv2D/ReadVariableOp:output:0"], "attr": {"strides": {"list": {"i": ["1", "1", "1", "1"]}}, "data_format": {"s": "TkhXQw=="}, "T": {"type": "DT_FLOAT"}, "explicit_paddings": {"list": {}}, "dilations": {"list": {"i": ["1", "1", "1", "1"]}}, "use_cudnn_on_gpu": {"b": true}, "padding": {"s": "U0FNRQ=="}}}, {"name": "model/tfc3_2/tf_conv_17/conv2d_17/Conv2D", "op": "Conv2D", "input": ["model/tf_conv_15/mul_1:z:0", "__inference_pruned_1369/model/tfc3_2/tf_conv_17/conv2d_17/Conv2D/ReadVariableOp:output:0"], "attr": {"strides": {"list": {"i": ["1", "1", "1", "1"]}}, "data_format": {"s": "TkhXQw=="}, "explicit_paddings": {"list": {}}, "dilations": {"list": {"i": ["1", "1", "1", "1"]}}, "T": {"type": "DT_FLOAT"}, "use_cudnn_on_gpu": {"b": true}, "padding": {"s": "U0FNRQ=="}}}, {"name": "model/tfc3_2/tf_conv_16/conv2d_16/BiasAdd", "op": "BiasAdd", "input": ["model/tfc3_2/tf_conv_16/conv2d_16/Conv2D:output:0", "__inference_pruned_1369/model/tfc3_2/tf_conv_16/conv2d_16/BiasAdd/ReadVariableOp:output:0"], "attr": {"data_format": {"s": "TkhXQw=="}, "T": {"type": "DT_FLOAT"}}}, {"name": "model/tfc3_2/tf_conv_17/conv2d_17/BiasAdd", "op": "BiasAdd", "input": ["model/tfc3_2/tf_conv_17/conv2d_17/Conv2D:output:0", "__inference_pruned_1369/model/tfc3_2/tf_conv_17/conv2d_17/BiasAdd/ReadVariableOp:output:0"], "attr": {"data_format": {"s": "TkhXQw=="}, "T": {"type": "DT_FLOAT"}}}, {"name": "model/tfc3_2/tf_conv_16/Sigmoid", "op": "Sigmoid", "input": ["model/tfc3_2/tf_conv_16/conv2d_16/BiasAdd:output:0"], "attr": {"T": {"type": "DT_FLOAT"}}}, {"name": "model/tfc3_2/tf_conv_17/Sigmoid", "op": "Sigmoid", "input": ["model/tfc3_2/tf_conv_17/conv2d_17/BiasAdd:output:0"], "attr": {"T": {"type": "DT_FLOAT"}}}, {"name": "model/tfc3_2/tf_conv_16/mul_1", "op": "Mul", "input": ["model/tfc3_2/tf_conv_16/conv2d_16/BiasAdd:output:0", "model/tfc3_2/tf_conv_16/Sigmoid:y:0"], "attr": {"T": {"type": "DT_FLOAT"}}}, {"name": "model/tfc3_2/tf_conv_17/mul_1", "op": "Mul", "input": ["model/tfc3_2/tf_conv_17/conv2d_17/BiasAdd:output:0", "model/tfc3_2/tf_conv_17/Sigmoid:y:0"], "attr": {"T": {"type": "DT_FLOAT"}}}, {"name": "model/tfc3_2/sequential_6/tf_bottleneck_3/tf_conv_19/conv2d_19/Conv2D", "op": "Conv2D", "input": ["model/tfc3_2/tf_conv_16/mul_1:z:0", "__inference_pruned_1369/model/tfc3_2/sequential_6/tf_bottleneck_3/tf_conv_19/conv2d_19/Conv2D/ReadVariableOp:output:0"], "attr": {"explicit_paddings": {"list": {}}, "T": {"type": "DT_FLOAT"}, "strides": {"list": {"i": ["1", "1", "1", "1"]}}, "data_format": {"s": "TkhXQw=="}, "dilations": {"list": {"i": ["1", "1", "1", "1"]}}, "use_cudnn_on_gpu": {"b": true}, "padding": {"s": "U0FNRQ=="}}}, {"name": "model/tfc3_2/sequential_6/tf_bottleneck_3/tf_conv_19/conv2d_19/BiasAdd", "op": "BiasAdd", "input": ["model/tfc3_2/sequential_6/tf_bottleneck_3/tf_conv_19/conv2d_19/Conv2D:output:0", "__inference_pruned_1369/model/tfc3_2/sequential_6/tf_bottleneck_3/tf_conv_19/conv2d_19/BiasAdd/ReadVariableOp:output:0"], "attr": {"data_format": {"s": "TkhXQw=="}, "T": {"type": "DT_FLOAT"}}}, {"name": "model/tfc3_2/sequential_6/tf_bottleneck_3/tf_conv_19/Sigmoid", "op": "Sigmoid", "input": ["model/tfc3_2/sequential_6/tf_bottleneck_3/tf_conv_19/conv2d_19/BiasAdd:output:0"], "attr": {"T": {"type": "DT_FLOAT"}}}, {"name": "model/tfc3_2/sequential_6/tf_bottleneck_3/tf_conv_19/mul_1", "op": "Mul", "input": ["model/tfc3_2/sequential_6/tf_bottleneck_3/tf_conv_19/conv2d_19/BiasAdd:output:0", "model/tfc3_2/sequential_6/tf_bottleneck_3/tf_conv_19/Sigmoid:y:0"], "attr": {"T": {"type": "DT_FLOAT"}}}, {"name": "model/tfc3_2/sequential_6/tf_bottleneck_3/tf_conv_20/conv2d_20/Conv2D", "op": "Conv2D", "input": ["model/tfc3_2/sequential_6/tf_bottleneck_3/tf_conv_19/mul_1:z:0", "__inference_pruned_1369/model/tfc3_2/sequential_6/tf_bottleneck_3/tf_conv_20/conv2d_20/Conv2D/ReadVariableOp:output:0"], "attr": {"explicit_paddings": {"list": {}}, "data_format": {"s": "TkhXQw=="}, "use_cudnn_on_gpu": {"b": true}, "dilations": {"list": {"i": ["1", "1", "1", "1"]}}, "strides": {"list": {"i": ["1", "1", "1", "1"]}}, "padding": {"s": "U0FNRQ=="}, "T": {"type": "DT_FLOAT"}}}, {"name": "model/tfc3_2/sequential_6/tf_bottleneck_3/tf_conv_20/conv2d_20/BiasAdd", "op": "BiasAdd", "input": ["model/tfc3_2/sequential_6/tf_bottleneck_3/tf_conv_20/conv2d_20/Conv2D:output:0", "__inference_pruned_1369/model/tfc3_2/sequential_6/tf_bottleneck_3/tf_conv_20/conv2d_20/BiasAdd/ReadVariableOp:output:0"], "attr": {"data_format": {"s": "TkhXQw=="}, "T": {"type": "DT_FLOAT"}}}, {"name": "model/tfc3_2/sequential_6/tf_bottleneck_3/tf_conv_20/Sigmoid", "op": "Sigmoid", "input": ["model/tfc3_2/sequential_6/tf_bottleneck_3/tf_conv_20/conv2d_20/BiasAdd:output:0"], "attr": {"T": {"type": "DT_FLOAT"}}}, {"name": "model/tfc3_2/sequential_6/tf_bottleneck_3/tf_conv_20/mul_1", "op": "Mul", "input": ["model/tfc3_2/sequential_6/tf_bottleneck_3/tf_conv_20/conv2d_20/BiasAdd:output:0", "model/tfc3_2/sequential_6/tf_bottleneck_3/tf_conv_20/Sigmoid:y:0"], "attr": {"T": {"type": "DT_FLOAT"}}}, {"name": "model/tfc3_2/sequential_6/tf_bottleneck_3/add", "op": "AddV2", "input": ["model/tfc3_2/tf_conv_16/mul_1:z:0", "model/tfc3_2/sequential_6/tf_bottleneck_3/tf_conv_20/mul_1:z:0"], "attr": {"T": {"type": "DT_FLOAT"}}}, {"name": "model/tfc3_2/sequential_6/tf_bottleneck_4/tf_conv_21/conv2d_21/Conv2D", "op": "Conv2D", "input": ["model/tfc3_2/sequential_6/tf_bottleneck_3/add:z:0", "__inference_pruned_1369/model/tfc3_2/sequential_6/tf_bottleneck_4/tf_conv_21/conv2d_21/Conv2D/ReadVariableOp:output:0"], "attr": {"T": {"type": "DT_FLOAT"}, "explicit_paddings": {"list": {}}, "data_format": {"s": "TkhXQw=="}, "strides": {"list": {"i": ["1", "1", "1", "1"]}}, "padding": {"s": "U0FNRQ=="}, "dilations": {"list": {"i": ["1", "1", "1", "1"]}}, "use_cudnn_on_gpu": {"b": true}}}, {"name": "model/tfc3_2/sequential_6/tf_bottleneck_4/tf_conv_21/conv2d_21/BiasAdd", "op": "BiasAdd", "input": ["model/tfc3_2/sequential_6/tf_bottleneck_4/tf_conv_21/conv2d_21/Conv2D:output:0", "__inference_pruned_1369/model/tfc3_2/sequential_6/tf_bottleneck_4/tf_conv_21/conv2d_21/BiasAdd/ReadVariableOp:output:0"], "attr": {"data_format": {"s": "TkhXQw=="}, "T": {"type": "DT_FLOAT"}}}, {"name": "model/tfc3_2/sequential_6/tf_bottleneck_4/tf_conv_21/Sigmoid", "op": "Sigmoid", "input": ["model/tfc3_2/sequential_6/tf_bottleneck_4/tf_conv_21/conv2d_21/BiasAdd:output:0"], "attr": {"T": {"type": "DT_FLOAT"}}}, {"name": "model/tfc3_2/sequential_6/tf_bottleneck_4/tf_conv_21/mul_1", "op": "Mul", "input": ["model/tfc3_2/sequential_6/tf_bottleneck_4/tf_conv_21/conv2d_21/BiasAdd:output:0", "model/tfc3_2/sequential_6/tf_bottleneck_4/tf_conv_21/Sigmoid:y:0"], "attr": {"T": {"type": "DT_FLOAT"}}}, {"name": "model/tfc3_2/sequential_6/tf_bottleneck_4/tf_conv_22/conv2d_22/Conv2D", "op": "Conv2D", "input": ["model/tfc3_2/sequential_6/tf_bottleneck_4/tf_conv_21/mul_1:z:0", "__inference_pruned_1369/model/tfc3_2/sequential_6/tf_bottleneck_4/tf_conv_22/conv2d_22/Conv2D/ReadVariableOp:output:0"], "attr": {"strides": {"list": {"i": ["1", "1", "1", "1"]}}, "explicit_paddings": {"list": {}}, "data_format": {"s": "TkhXQw=="}, "use_cudnn_on_gpu": {"b": true}, "dilations": {"list": {"i": ["1", "1", "1", "1"]}}, "padding": {"s": "U0FNRQ=="}, "T": {"type": "DT_FLOAT"}}}, {"name": "model/tfc3_2/sequential_6/tf_bottleneck_4/tf_conv_22/conv2d_22/BiasAdd", "op": "BiasAdd", "input": ["model/tfc3_2/sequential_6/tf_bottleneck_4/tf_conv_22/conv2d_22/Conv2D:output:0", "__inference_pruned_1369/model/tfc3_2/sequential_6/tf_bottleneck_4/tf_conv_22/conv2d_22/BiasAdd/ReadVariableOp:output:0"], "attr": {"data_format": {"s": "TkhXQw=="}, "T": {"type": "DT_FLOAT"}}}, {"name": "model/tfc3_2/sequential_6/tf_bottleneck_4/tf_conv_22/Sigmoid", "op": "Sigmoid", "input": ["model/tfc3_2/sequential_6/tf_bottleneck_4/tf_conv_22/conv2d_22/BiasAdd:output:0"], "attr": {"T": {"type": "DT_FLOAT"}}}, {"name": "model/tfc3_2/sequential_6/tf_bottleneck_4/tf_conv_22/mul_1", "op": "Mul", "input": ["model/tfc3_2/sequential_6/tf_bottleneck_4/tf_conv_22/conv2d_22/BiasAdd:output:0", "model/tfc3_2/sequential_6/tf_bottleneck_4/tf_conv_22/Sigmoid:y:0"], "attr": {"T": {"type": "DT_FLOAT"}}}, {"name": "model/tfc3_2/sequential_6/tf_bottleneck_4/add", "op": "AddV2", "input": ["model/tfc3_2/sequential_6/tf_bottleneck_3/add:z:0", "model/tfc3_2/sequential_6/tf_bottleneck_4/tf_conv_22/mul_1:z:0"], "attr": {"T": {"type": "DT_FLOAT"}}}, {"name": "model/tfc3_2/sequential_6/tf_bottleneck_5/tf_conv_23/conv2d_23/Conv2D", "op": "Conv2D", "input": ["model/tfc3_2/sequential_6/tf_bottleneck_4/add:z:0", "__inference_pruned_1369/model/tfc3_2/sequential_6/tf_bottleneck_5/tf_conv_23/conv2d_23/Conv2D/ReadVariableOp:output:0"], "attr": {"explicit_paddings": {"list": {}}, "dilations": {"list": {"i": ["1", "1", "1", "1"]}}, "data_format": {"s": "TkhXQw=="}, "T": {"type": "DT_FLOAT"}, "padding": {"s": "U0FNRQ=="}, "use_cudnn_on_gpu": {"b": true}, "strides": {"list": {"i": ["1", "1", "1", "1"]}}}}, {"name": "model/tfc3_2/sequential_6/tf_bottleneck_5/tf_conv_23/conv2d_23/BiasAdd", "op": "BiasAdd", "input": ["model/tfc3_2/sequential_6/tf_bottleneck_5/tf_conv_23/conv2d_23/Conv2D:output:0", "__inference_pruned_1369/model/tfc3_2/sequential_6/tf_bottleneck_5/tf_conv_23/conv2d_23/BiasAdd/ReadVariableOp:output:0"], "attr": {"T": {"type": "DT_FLOAT"}, "data_format": {"s": "TkhXQw=="}}}, {"name": "model/tfc3_2/sequential_6/tf_bottleneck_5/tf_conv_23/Sigmoid", "op": "Sigmoid", "input": ["model/tfc3_2/sequential_6/tf_bottleneck_5/tf_conv_23/conv2d_23/BiasAdd:output:0"], "attr": {"T": {"type": "DT_FLOAT"}}}, {"name": "model/tfc3_2/sequential_6/tf_bottleneck_5/tf_conv_23/mul_1", "op": "Mul", "input": ["model/tfc3_2/sequential_6/tf_bottleneck_5/tf_conv_23/conv2d_23/BiasAdd:output:0", "model/tfc3_2/sequential_6/tf_bottleneck_5/tf_conv_23/Sigmoid:y:0"], "attr": {"T": {"type": "DT_FLOAT"}}}, {"name": "model/tfc3_2/sequential_6/tf_bottleneck_5/tf_conv_24/conv2d_24/Conv2D", "op": "Conv2D", "input": ["model/tfc3_2/sequential_6/tf_bottleneck_5/tf_conv_23/mul_1:z:0", "__inference_pruned_1369/model/tfc3_2/sequential_6/tf_bottleneck_5/tf_conv_24/conv2d_24/Conv2D/ReadVariableOp:output:0"], "attr": {"T": {"type": "DT_FLOAT"}, "dilations": {"list": {"i": ["1", "1", "1", "1"]}}, "data_format": {"s": "TkhXQw=="}, "use_cudnn_on_gpu": {"b": true}, "strides": {"list": {"i": ["1", "1", "1", "1"]}}, "padding": {"s": "U0FNRQ=="}, "explicit_paddings": {"list": {}}}}, {"name": "model/tfc3_2/sequential_6/tf_bottleneck_5/tf_conv_24/conv2d_24/BiasAdd", "op": "BiasAdd", "input": ["model/tfc3_2/sequential_6/tf_bottleneck_5/tf_conv_24/conv2d_24/Conv2D:output:0", "__inference_pruned_1369/model/tfc3_2/sequential_6/tf_bottleneck_5/tf_conv_24/conv2d_24/BiasAdd/ReadVariableOp:output:0"], "attr": {"T": {"type": "DT_FLOAT"}, "data_format": {"s": "TkhXQw=="}}}, {"name": "model/tfc3_2/sequential_6/tf_bottleneck_5/tf_conv_24/Sigmoid", "op": "Sigmoid", "input": ["model/tfc3_2/sequential_6/tf_bottleneck_5/tf_conv_24/conv2d_24/BiasAdd:output:0"], "attr": {"T": {"type": "DT_FLOAT"}}}, {"name": "model/tfc3_2/sequential_6/tf_bottleneck_5/tf_conv_24/mul_1", "op": "Mul", "input": ["model/tfc3_2/sequential_6/tf_bottleneck_5/tf_conv_24/conv2d_24/BiasAdd:output:0", "model/tfc3_2/sequential_6/tf_bottleneck_5/tf_conv_24/Sigmoid:y:0"], "attr": {"T": {"type": "DT_FLOAT"}}}, {"name": "model/tfc3_2/sequential_6/tf_bottleneck_5/add", "op": "AddV2", "input": ["model/tfc3_2/sequential_6/tf_bottleneck_4/add:z:0", "model/tfc3_2/sequential_6/tf_bottleneck_5/tf_conv_24/mul_1:z:0"], "attr": {"T": {"type": "DT_FLOAT"}}}, {"name": "model/tfc3_2/concat", "op": "ConcatV2", "input": ["model/tfc3_2/sequential_6/tf_bottleneck_5/add:z:0", "model/tfc3_2/tf_conv_17/mul_1:z:0", "__inference_pruned_1369/model/tfc3_2/concat/axis:output:0"], "attr": {"Tidx": {"type": "DT_INT32"}, "N": {"i": "2"}, "T": {"type": "DT_FLOAT"}}}, {"name": "model/tfc3_2/tf_conv_18/conv2d_18/Conv2D", "op": "Conv2D", "input": ["model/tfc3_2/concat:output:0", "__inference_pruned_1369/model/tfc3_2/tf_conv_18/conv2d_18/Conv2D/ReadVariableOp:output:0"], "attr": {"explicit_paddings": {"list": {}}, "data_format": {"s": "TkhXQw=="}, "dilations": {"list": {"i": ["1", "1", "1", "1"]}}, "T": {"type": "DT_FLOAT"}, "padding": {"s": "U0FNRQ=="}, "use_cudnn_on_gpu": {"b": true}, "strides": {"list": {"i": ["1", "1", "1", "1"]}}}}, {"name": "model/tfc3_2/tf_conv_18/conv2d_18/BiasAdd", "op": "BiasAdd", "input": ["model/tfc3_2/tf_conv_18/conv2d_18/Conv2D:output:0", "__inference_pruned_1369/model/tfc3_2/tf_conv_18/conv2d_18/BiasAdd/ReadVariableOp:output:0"], "attr": {"T": {"type": "DT_FLOAT"}, "data_format": {"s": "TkhXQw=="}}}, {"name": "model/tfc3_2/tf_conv_18/Sigmoid", "op": "Sigmoid", "input": ["model/tfc3_2/tf_conv_18/conv2d_18/BiasAdd:output:0"], "attr": {"T": {"type": "DT_FLOAT"}}}, {"name": "model/tfc3_2/tf_conv_18/mul_1", "op": "Mul", "input": ["model/tfc3_2/tf_conv_18/conv2d_18/BiasAdd:output:0", "model/tfc3_2/tf_conv_18/Sigmoid:y:0"], "attr": {"T": {"type": "DT_FLOAT"}}}, {"name": "model/tf_conv_25/sequential_7/tf_pad_4/Pad", "op": "Pad", "input": ["model/tfc3_2/tf_conv_18/mul_1:z:0", "__inference_pruned_1369/model/tf_conv_25/sequential_7/tf_pad_4/Pad/paddings:output:0"], "attr": {"T": {"type": "DT_FLOAT"}, "Tpaddings": {"type": "DT_INT32"}}}, {"name": "model/tf_conv_25/sequential_7/conv2d_25/Conv2D", "op": "Conv2D", "input": ["model/tf_conv_25/sequential_7/tf_pad_4/Pad:output:0", "__inference_pruned_1369/model/tf_conv_25/sequential_7/conv2d_25/Conv2D/ReadVariableOp:output:0"], "attr": {"strides": {"list": {"i": ["1", "2", "2", "1"]}}, "padding": {"s": "VkFMSUQ="}, "data_format": {"s": "TkhXQw=="}, "dilations": {"list": {"i": ["1", "1", "1", "1"]}}, "use_cudnn_on_gpu": {"b": true}, "T": {"type": "DT_FLOAT"}, "explicit_paddings": {"list": {}}}}, {"name": "model/tf_conv_25/sequential_7/conv2d_25/BiasAdd", "op": "BiasAdd", "input": ["model/tf_conv_25/sequential_7/conv2d_25/Conv2D:output:0", "__inference_pruned_1369/model/tf_conv_25/sequential_7/conv2d_25/BiasAdd/ReadVariableOp:output:0"], "attr": {"data_format": {"s": "TkhXQw=="}, "T": {"type": "DT_FLOAT"}}}, {"name": "model/tf_conv_25/Sigmoid", "op": "Sigmoid", "input": ["model/tf_conv_25/sequential_7/conv2d_25/BiasAdd:output:0"], "attr": {"T": {"type": "DT_FLOAT"}}}, {"name": "model/tf_conv_25/mul_1", "op": "Mul", "input": ["model/tf_conv_25/sequential_7/conv2d_25/BiasAdd:output:0", "model/tf_conv_25/Sigmoid:y:0"], "attr": {"T": {"type": "DT_FLOAT"}}}, {"name": "model/tfc3_3/tf_conv_26/conv2d_26/Conv2D", "op": "Conv2D", "input": ["model/tf_conv_25/mul_1:z:0", "__inference_pruned_1369/model/tfc3_3/tf_conv_26/conv2d_26/Conv2D/ReadVariableOp:output:0"], "attr": {"T": {"type": "DT_FLOAT"}, "padding": {"s": "U0FNRQ=="}, "explicit_paddings": {"list": {}}, "data_format": {"s": "TkhXQw=="}, "strides": {"list": {"i": ["1", "1", "1", "1"]}}, "dilations": {"list": {"i": ["1", "1", "1", "1"]}}, "use_cudnn_on_gpu": {"b": true}}}, {"name": "model/tfc3_3/tf_conv_27/conv2d_27/Conv2D", "op": "Conv2D", "input": ["model/tf_conv_25/mul_1:z:0", "__inference_pruned_1369/model/tfc3_3/tf_conv_27/conv2d_27/Conv2D/ReadVariableOp:output:0"], "attr": {"strides": {"list": {"i": ["1", "1", "1", "1"]}}, "padding": {"s": "U0FNRQ=="}, "dilations": {"list": {"i": ["1", "1", "1", "1"]}}, "data_format": {"s": "TkhXQw=="}, "use_cudnn_on_gpu": {"b": true}, "T": {"type": "DT_FLOAT"}, "explicit_paddings": {"list": {}}}}, {"name": "model/tfc3_3/tf_conv_26/conv2d_26/BiasAdd", "op": "BiasAdd", "input": ["model/tfc3_3/tf_conv_26/conv2d_26/Conv2D:output:0", "__inference_pruned_1369/model/tfc3_3/tf_conv_26/conv2d_26/BiasAdd/ReadVariableOp:output:0"], "attr": {"data_format": {"s": "TkhXQw=="}, "T": {"type": "DT_FLOAT"}}}, {"name": "model/tfc3_3/tf_conv_27/conv2d_27/BiasAdd", "op": "BiasAdd", "input": ["model/tfc3_3/tf_conv_27/conv2d_27/Conv2D:output:0", "__inference_pruned_1369/model/tfc3_3/tf_conv_27/conv2d_27/BiasAdd/ReadVariableOp:output:0"], "attr": {"T": {"type": "DT_FLOAT"}, "data_format": {"s": "TkhXQw=="}}}, {"name": "model/tfc3_3/tf_conv_26/Sigmoid", "op": "Sigmoid", "input": ["model/tfc3_3/tf_conv_26/conv2d_26/BiasAdd:output:0"], "attr": {"T": {"type": "DT_FLOAT"}}}, {"name": "model/tfc3_3/tf_conv_27/Sigmoid", "op": "Sigmoid", "input": ["model/tfc3_3/tf_conv_27/conv2d_27/BiasAdd:output:0"], "attr": {"T": {"type": "DT_FLOAT"}}}, {"name": "model/tfc3_3/tf_conv_26/mul_1", "op": "Mul", "input": ["model/tfc3_3/tf_conv_26/conv2d_26/BiasAdd:output:0", "model/tfc3_3/tf_conv_26/Sigmoid:y:0"], "attr": {"T": {"type": "DT_FLOAT"}}}, {"name": "model/tfc3_3/tf_conv_27/mul_1", "op": "Mul", "input": ["model/tfc3_3/tf_conv_27/conv2d_27/BiasAdd:output:0", "model/tfc3_3/tf_conv_27/Sigmoid:y:0"], "attr": {"T": {"type": "DT_FLOAT"}}}, {"name": "model/tfc3_3/sequential_8/tf_bottleneck_6/tf_conv_29/conv2d_29/Conv2D", "op": "Conv2D", "input": ["model/tfc3_3/tf_conv_26/mul_1:z:0", "__inference_pruned_1369/model/tfc3_3/sequential_8/tf_bottleneck_6/tf_conv_29/conv2d_29/Conv2D/ReadVariableOp:output:0"], "attr": {"dilations": {"list": {"i": ["1", "1", "1", "1"]}}, "use_cudnn_on_gpu": {"b": true}, "explicit_paddings": {"list": {}}, "strides": {"list": {"i": ["1", "1", "1", "1"]}}, "T": {"type": "DT_FLOAT"}, "data_format": {"s": "TkhXQw=="}, "padding": {"s": "U0FNRQ=="}}}, {"name": "model/tfc3_3/sequential_8/tf_bottleneck_6/tf_conv_29/conv2d_29/BiasAdd", "op": "BiasAdd", "input": ["model/tfc3_3/sequential_8/tf_bottleneck_6/tf_conv_29/conv2d_29/Conv2D:output:0", "__inference_pruned_1369/model/tfc3_3/sequential_8/tf_bottleneck_6/tf_conv_29/conv2d_29/BiasAdd/ReadVariableOp:output:0"], "attr": {"data_format": {"s": "TkhXQw=="}, "T": {"type": "DT_FLOAT"}}}, {"name": "model/tfc3_3/sequential_8/tf_bottleneck_6/tf_conv_29/Sigmoid", "op": "Sigmoid", "input": ["model/tfc3_3/sequential_8/tf_bottleneck_6/tf_conv_29/conv2d_29/BiasAdd:output:0"], "attr": {"T": {"type": "DT_FLOAT"}}}, {"name": "model/tfc3_3/sequential_8/tf_bottleneck_6/tf_conv_29/mul_1", "op": "Mul", "input": ["model/tfc3_3/sequential_8/tf_bottleneck_6/tf_conv_29/conv2d_29/BiasAdd:output:0", "model/tfc3_3/sequential_8/tf_bottleneck_6/tf_conv_29/Sigmoid:y:0"], "attr": {"T": {"type": "DT_FLOAT"}}}, {"name": "model/tfc3_3/sequential_8/tf_bottleneck_6/tf_conv_30/conv2d_30/Conv2D", "op": "Conv2D", "input": ["model/tfc3_3/sequential_8/tf_bottleneck_6/tf_conv_29/mul_1:z:0", "__inference_pruned_1369/model/tfc3_3/sequential_8/tf_bottleneck_6/tf_conv_30/conv2d_30/Conv2D/ReadVariableOp:output:0"], "attr": {"explicit_paddings": {"list": {}}, "strides": {"list": {"i": ["1", "1", "1", "1"]}}, "data_format": {"s": "TkhXQw=="}, "dilations": {"list": {"i": ["1", "1", "1", "1"]}}, "T": {"type": "DT_FLOAT"}, "padding": {"s": "U0FNRQ=="}, "use_cudnn_on_gpu": {"b": true}}}, {"name": "model/tfc3_3/sequential_8/tf_bottleneck_6/tf_conv_30/conv2d_30/BiasAdd", "op": "BiasAdd", "input": ["model/tfc3_3/sequential_8/tf_bottleneck_6/tf_conv_30/conv2d_30/Conv2D:output:0", "__inference_pruned_1369/model/tfc3_3/sequential_8/tf_bottleneck_6/tf_conv_30/conv2d_30/BiasAdd/ReadVariableOp:output:0"], "attr": {"T": {"type": "DT_FLOAT"}, "data_format": {"s": "TkhXQw=="}}}, {"name": "model/tfc3_3/sequential_8/tf_bottleneck_6/tf_conv_30/Sigmoid", "op": "Sigmoid", "input": ["model/tfc3_3/sequential_8/tf_bottleneck_6/tf_conv_30/conv2d_30/BiasAdd:output:0"], "attr": {"T": {"type": "DT_FLOAT"}}}, {"name": "model/tfc3_3/sequential_8/tf_bottleneck_6/tf_conv_30/mul_1", "op": "Mul", "input": ["model/tfc3_3/sequential_8/tf_bottleneck_6/tf_conv_30/conv2d_30/BiasAdd:output:0", "model/tfc3_3/sequential_8/tf_bottleneck_6/tf_conv_30/Sigmoid:y:0"], "attr": {"T": {"type": "DT_FLOAT"}}}, {"name": "model/tfc3_3/sequential_8/tf_bottleneck_6/add", "op": "AddV2", "input": ["model/tfc3_3/tf_conv_26/mul_1:z:0", "model/tfc3_3/sequential_8/tf_bottleneck_6/tf_conv_30/mul_1:z:0"], "attr": {"T": {"type": "DT_FLOAT"}}}, {"name": "model/tfc3_3/concat", "op": "ConcatV2", "input": ["model/tfc3_3/sequential_8/tf_bottleneck_6/add:z:0", "model/tfc3_3/tf_conv_27/mul_1:z:0", "__inference_pruned_1369/model/tfc3_3/concat/axis:output:0"], "attr": {"N": {"i": "2"}, "T": {"type": "DT_FLOAT"}, "Tidx": {"type": "DT_INT32"}}}, {"name": "model/tfc3_3/tf_conv_28/conv2d_28/Conv2D", "op": "Conv2D", "input": ["model/tfc3_3/concat:output:0", "__inference_pruned_1369/model/tfc3_3/tf_conv_28/conv2d_28/Conv2D/ReadVariableOp:output:0"], "attr": {"T": {"type": "DT_FLOAT"}, "explicit_paddings": {"list": {}}, "padding": {"s": "U0FNRQ=="}, "dilations": {"list": {"i": ["1", "1", "1", "1"]}}, "data_format": {"s": "TkhXQw=="}, "strides": {"list": {"i": ["1", "1", "1", "1"]}}, "use_cudnn_on_gpu": {"b": true}}}, {"name": "model/tfc3_3/tf_conv_28/conv2d_28/BiasAdd", "op": "BiasAdd", "input": ["model/tfc3_3/tf_conv_28/conv2d_28/Conv2D:output:0", "__inference_pruned_1369/model/tfc3_3/tf_conv_28/conv2d_28/BiasAdd/ReadVariableOp:output:0"], "attr": {"T": {"type": "DT_FLOAT"}, "data_format": {"s": "TkhXQw=="}}}, {"name": "model/tfc3_3/tf_conv_28/Sigmoid", "op": "Sigmoid", "input": ["model/tfc3_3/tf_conv_28/conv2d_28/BiasAdd:output:0"], "attr": {"T": {"type": "DT_FLOAT"}}}, {"name": "model/tfc3_3/tf_conv_28/mul_1", "op": "Mul", "input": ["model/tfc3_3/tf_conv_28/conv2d_28/BiasAdd:output:0", "model/tfc3_3/tf_conv_28/Sigmoid:y:0"], "attr": {"T": {"type": "DT_FLOAT"}}}, {"name": "model/tfsppf/tf_conv_31/conv2d_31/Conv2D", "op": "Conv2D", "input": ["model/tfc3_3/tf_conv_28/mul_1:z:0", "__inference_pruned_1369/model/tfsppf/tf_conv_31/conv2d_31/Conv2D/ReadVariableOp:output:0"], "attr": {"strides": {"list": {"i": ["1", "1", "1", "1"]}}, "explicit_paddings": {"list": {}}, "dilations": {"list": {"i": ["1", "1", "1", "1"]}}, "data_format": {"s": "TkhXQw=="}, "T": {"type": "DT_FLOAT"}, "use_cudnn_on_gpu": {"b": true}, "padding": {"s": "U0FNRQ=="}}}, {"name": "model/tfsppf/tf_conv_31/conv2d_31/BiasAdd", "op": "BiasAdd", "input": ["model/tfsppf/tf_conv_31/conv2d_31/Conv2D:output:0", "__inference_pruned_1369/model/tfsppf/tf_conv_31/conv2d_31/BiasAdd/ReadVariableOp:output:0"], "attr": {"data_format": {"s": "TkhXQw=="}, "T": {"type": "DT_FLOAT"}}}, {"name": "model/tfsppf/tf_conv_31/Sigmoid", "op": "Sigmoid", "input": ["model/tfsppf/tf_conv_31/conv2d_31/BiasAdd:output:0"], "attr": {"T": {"type": "DT_FLOAT"}}}, {"name": "model/tfsppf/tf_conv_31/mul_1", "op": "Mul", "input": ["model/tfsppf/tf_conv_31/conv2d_31/BiasAdd:output:0", "model/tfsppf/tf_conv_31/Sigmoid:y:0"], "attr": {"T": {"type": "DT_FLOAT"}}}, {"name": "model/tfsppf/max_pooling2d/MaxPool", "op": "MaxPool", "input": ["model/tfsppf/tf_conv_31/mul_1:z:0"], "attr": {"strides": {"list": {"i": ["1", "1", "1", "1"]}}, "ksize": {"list": {"i": ["1", "5", "5", "1"]}}, "data_format": {"s": "TkhXQw=="}, "padding": {"s": "U0FNRQ=="}, "T": {"type": "DT_FLOAT"}, "explicit_paddings": {"list": {}}}}, {"name": "model/tfsppf/max_pooling2d/MaxPool_1", "op": "MaxPool", "input": ["model/tfsppf/max_pooling2d/MaxPool:output:0"], "attr": {"padding": {"s": "U0FNRQ=="}, "data_format": {"s": "TkhXQw=="}, "T": {"type": "DT_FLOAT"}, "strides": {"list": {"i": ["1", "1", "1", "1"]}}, "ksize": {"list": {"i": ["1", "5", "5", "1"]}}, "explicit_paddings": {"list": {}}}}, {"name": "model/tfsppf/max_pooling2d/MaxPool_2", "op": "MaxPool", "input": ["model/tfsppf/max_pooling2d/MaxPool_1:output:0"], "attr": {"ksize": {"list": {"i": ["1", "5", "5", "1"]}}, "strides": {"list": {"i": ["1", "1", "1", "1"]}}, "padding": {"s": "U0FNRQ=="}, "data_format": {"s": "TkhXQw=="}, "explicit_paddings": {"list": {}}, "T": {"type": "DT_FLOAT"}}}, {"name": "model/tfsppf/concat", "op": "ConcatV2", "input": ["model/tfsppf/tf_conv_31/mul_1:z:0", "model/tfsppf/max_pooling2d/MaxPool:output:0", "model/tfsppf/max_pooling2d/MaxPool_1:output:0", "model/tfsppf/max_pooling2d/MaxPool_2:output:0", "__inference_pruned_1369/model/tfsppf/concat/axis:output:0"], "attr": {"N": {"i": "4"}, "T": {"type": "DT_FLOAT"}, "Tidx": {"type": "DT_INT32"}}}, {"name": "model/tfsppf/tf_conv_32/conv2d_32/Conv2D", "op": "Conv2D", "input": ["model/tfsppf/concat:output:0", "__inference_pruned_1369/model/tfsppf/tf_conv_32/conv2d_32/Conv2D/ReadVariableOp:output:0"], "attr": {"use_cudnn_on_gpu": {"b": true}, "T": {"type": "DT_FLOAT"}, "explicit_paddings": {"list": {}}, "data_format": {"s": "TkhXQw=="}, "strides": {"list": {"i": ["1", "1", "1", "1"]}}, "dilations": {"list": {"i": ["1", "1", "1", "1"]}}, "padding": {"s": "U0FNRQ=="}}}, {"name": "model/tfsppf/tf_conv_32/conv2d_32/BiasAdd", "op": "BiasAdd", "input": ["model/tfsppf/tf_conv_32/conv2d_32/Conv2D:output:0", "__inference_pruned_1369/model/tfsppf/tf_conv_32/conv2d_32/BiasAdd/ReadVariableOp:output:0"], "attr": {"T": {"type": "DT_FLOAT"}, "data_format": {"s": "TkhXQw=="}}}, {"name": "model/tfsppf/tf_conv_32/Sigmoid", "op": "Sigmoid", "input": ["model/tfsppf/tf_conv_32/conv2d_32/BiasAdd:output:0"], "attr": {"T": {"type": "DT_FLOAT"}}}, {"name": "model/tfsppf/tf_conv_32/mul_1", "op": "Mul", "input": ["model/tfsppf/tf_conv_32/conv2d_32/BiasAdd:output:0", "model/tfsppf/tf_conv_32/Sigmoid:y:0"], "attr": {"T": {"type": "DT_FLOAT"}}}, {"name": "model/tf_conv_33/conv2d_33/Conv2D", "op": "Conv2D", "input": ["model/tfsppf/tf_conv_32/mul_1:z:0", "__inference_pruned_1369/model/tf_conv_33/conv2d_33/Conv2D/ReadVariableOp:output:0"], "attr": {"strides": {"list": {"i": ["1", "1", "1", "1"]}}, "padding": {"s": "U0FNRQ=="}, "data_format": {"s": "TkhXQw=="}, "dilations": {"list": {"i": ["1", "1", "1", "1"]}}, "use_cudnn_on_gpu": {"b": true}, "T": {"type": "DT_FLOAT"}, "explicit_paddings": {"list": {}}}}, {"name": "model/tf_conv_33/conv2d_33/BiasAdd", "op": "BiasAdd", "input": ["model/tf_conv_33/conv2d_33/Conv2D:output:0", "__inference_pruned_1369/model/tf_conv_33/conv2d_33/BiasAdd/ReadVariableOp:output:0"], "attr": {"data_format": {"s": "TkhXQw=="}, "T": {"type": "DT_FLOAT"}}}, {"name": "model/tf_conv_33/Sigmoid", "op": "Sigmoid", "input": ["model/tf_conv_33/conv2d_33/BiasAdd:output:0"], "attr": {"T": {"type": "DT_FLOAT"}}}, {"name": "model/tf_conv_33/mul_1", "op": "Mul", "input": ["model/tf_conv_33/conv2d_33/BiasAdd:output:0", "model/tf_conv_33/Sigmoid:y:0"], "attr": {"T": {"type": "DT_FLOAT"}}}, {"name": "model/tf_upsample/resize/ResizeNearestNeighbor", "op": "ResizeNearestNeighbor", "input": ["model/tf_conv_33/mul_1:z:0", "__inference_pruned_1369/model/tf_upsample/resize/size:output:0"], "attr": {"T": {"type": "DT_FLOAT"}, "half_pixel_centers": {"b": true}, "align_corners": {"b": false}}}, {"name": "model/tf_concat/concat", "op": "ConcatV2", "input": ["model/tf_upsample/resize/ResizeNearestNeighbor:resized_images:0", "model/tfc3_2/tf_conv_18/mul_1:z:0", "__inference_pruned_1369/model/tf_concat/concat/axis:output:0"], "attr": {"N": {"i": "2"}, "Tidx": {"type": "DT_INT32"}, "T": {"type": "DT_FLOAT"}}}, {"name": "model/tfc3_4/tf_conv_34/conv2d_34/Conv2D", "op": "Conv2D", "input": ["model/tf_concat/concat:output:0", "__inference_pruned_1369/model/tfc3_4/tf_conv_34/conv2d_34/Conv2D/ReadVariableOp:output:0"], "attr": {"explicit_paddings": {"list": {}}, "data_format": {"s": "TkhXQw=="}, "padding": {"s": "U0FNRQ=="}, "dilations": {"list": {"i": ["1", "1", "1", "1"]}}, "strides": {"list": {"i": ["1", "1", "1", "1"]}}, "T": {"type": "DT_FLOAT"}, "use_cudnn_on_gpu": {"b": true}}}, {"name": "model/tfc3_4/tf_conv_35/conv2d_35/Conv2D", "op": "Conv2D", "input": ["model/tf_concat/concat:output:0", "__inference_pruned_1369/model/tfc3_4/tf_conv_35/conv2d_35/Conv2D/ReadVariableOp:output:0"], "attr": {"strides": {"list": {"i": ["1", "1", "1", "1"]}}, "data_format": {"s": "TkhXQw=="}, "dilations": {"list": {"i": ["1", "1", "1", "1"]}}, "use_cudnn_on_gpu": {"b": true}, "T": {"type": "DT_FLOAT"}, "padding": {"s": "U0FNRQ=="}, "explicit_paddings": {"list": {}}}}, {"name": "model/tfc3_4/tf_conv_34/conv2d_34/BiasAdd", "op": "BiasAdd", "input": ["model/tfc3_4/tf_conv_34/conv2d_34/Conv2D:output:0", "__inference_pruned_1369/model/tfc3_4/tf_conv_34/conv2d_34/BiasAdd/ReadVariableOp:output:0"], "attr": {"data_format": {"s": "TkhXQw=="}, "T": {"type": "DT_FLOAT"}}}, {"name": "model/tfc3_4/tf_conv_35/conv2d_35/BiasAdd", "op": "BiasAdd", "input": ["model/tfc3_4/tf_conv_35/conv2d_35/Conv2D:output:0", "__inference_pruned_1369/model/tfc3_4/tf_conv_35/conv2d_35/BiasAdd/ReadVariableOp:output:0"], "attr": {"T": {"type": "DT_FLOAT"}, "data_format": {"s": "TkhXQw=="}}}, {"name": "model/tfc3_4/tf_conv_34/Sigmoid", "op": "Sigmoid", "input": ["model/tfc3_4/tf_conv_34/conv2d_34/BiasAdd:output:0"], "attr": {"T": {"type": "DT_FLOAT"}}}, {"name": "model/tfc3_4/tf_conv_35/Sigmoid", "op": "Sigmoid", "input": ["model/tfc3_4/tf_conv_35/conv2d_35/BiasAdd:output:0"], "attr": {"T": {"type": "DT_FLOAT"}}}, {"name": "model/tfc3_4/tf_conv_34/mul_1", "op": "Mul", "input": ["model/tfc3_4/tf_conv_34/conv2d_34/BiasAdd:output:0", "model/tfc3_4/tf_conv_34/Sigmoid:y:0"], "attr": {"T": {"type": "DT_FLOAT"}}}, {"name": "model/tfc3_4/tf_conv_35/mul_1", "op": "Mul", "input": ["model/tfc3_4/tf_conv_35/conv2d_35/BiasAdd:output:0", "model/tfc3_4/tf_conv_35/Sigmoid:y:0"], "attr": {"T": {"type": "DT_FLOAT"}}}, {"name": "model/tfc3_4/sequential_9/tf_bottleneck_7/tf_conv_37/conv2d_37/Conv2D", "op": "Conv2D", "input": ["model/tfc3_4/tf_conv_34/mul_1:z:0", "__inference_pruned_1369/model/tfc3_4/sequential_9/tf_bottleneck_7/tf_conv_37/conv2d_37/Conv2D/ReadVariableOp:output:0"], "attr": {"padding": {"s": "U0FNRQ=="}, "data_format": {"s": "TkhXQw=="}, "explicit_paddings": {"list": {}}, "dilations": {"list": {"i": ["1", "1", "1", "1"]}}, "use_cudnn_on_gpu": {"b": true}, "T": {"type": "DT_FLOAT"}, "strides": {"list": {"i": ["1", "1", "1", "1"]}}}}, {"name": "model/tfc3_4/sequential_9/tf_bottleneck_7/tf_conv_37/conv2d_37/BiasAdd", "op": "BiasAdd", "input": ["model/tfc3_4/sequential_9/tf_bottleneck_7/tf_conv_37/conv2d_37/Conv2D:output:0", "__inference_pruned_1369/model/tfc3_4/sequential_9/tf_bottleneck_7/tf_conv_37/conv2d_37/BiasAdd/ReadVariableOp:output:0"], "attr": {"data_format": {"s": "TkhXQw=="}, "T": {"type": "DT_FLOAT"}}}, {"name": "model/tfc3_4/sequential_9/tf_bottleneck_7/tf_conv_37/Sigmoid", "op": "Sigmoid", "input": ["model/tfc3_4/sequential_9/tf_bottleneck_7/tf_conv_37/conv2d_37/BiasAdd:output:0"], "attr": {"T": {"type": "DT_FLOAT"}}}, {"name": "model/tfc3_4/sequential_9/tf_bottleneck_7/tf_conv_37/mul_1", "op": "Mul", "input": ["model/tfc3_4/sequential_9/tf_bottleneck_7/tf_conv_37/conv2d_37/BiasAdd:output:0", "model/tfc3_4/sequential_9/tf_bottleneck_7/tf_conv_37/Sigmoid:y:0"], "attr": {"T": {"type": "DT_FLOAT"}}}, {"name": "model/tfc3_4/sequential_9/tf_bottleneck_7/tf_conv_38/conv2d_38/Conv2D", "op": "Conv2D", "input": ["model/tfc3_4/sequential_9/tf_bottleneck_7/tf_conv_37/mul_1:z:0", "__inference_pruned_1369/model/tfc3_4/sequential_9/tf_bottleneck_7/tf_conv_38/conv2d_38/Conv2D/ReadVariableOp:output:0"], "attr": {"padding": {"s": "U0FNRQ=="}, "use_cudnn_on_gpu": {"b": true}, "strides": {"list": {"i": ["1", "1", "1", "1"]}}, "T": {"type": "DT_FLOAT"}, "explicit_paddings": {"list": {}}, "data_format": {"s": "TkhXQw=="}, "dilations": {"list": {"i": ["1", "1", "1", "1"]}}}}, {"name": "model/tfc3_4/sequential_9/tf_bottleneck_7/tf_conv_38/conv2d_38/BiasAdd", "op": "BiasAdd", "input": ["model/tfc3_4/sequential_9/tf_bottleneck_7/tf_conv_38/conv2d_38/Conv2D:output:0", "__inference_pruned_1369/model/tfc3_4/sequential_9/tf_bottleneck_7/tf_conv_38/conv2d_38/BiasAdd/ReadVariableOp:output:0"], "attr": {"data_format": {"s": "TkhXQw=="}, "T": {"type": "DT_FLOAT"}}}, {"name": "model/tfc3_4/sequential_9/tf_bottleneck_7/tf_conv_38/Sigmoid", "op": "Sigmoid", "input": ["model/tfc3_4/sequential_9/tf_bottleneck_7/tf_conv_38/conv2d_38/BiasAdd:output:0"], "attr": {"T": {"type": "DT_FLOAT"}}}, {"name": "model/tfc3_4/sequential_9/tf_bottleneck_7/tf_conv_38/mul_1", "op": "Mul", "input": ["model/tfc3_4/sequential_9/tf_bottleneck_7/tf_conv_38/conv2d_38/BiasAdd:output:0", "model/tfc3_4/sequential_9/tf_bottleneck_7/tf_conv_38/Sigmoid:y:0"], "attr": {"T": {"type": "DT_FLOAT"}}}, {"name": "model/tfc3_4/concat", "op": "ConcatV2", "input": ["model/tfc3_4/sequential_9/tf_bottleneck_7/tf_conv_38/mul_1:z:0", "model/tfc3_4/tf_conv_35/mul_1:z:0", "__inference_pruned_1369/model/tfc3_4/concat/axis:output:0"], "attr": {"N": {"i": "2"}, "T": {"type": "DT_FLOAT"}, "Tidx": {"type": "DT_INT32"}}}, {"name": "model/tfc3_4/tf_conv_36/conv2d_36/Conv2D", "op": "Conv2D", "input": ["model/tfc3_4/concat:output:0", "__inference_pruned_1369/model/tfc3_4/tf_conv_36/conv2d_36/Conv2D/ReadVariableOp:output:0"], "attr": {"padding": {"s": "U0FNRQ=="}, "T": {"type": "DT_FLOAT"}, "explicit_paddings": {"list": {}}, "strides": {"list": {"i": ["1", "1", "1", "1"]}}, "data_format": {"s": "TkhXQw=="}, "dilations": {"list": {"i": ["1", "1", "1", "1"]}}, "use_cudnn_on_gpu": {"b": true}}}, {"name": "model/tfc3_4/tf_conv_36/conv2d_36/BiasAdd", "op": "BiasAdd", "input": ["model/tfc3_4/tf_conv_36/conv2d_36/Conv2D:output:0", "__inference_pruned_1369/model/tfc3_4/tf_conv_36/conv2d_36/BiasAdd/ReadVariableOp:output:0"], "attr": {"data_format": {"s": "TkhXQw=="}, "T": {"type": "DT_FLOAT"}}}, {"name": "model/tfc3_4/tf_conv_36/Sigmoid", "op": "Sigmoid", "input": ["model/tfc3_4/tf_conv_36/conv2d_36/BiasAdd:output:0"], "attr": {"T": {"type": "DT_FLOAT"}}}, {"name": "model/tfc3_4/tf_conv_36/mul_1", "op": "Mul", "input": ["model/tfc3_4/tf_conv_36/conv2d_36/BiasAdd:output:0", "model/tfc3_4/tf_conv_36/Sigmoid:y:0"], "attr": {"T": {"type": "DT_FLOAT"}}}, {"name": "model/tf_conv_39/conv2d_39/Conv2D", "op": "Conv2D", "input": ["model/tfc3_4/tf_conv_36/mul_1:z:0", "__inference_pruned_1369/model/tf_conv_39/conv2d_39/Conv2D/ReadVariableOp:output:0"], "attr": {"strides": {"list": {"i": ["1", "1", "1", "1"]}}, "explicit_paddings": {"list": {}}, "T": {"type": "DT_FLOAT"}, "dilations": {"list": {"i": ["1", "1", "1", "1"]}}, "data_format": {"s": "TkhXQw=="}, "padding": {"s": "U0FNRQ=="}, "use_cudnn_on_gpu": {"b": true}}}, {"name": "model/tf_conv_39/conv2d_39/BiasAdd", "op": "BiasAdd", "input": ["model/tf_conv_39/conv2d_39/Conv2D:output:0", "__inference_pruned_1369/model/tf_conv_39/conv2d_39/BiasAdd/ReadVariableOp:output:0"], "attr": {"data_format": {"s": "TkhXQw=="}, "T": {"type": "DT_FLOAT"}}}, {"name": "model/tf_conv_39/Sigmoid", "op": "Sigmoid", "input": ["model/tf_conv_39/conv2d_39/BiasAdd:output:0"], "attr": {"T": {"type": "DT_FLOAT"}}}, {"name": "model/tf_conv_39/mul_1", "op": "Mul", "input": ["model/tf_conv_39/conv2d_39/BiasAdd:output:0", "model/tf_conv_39/Sigmoid:y:0"], "attr": {"T": {"type": "DT_FLOAT"}}}, {"name": "model/tf_upsample_1/resize/ResizeNearestNeighbor", "op": "ResizeNearestNeighbor", "input": ["model/tf_conv_39/mul_1:z:0", "__inference_pruned_1369/model/tf_upsample_1/resize/size:output:0"], "attr": {"half_pixel_centers": {"b": true}, "T": {"type": "DT_FLOAT"}, "align_corners": {"b": false}}}, {"name": "model/tf_concat_1/concat", "op": "ConcatV2", "input": ["model/tf_upsample_1/resize/ResizeNearestNeighbor:resized_images:0", "model/tfc3_1/tf_conv_10/mul_1:z:0", "__inference_pruned_1369/model/tf_concat_1/concat/axis:output:0"], "attr": {"N": {"i": "2"}, "T": {"type": "DT_FLOAT"}, "Tidx": {"type": "DT_INT32"}}}, {"name": "model/tfc3_5/tf_conv_40/conv2d_40/Conv2D", "op": "Conv2D", "input": ["model/tf_concat_1/concat:output:0", "__inference_pruned_1369/model/tfc3_5/tf_conv_40/conv2d_40/Conv2D/ReadVariableOp:output:0"], "attr": {"explicit_paddings": {"list": {}}, "dilations": {"list": {"i": ["1", "1", "1", "1"]}}, "data_format": {"s": "TkhXQw=="}, "strides": {"list": {"i": ["1", "1", "1", "1"]}}, "use_cudnn_on_gpu": {"b": true}, "padding": {"s": "U0FNRQ=="}, "T": {"type": "DT_FLOAT"}}}, {"name": "model/tfc3_5/tf_conv_41/conv2d_41/Conv2D", "op": "Conv2D", "input": ["model/tf_concat_1/concat:output:0", "__inference_pruned_1369/model/tfc3_5/tf_conv_41/conv2d_41/Conv2D/ReadVariableOp:output:0"], "attr": {"explicit_paddings": {"list": {}}, "dilations": {"list": {"i": ["1", "1", "1", "1"]}}, "data_format": {"s": "TkhXQw=="}, "padding": {"s": "U0FNRQ=="}, "use_cudnn_on_gpu": {"b": true}, "strides": {"list": {"i": ["1", "1", "1", "1"]}}, "T": {"type": "DT_FLOAT"}}}, {"name": "model/tfc3_5/tf_conv_40/conv2d_40/BiasAdd", "op": "BiasAdd", "input": ["model/tfc3_5/tf_conv_40/conv2d_40/Conv2D:output:0", "__inference_pruned_1369/model/tfc3_5/tf_conv_40/conv2d_40/BiasAdd/ReadVariableOp:output:0"], "attr": {"data_format": {"s": "TkhXQw=="}, "T": {"type": "DT_FLOAT"}}}, {"name": "model/tfc3_5/tf_conv_41/conv2d_41/BiasAdd", "op": "BiasAdd", "input": ["model/tfc3_5/tf_conv_41/conv2d_41/Conv2D:output:0", "__inference_pruned_1369/model/tfc3_5/tf_conv_41/conv2d_41/BiasAdd/ReadVariableOp:output:0"], "attr": {"T": {"type": "DT_FLOAT"}, "data_format": {"s": "TkhXQw=="}}}, {"name": "model/tfc3_5/tf_conv_40/Sigmoid", "op": "Sigmoid", "input": ["model/tfc3_5/tf_conv_40/conv2d_40/BiasAdd:output:0"], "attr": {"T": {"type": "DT_FLOAT"}}}, {"name": "model/tfc3_5/tf_conv_41/Sigmoid", "op": "Sigmoid", "input": ["model/tfc3_5/tf_conv_41/conv2d_41/BiasAdd:output:0"], "attr": {"T": {"type": "DT_FLOAT"}}}, {"name": "model/tfc3_5/tf_conv_40/mul_1", "op": "Mul", "input": ["model/tfc3_5/tf_conv_40/conv2d_40/BiasAdd:output:0", "model/tfc3_5/tf_conv_40/Sigmoid:y:0"], "attr": {"T": {"type": "DT_FLOAT"}}}, {"name": "model/tfc3_5/tf_conv_41/mul_1", "op": "Mul", "input": ["model/tfc3_5/tf_conv_41/conv2d_41/BiasAdd:output:0", "model/tfc3_5/tf_conv_41/Sigmoid:y:0"], "attr": {"T": {"type": "DT_FLOAT"}}}, {"name": "model/tfc3_5/sequential_10/tf_bottleneck_8/tf_conv_43/conv2d_43/Conv2D", "op": "Conv2D", "input": ["model/tfc3_5/tf_conv_40/mul_1:z:0", "__inference_pruned_1369/model/tfc3_5/sequential_10/tf_bottleneck_8/tf_conv_43/conv2d_43/Conv2D/ReadVariableOp:output:0"], "attr": {"dilations": {"list": {"i": ["1", "1", "1", "1"]}}, "data_format": {"s": "TkhXQw=="}, "use_cudnn_on_gpu": {"b": true}, "padding": {"s": "U0FNRQ=="}, "strides": {"list": {"i": ["1", "1", "1", "1"]}}, "T": {"type": "DT_FLOAT"}, "explicit_paddings": {"list": {}}}}, {"name": "model/tfc3_5/sequential_10/tf_bottleneck_8/tf_conv_43/conv2d_43/BiasAdd", "op": "BiasAdd", "input": ["model/tfc3_5/sequential_10/tf_bottleneck_8/tf_conv_43/conv2d_43/Conv2D:output:0", "__inference_pruned_1369/model/tfc3_5/sequential_10/tf_bottleneck_8/tf_conv_43/conv2d_43/BiasAdd/ReadVariableOp:output:0"], "attr": {"data_format": {"s": "TkhXQw=="}, "T": {"type": "DT_FLOAT"}}}, {"name": "model/tfc3_5/sequential_10/tf_bottleneck_8/tf_conv_43/Sigmoid", "op": "Sigmoid", "input": ["model/tfc3_5/sequential_10/tf_bottleneck_8/tf_conv_43/conv2d_43/BiasAdd:output:0"], "attr": {"T": {"type": "DT_FLOAT"}}}, {"name": "model/tfc3_5/sequential_10/tf_bottleneck_8/tf_conv_43/mul_1", "op": "Mul", "input": ["model/tfc3_5/sequential_10/tf_bottleneck_8/tf_conv_43/conv2d_43/BiasAdd:output:0", "model/tfc3_5/sequential_10/tf_bottleneck_8/tf_conv_43/Sigmoid:y:0"], "attr": {"T": {"type": "DT_FLOAT"}}}, {"name": "model/tfc3_5/sequential_10/tf_bottleneck_8/tf_conv_44/conv2d_44/Conv2D", "op": "Conv2D", "input": ["model/tfc3_5/sequential_10/tf_bottleneck_8/tf_conv_43/mul_1:z:0", "__inference_pruned_1369/model/tfc3_5/sequential_10/tf_bottleneck_8/tf_conv_44/conv2d_44/Conv2D/ReadVariableOp:output:0"], "attr": {"padding": {"s": "U0FNRQ=="}, "strides": {"list": {"i": ["1", "1", "1", "1"]}}, "explicit_paddings": {"list": {}}, "dilations": {"list": {"i": ["1", "1", "1", "1"]}}, "T": {"type": "DT_FLOAT"}, "data_format": {"s": "TkhXQw=="}, "use_cudnn_on_gpu": {"b": true}}}, {"name": "model/tfc3_5/sequential_10/tf_bottleneck_8/tf_conv_44/conv2d_44/BiasAdd", "op": "BiasAdd", "input": ["model/tfc3_5/sequential_10/tf_bottleneck_8/tf_conv_44/conv2d_44/Conv2D:output:0", "__inference_pruned_1369/model/tfc3_5/sequential_10/tf_bottleneck_8/tf_conv_44/conv2d_44/BiasAdd/ReadVariableOp:output:0"], "attr": {"data_format": {"s": "TkhXQw=="}, "T": {"type": "DT_FLOAT"}}}, {"name": "model/tfc3_5/sequential_10/tf_bottleneck_8/tf_conv_44/Sigmoid", "op": "Sigmoid", "input": ["model/tfc3_5/sequential_10/tf_bottleneck_8/tf_conv_44/conv2d_44/BiasAdd:output:0"], "attr": {"T": {"type": "DT_FLOAT"}}}, {"name": "model/tfc3_5/sequential_10/tf_bottleneck_8/tf_conv_44/mul_1", "op": "Mul", "input": ["model/tfc3_5/sequential_10/tf_bottleneck_8/tf_conv_44/conv2d_44/BiasAdd:output:0", "model/tfc3_5/sequential_10/tf_bottleneck_8/tf_conv_44/Sigmoid:y:0"], "attr": {"T": {"type": "DT_FLOAT"}}}, {"name": "model/tfc3_5/concat", "op": "ConcatV2", "input": ["model/tfc3_5/sequential_10/tf_bottleneck_8/tf_conv_44/mul_1:z:0", "model/tfc3_5/tf_conv_41/mul_1:z:0", "__inference_pruned_1369/model/tfc3_5/concat/axis:output:0"], "attr": {"Tidx": {"type": "DT_INT32"}, "T": {"type": "DT_FLOAT"}, "N": {"i": "2"}}}, {"name": "model/tfc3_5/tf_conv_42/conv2d_42/Conv2D", "op": "Conv2D", "input": ["model/tfc3_5/concat:output:0", "__inference_pruned_1369/model/tfc3_5/tf_conv_42/conv2d_42/Conv2D/ReadVariableOp:output:0"], "attr": {"use_cudnn_on_gpu": {"b": true}, "T": {"type": "DT_FLOAT"}, "explicit_paddings": {"list": {}}, "data_format": {"s": "TkhXQw=="}, "padding": {"s": "U0FNRQ=="}, "dilations": {"list": {"i": ["1", "1", "1", "1"]}}, "strides": {"list": {"i": ["1", "1", "1", "1"]}}}}, {"name": "model/tfc3_5/tf_conv_42/conv2d_42/BiasAdd", "op": "BiasAdd", "input": ["model/tfc3_5/tf_conv_42/conv2d_42/Conv2D:output:0", "__inference_pruned_1369/model/tfc3_5/tf_conv_42/conv2d_42/BiasAdd/ReadVariableOp:output:0"], "attr": {"data_format": {"s": "TkhXQw=="}, "T": {"type": "DT_FLOAT"}}}, {"name": "model/tfc3_5/tf_conv_42/Sigmoid", "op": "Sigmoid", "input": ["model/tfc3_5/tf_conv_42/conv2d_42/BiasAdd:output:0"], "attr": {"T": {"type": "DT_FLOAT"}}}, {"name": "model/tfc3_5/tf_conv_42/mul_1", "op": "Mul", "input": …
ostic_nms_1/agnostic_nms/while/strided_slice_1/stack:output:0", "__inference_pruned_1369/model/agnostic_nms_1/agnostic_nms/while/body/_1/model/agnostic_nms_1/agnostic_nms/while/strided_slice_1/stack_1:output:0", "__inference_pruned_1369/model/agnostic_nms_1/agnostic_nms/while/body/_1/model/agnostic_nms_1/agnostic_nms/while/strided_slice_1/stack_2:output:0"], "attr": {"T": {"type": "DT_INT32"}, "end_mask": {"i": "0"}, "new_axis_mask": {"i": "0"}, "begin_mask": {"i": "0"}, "Index": {"type": "DT_INT32"}, "ellipsis_mask": {"i": "0"}, "shrink_axis_mask": {"i": "1"}}}, {"name": "model/agnostic_nms_1/agnostic_nms/while/body/_1/model/agnostic_nms_1/agnostic_nms/while/strided_slice_2", "op": "StridedSlice", "input": ["model/agnostic_nms_1/agnostic_nms/while/body/_1/model/agnostic_nms_1/agnostic_nms/while/Shape_2:output:0", "__inference_pruned_1369/model/agnostic_nms_1/agnostic_nms/while/body/_1/model/agnostic_nms_1/agnostic_nms/while/strided_slice_2/stack:output:0", "__inference_pruned_1369/model/agnostic_nms_1/agnostic_nms/while/body/_1/model/agnostic_nms_1/agnostic_nms/while/strided_slice_2/stack_1:output:0", "__inference_pruned_1369/model/agnostic_nms_1/agnostic_nms/while/body/_1/model/agnostic_nms_1/agnostic_nms/while/strided_slice_2/stack_2:output:0"], "attr": {"end_mask": {"i": "0"}, "ellipsis_mask": {"i": "0"}, "Index": {"type": "DT_INT32"}, "T": {"type": "DT_INT32"}, "new_axis_mask": {"i": "0"}, "shrink_axis_mask": {"i": "1"}, "begin_mask": {"i": "0"}}}, {"name": "model/agnostic_nms_1/agnostic_nms/while/body/_1/model/agnostic_nms_1/agnostic_nms/while/strided_slice", "op": "StridedSlice", "input": ["model/agnostic_nms_1/agnostic_nms/while/body/_1/model/agnostic_nms_1/agnostic_nms/while/Shape:output:0", "__inference_pruned_1369/model/agnostic_nms_1/agnostic_nms/while/body/_1/model/agnostic_nms_1/agnostic_nms/while/strided_slice/stack:output:0", "__inference_pruned_1369/model/agnostic_nms_1/agnostic_nms/while/body/_1/model/agnostic_nms_1/agnostic_nms/while/strided_slice/stack_1:output:0", "__inference_pruned_1369/model/agnostic_nms_1/agnostic_nms/while/body/_1/model/agnostic_nms_1/agnostic_nms/while/strided_slice/stack_2:output:0"], "attr": {"Index": {"type": "DT_INT32"}, "ellipsis_mask": {"i": "0"}, "new_axis_mask": {"i": "0"}, "T": {"type": "DT_INT32"}, "shrink_axis_mask": {"i": "1"}, "end_mask": {"i": "0"}, "begin_mask": {"i": "0"}}}, {"name": "model/agnostic_nms_1/agnostic_nms/while/next_iteration/_51", "op": "NextIteration", "input": ["model/agnostic_nms_1/agnostic_nms/while/body/_1/model/agnostic_nms_1/agnostic_nms/while/TensorArrayV2Write_3/TensorListSetItem:output_handle:0", "^model/agnostic_nms_1/agnostic_nms/while/loop_body_control/_33"], "attr": {"T": {"type": "DT_VARIANT"}}}, {"name": "model/agnostic_nms_1/agnostic_nms/while/body/_1/model/agnostic_nms_1/agnostic_nms/while/sub_1", "op": "Sub", "input": ["__inference_pruned_1369/model/agnostic_nms_1/agnostic_nms/while/body/_1/model/agnostic_nms_1/agnostic_nms/while/sub_1/x:output:0", "model/agnostic_nms_1/agnostic_nms/while/body/_1/model/agnostic_nms_1/agnostic_nms/while/strided_slice_1:output:0"], "attr": {"T": {"type": "DT_INT32"}}}, {"name": "model/agnostic_nms_1/agnostic_nms/while/body/_1/model/agnostic_nms_1/agnostic_nms/while/sub_2", "op": "Sub", "input": ["__inference_pruned_1369/model/agnostic_nms_1/agnostic_nms/while/body/_1/model/agnostic_nms_1/agnostic_nms/while/sub_2/x:output:0", "model/agnostic_nms_1/agnostic_nms/while/body/_1/model/agnostic_nms_1/agnostic_nms/while/strided_slice_2:output:0"], "attr": {"T": {"type": "DT_INT32"}}}, {"name": "model/agnostic_nms_1/agnostic_nms/while/body/_1/model/agnostic_nms_1/agnostic_nms/while/sub", "op": "Sub", "input": ["__inference_pruned_1369/model/agnostic_nms_1/agnostic_nms/while/body/_1/model/agnostic_nms_1/agnostic_nms/while/sub/x:output:0", "model/agnostic_nms_1/agnostic_nms/while/body/_1/model/agnostic_nms_1/agnostic_nms/while/strided_slice:output:0"], "attr": {"T": {"type": "DT_INT32"}}}, {"name": "model/agnostic_nms_1/agnostic_nms/while/body/_1/model/agnostic_nms_1/agnostic_nms/while/PadV2/paddings/0", "op": "Pack", "input": ["__inference_pruned_1369/model/agnostic_nms_1/agnostic_nms/while/body/_1/model/agnostic_nms_1/agnostic_nms/while/PadV2/paddings/0/0:output:0", "model/agnostic_nms_1/agnostic_nms/while/body/_1/model/agnostic_nms_1/agnostic_nms/while/sub_1:z:0"], "attr": {"axis": {"i": "0"}, "T": {"type": "DT_INT32"}, "N": {"i": "2"}}}, {"name": "model/agnostic_nms_1/agnostic_nms/while/body/_1/model/agnostic_nms_1/agnostic_nms/while/PadV2_1/paddings/0", "op": "Pack", "input": ["__inference_pruned_1369/model/agnostic_nms_1/agnostic_nms/while/body/_1/model/agnostic_nms_1/agnostic_nms/while/PadV2_1/paddings/0/0:output:0", "model/agnostic_nms_1/agnostic_nms/while/body/_1/model/agnostic_nms_1/agnostic_nms/while/sub_2:z:0"], "attr": {"N": {"i": "2"}, "axis": {"i": "0"}, "T": {"type": "DT_INT32"}}}, {"name": "model/agnostic_nms_1/agnostic_nms/while/body/_1/model/agnostic_nms_1/agnostic_nms/while/Pad/paddings/0", "op": "Pack", "input": ["__inference_pruned_1369/model/agnostic_nms_1/agnostic_nms/while/body/_1/model/agnostic_nms_1/agnostic_nms/while/Pad/paddings/0/0:output:0", "model/agnostic_nms_1/agnostic_nms/while/body/_1/model/agnostic_nms_1/agnostic_nms/while/sub:z:0"], "attr": {"T": {"type": "DT_INT32"}, "axis": {"i": "0"}, "N": {"i": "2"}}}, {"name": "__inference_pruned_1369/ConstantFolding/model/agnostic_nms_1/agnostic_nms/while/body/_1/model/agnostic_nms_1/agnostic_nms/while/PadV2/paddings_const_axis", "op": "Const", "input": ["^model/agnostic_nms_1/agnostic_nms/while/body/_1/model/agnostic_nms_1/agnostic_nms/while/PadV2/paddings/0"], "attr": {"dtype": {"type": "DT_INT32"}, "value": {"tensor": {"dtype": "DT_INT32", "tensorShape": {}}}}}, {"name": "__inference_pruned_1369/ConstantFolding/model/agnostic_nms_1/agnostic_nms/while/body/_1/model/agnostic_nms_1/agnostic_nms/while/PadV2_1/paddings_const_axis", "op": "Const", "input": ["^model/agnostic_nms_1/agnostic_nms/while/body/_1/model/agnostic_nms_1/agnostic_nms/while/PadV2_1/paddings/0"], "attr": {"dtype": {"type": "DT_INT32"}, "value": {"tensor": {"dtype": "DT_INT32", "tensorShape": {}}}}}, {"name": "model/agnostic_nms_1/agnostic_nms/while/body/_1/model/agnostic_nms_1/agnostic_nms/while/Pad/paddings", "op": "Pack", "input": ["model/agnostic_nms_1/agnostic_nms/while/body/_1/model/agnostic_nms_1/agnostic_nms/while/Pad/paddings/0:output:0", "__inference_pruned_1369/model/agnostic_nms_1/agnostic_nms/while/body/_1/model/agnostic_nms_1/agnostic_nms/while/Pad/paddings/1_1:output:0"], "attr": {"axis": {"i": "0"}, "N": {"i": "2"}, "T": {"type": "DT_INT32"}}}, {"name": "model/agnostic_nms_1/agnostic_nms/while/body/_1/model/agnostic_nms_1/agnostic_nms/while/PadV2/paddings", "op": "ExpandDims", "input": ["model/agnostic_nms_1/agnostic_nms/while/body/_1/model/agnostic_nms_1/agnostic_nms/while/PadV2/paddings/0:output:0", "__inference_pruned_1369/ConstantFolding/model/agnostic_nms_1/agnostic_nms/while/body/_1/model/agnostic_nms_1/agnostic_nms/while/PadV2/paddings_const_axis:output:0"], "attr": {"Tdim": {"type": "DT_INT32"}, "T": {"type": "DT_INT32"}}}, {"name": "model/agnostic_nms_1/agnostic_nms/while/body/_1/model/agnostic_nms_1/agnostic_nms/while/PadV2_1/paddings", "op": "ExpandDims", "input": ["model/agnostic_nms_1/agnostic_nms/while/body/_1/model/agnostic_nms_1/agnostic_nms/while/PadV2_1/paddings/0:output:0", "__inference_pruned_1369/ConstantFolding/model/agnostic_nms_1/agnostic_nms/while/body/_1/model/agnostic_nms_1/agnostic_nms/while/PadV2_1/paddings_const_axis:output:0"], "attr": {"Tdim": {"type": "DT_INT32"}, "T": {"type": "DT_INT32"}}}, {"name": "model/agnostic_nms_1/agnostic_nms/while/body/_1/model/agnostic_nms_1/agnostic_nms/while/Pad", "op": "Pad", "input": ["model/agnostic_nms_1/agnostic_nms/while/body/_1/model/agnostic_nms_1/agnostic_nms/while/GatherV2:output:0", "model/agnostic_nms_1/agnostic_nms/while/body/_1/model/agnostic_nms_1/agnostic_nms/while/Pad/paddings:output:0"], "attr": {"Tpaddings": {"type": "DT_INT32"}, "T": {"type": "DT_FLOAT"}}}, {"name": "model/agnostic_nms_1/agnostic_nms/while/body/_1/model/agnostic_nms_1/agnostic_nms/while/PadV2", "op": "PadV2", "input": ["model/agnostic_nms_1/agnostic_nms/while/body/_1/model/agnostic_nms_1/agnostic_nms/while/GatherV2_1:output:0", "model/agnostic_nms_1/agnostic_nms/while/body/_1/model/agnostic_nms_1/agnostic_nms/while/PadV2/paddings:output:0", "__inference_pruned_1369/model/agnostic_nms_1/agnostic_nms/while/body/_1/model/agnostic_nms_1/agnostic_nms/while/PadV2/constant_values:output:0"], "attr": {"Tpaddings": {"type": "DT_INT32"}, "T": {"type": "DT_FLOAT"}}}, {"name": "model/agnostic_nms_1/agnostic_nms/while/body/_1/model/agnostic_nms_1/agnostic_nms/while/PadV2_1", "op": "PadV2", "input": ["model/agnostic_nms_1/agnostic_nms/while/body/_1/model/agnostic_nms_1/agnostic_nms/while/GatherV2_2:output:0", "model/agnostic_nms_1/agnostic_nms/while/body/_1/model/agnostic_nms_1/agnostic_nms/while/PadV2_1/paddings:output:0", "__inference_pruned_1369/model/agnostic_nms_1/agnostic_nms/while/body/_1/model/agnostic_nms_1/agnostic_nms/while/PadV2_1/constant_values:output:0"], "attr": {"T": {"type": "DT_FLOAT"}, "Tpaddings": {"type": "DT_INT32"}}}, {"name": "model/agnostic_nms_1/agnostic_nms/while/body/_1/model/agnostic_nms_1/agnostic_nms/while/TensorArrayV2Write/TensorListSetItem", "op": "TensorListSetItem", "input": ["model/agnostic_nms_1/agnostic_nms/while/model/agnostic_nms_1/agnostic_nms/TensorArrayV2_3_switch/_26:output_true:0", "Func/model/agnostic_nms_1/agnostic_nms/while/body/_1/input/_70:output:0", "model/agnostic_nms_1/agnostic_nms/while/body/_1/model/agnostic_nms_1/agnostic_nms/while/Pad:output:0"], "attr": {"element_dtype": {"type": "DT_FLOAT"}}, "experimentalType": {"typeId": "TFT_PRODUCT", "args": [{"typeId": "TFT_ARRAY", "args": [{"typeId": "TFT_TENSOR", "args": [{"typeId": "TFT_FLOAT"}]}]}]}}, {"name": "model/agnostic_nms_1/agnostic_nms/while/body/_1/model/agnostic_nms_1/agnostic_nms/while/TensorArrayV2Write_1/TensorListSetItem", "op": "TensorListSetItem", "input": ["model/agnostic_nms_1/agnostic_nms/while/model/agnostic_nms_1/agnostic_nms/TensorArrayV2_4_switch/_27:output_true:0", "Func/model/agnostic_nms_1/agnostic_nms/while/body/_1/input/_70:output:0", "model/agnostic_nms_1/agnostic_nms/while/body/_1/model/agnostic_nms_1/agnostic_nms/while/PadV2:output:0"], "attr": {"element_dtype": {"type": "DT_FLOAT"}}, "experimentalType": {"typeId": "TFT_PRODUCT", "args": [{"typeId": "TFT_ARRAY", "args": [{"typeId": "TFT_TENSOR", "args": [{"typeId": "TFT_FLOAT"}]}]}]}}, {"name": "model/agnostic_nms_1/agnostic_nms/while/body/_1/model/agnostic_nms_1/agnostic_nms/while/TensorArrayV2Write_2/TensorListSetItem", "op": "TensorListSetItem", "input": ["model/agnostic_nms_1/agnostic_nms/while/model/agnostic_nms_1/agnostic_nms/TensorArrayV2_5_switch/_28:output_true:0", "Func/model/agnostic_nms_1/agnostic_nms/while/body/_1/input/_70:output:0", "model/agnostic_nms_1/agnostic_nms/while/body/_1/model/agnostic_nms_1/agnostic_nms/while/PadV2_1:output:0"], "attr": {"element_dtype": {"type": "DT_FLOAT"}}, "experimentalType": {"typeId": "TFT_PRODUCT", "args": [{"typeId": "TFT_ARRAY", "args": [{"typeId": "TFT_TENSOR", "args": [{"typeId": "TFT_FLOAT"}]}]}]}}, {"name": "model/agnostic_nms_1/agnostic_nms/while/next_iteration/_48", "op": "NextIteration", "input": ["model/agnostic_nms_1/agnostic_nms/while/body/_1/model/agnostic_nms_1/agnostic_nms/while/TensorArrayV2Write/TensorListSetItem:output_handle:0", "^model/agnostic_nms_1/agnostic_nms/while/loop_body_control/_33"], "attr": {"T": {"type": "DT_VARIANT"}}}, {"name": "model/agnostic_nms_1/agnostic_nms/while/next_iteration/_49", "op": "NextIteration", "input": ["model/agnostic_nms_1/agnostic_nms/while/body/_1/model/agnostic_nms_1/agnostic_nms/while/TensorArrayV2Write_1/TensorListSetItem:output_handle:0", "^model/agnostic_nms_1/agnostic_nms/while/loop_body_control/_33"], "attr": {"T": {"type": "DT_VARIANT"}}}, {"name": "model/agnostic_nms_1/agnostic_nms/while/next_iteration/_50", "op": "NextIteration", "input": ["model/agnostic_nms_1/agnostic_nms/while/body/_1/model/agnostic_nms_1/agnostic_nms/while/TensorArrayV2Write_2/TensorListSetItem:output_handle:0", "^model/agnostic_nms_1/agnostic_nms/while/loop_body_control/_33"], "attr": {"T": {"type": "DT_VARIANT"}}}], "ret": {"identity": "model/agnostic_nms_1/agnostic_nms/TensorArrayV2Stack/TensorListStack:tensor:0", "identity_3": "model/agnostic_nms_1/agnostic_nms/TensorArrayV2Stack_3/TensorListStack:tensor:0", "identity_2": "model/agnostic_nms_1/agnostic_nms/TensorArrayV2Stack_2/TensorListStack:tensor:0", "identity_1": "model/agnostic_nms_1/agnostic_nms/TensorArrayV2Stack_1/TensorListStack:tensor:0"}, "attr": {"_construction_context": {"s": "a0VhZ2VyUnVudGltZQ=="}}, "argAttr": {"0": {"attr": {"_output_shapes": {"list": {"shape": [{"dim": [{"size": "1"}, {"size": "640"}, {"size": "640"}, {"size": "3"}]}]}}}}}}]}, "versions": {"producer": 1087, "minConsumer": 12}}, "weightsManifest": [{"paths": ["group1-shard1of7.bin", "group1-shard2of7.bin", "group1-shard3of7.bin", "group1-shard4of7.bin", "group1-shard5of7.bin", "group1-shard6of7.bin", "group1-shard7of7.bin"], "weights": [{"name": "__inference_pruned_1369/model/agnostic_nms_1/agnostic_nms/TensorArrayV2_4/element_shape", "shape": [], "dtype": "int32"}, {"name": "__inference_pruned_1369/model/agnostic_nms_1/agnostic_nms/TensorArrayV2_4/num_elements", "shape": [], "dtype": "int32"}, {"name": "__inference_pruned_1369/model/agnostic_nms_1/agnostic_nms/TensorArrayV2Stack_1/TensorListStack/element_shape", "shape": [1], "dtype": "int32"}, {"name": "__inference_pruned_1369/model/agnostic_nms_1/agnostic_nms/TensorArrayV2_5/element_shape", "shape": [], "dtype": "int32"}, {"name": "__inference_pruned_1369/model/agnostic_nms_1/agnostic_nms/TensorArrayV2_5/num_elements", "shape": [], "dtype": "int32"}, {"name": "__inference_pruned_1369/model/agnostic_nms_1/agnostic_nms/TensorArrayUnstack_1/TensorListFromTensor/element_shape", "shape": [2], "dtype": "int32"}, {"name": "__inference_pruned_1369/model/agnostic_nms_1/agnostic_nms/TensorArrayV2Stack_2/TensorListStack/element_shape", "shape": [1], "dtype": "int32"}, {"name": "__inference_pruned_1369/model/agnostic_nms_1/agnostic_nms/TensorArrayV2_6/element_shape", "shape": [], "dtype": "int32"}, {"name": "__inference_pruned_1369/model/agnostic_nms_1/agnostic_nms/TensorArrayV2_6/num_elements", "shape": [], "dtype": "int32"}, {"name": "__inference_pruned_1369/model/agnostic_nms_1/agnostic_nms/TensorArrayV2Stack_3/Const", "shape": [0], "dtype": "int32"}, {"name": "__inference_pruned_1369/model/agnostic_nms_1/agnostic_nms/TensorArrayV2_3/element_shape", "shape": [], "dtype": "int32"}, {"name": "__inference_pruned_1369/model/agnostic_nms_1/agnostic_nms/TensorArrayV2_3/num_elements", "shape": [], "dtype": "int32"}, {"name": "__inference_pruned_1369/ConstantFolding/model/tf.math.truediv/truediv_recip", "shape": [], "dtype": "float32"}, {"name": "__inference_pruned_1369/ConstantFolding/model/tf.math.truediv_1/truediv_recip", "shape": [], "dtype": "float32"}, {"name": "__inference_pruned_1369/ConstantFolding/model/tf.math.truediv_2/truediv_recip", "shape": [], "dtype": "float32"}, {"name": "__inference_pruned_1369/model/tf.split/split/split_dim", "shape": [], "dtype": "int32"}, {"name": "__inference_pruned_1369/model/tf.__operators__.getitem/strided_slice/stack", "shape": [2], "dtype": "int32"}, {"name": "__inference_pruned_1369/model/tf.__operators__.getitem/strided_slice/stack_1", "shape": [2], "dtype": "int32"}, {"name": "__inference_pruned_1369/model/tf.__operators__.getitem/strided_slice/stack_2", "shape": [2], "dtype": "int32"}, {"name": "__inference_pruned_1369/ConstantFolding/model/tf.math.truediv_3/truediv_recip", "shape": [], "dtype": "float32"}, {"name": "__inference_pruned_1369/model/tf.concat/concat/axis", "shape": [], "dtype": "int32"}, {"name": "__inference_pruned_1369/model/agnostic_nms_1/agnostic_nms/TensorArrayUnstack/TensorListFromTensor/element_shape", "shape": [2], "dtype": "int32"}, {"name": "__inference_pruned_1369/model/tf.__operators__.getitem_1/strided_slice/stack", "shape": [3], "dtype": "int32"}, {"name": "__inference_pruned_1369/model/tf.__operators__.getitem_1/strided_slice/stack_1", "shape": [3], "dtype": "int32"}, {"name": "__inference_pruned_1369/model/tf.__operators__.getitem_1/strided_slice/stack_2", "shape": [3], "dtype": "int32"}, {"name": "__inference_pruned_1369/model/tf_detect/strided_slice_3/stack", "shape": [2], "dtype": "int32"}, {"name": "__inference_pruned_1369/model/tf_detect/strided_slice_3/stack_1", "shape": [2], "dtype": "int32"}, {"name": "__inference_pruned_1369/model/tf_detect/strided_slice_3/stack_2", "shape": [2], "dtype": "int32"}, {"name": "__inference_pruned_1369/model/tf_detect/mul_2/y", "shape": [], "dtype": "float32"}, {"name": "__inference_pruned_1369/model/tf_detect/sub", "shape": [1, 6400, 1, 2], "dtype": "float32"}, {"name": "__inference_pruned_1369/model/tf_detect/mul_3", "shape": [1, 2], "dtype": "float32"}, {"name": "__inference_pruned_1369/model/tf_detect/strided_slice_5/stack", "shape": [2], "dtype": "int32"}, {"name": "__inference_pruned_1369/model/tf_detect/strided_slice_5/stack_1", "shape": [2], "dtype": "int32"}, {"name": "__inference_pruned_1369/model/tf_detect/strided_slice_5/stack_2", "shape": [2], "dtype": "int32"}, {"name": "__inference_pruned_1369/model/tf_detect/mul_4", "shape": [1, 1, 3, 2], "dtype": "float32"}, {"name": "__inference_pruned_1369/model/tf_detect/strided_slice_6/stack", "shape": [2], "dtype": "int32"}, {"name": "__inference_pruned_1369/model/tf_detect/strided_slice_6/stack_1", "shape": [2], "dtype": "int32"}, {"name": "__inference_pruned_1369/model/tf_detect/strided_slice_6/stack_2", "shape": [2], "dtype": "int32"}, {"name": "__inference_pruned_1369/model/tf_detect/tf_conv2d/conv2d_57/Conv2D/ReadVariableOp", "shape": [1, 1, 128, 18], "dtype": "float32"}, {"name": "__inference_pruned_1369/model/tf_detect/tf_conv2d/conv2d_57/BiasAdd/ReadVariableOp", "shape": [18], "dtype": "float32"}, {"name": "__inference_pruned_1369/model/tf_detect/Reshape/shape_1", "shape": [4], "dtype": "int32"}, {"name": "__inference_pruned_1369/model/tf_detect/strided_slice_7/stack", "shape": [2], "dtype": "int32"}, {"name": "__inference_pruned_1369/model/tf_detect/strided_slice_7/stack_1", "shape": [2], "dtype": "int32"}, {"name": "__inference_pruned_1369/model/tf_detect/strided_slice_7/stack_2", "shape": [2], "dtype": "int32"}, {"name": "__inference_pruned_1369/model/tf_detect/concat/axis", "shape": [], "dtype": "int32"}, {"name": "__inference_pruned_1369/model/tf_detect/Reshape_1/shape_1", "shape": [3], "dtype": "int32"}, {"name": "__inference_pruned_1369/model/tf_detect/strided_slice_11/stack", "shape": [2], "dtype": "int32"}, {"name": "__inference_pruned_1369/model/tf_detect/strided_slice_11/stack_1", "shape": [2], "dtype": "int32"}, {"name": "__inference_pruned_1369/model/tf_detect/strided_slice_11/stack_2", "shape": [2], "dtype": "int32"}, {"name": "__inference_pruned_1369/model/tf_detect/mul_9/y", "shape": [], "dtype": "float32"}, {"name": "__inference_pruned_1369/model/tf_detect/sub_1", "shape": [1, 1600, 1, 2], "dtype": "float32"}, {"name": "__inference_pruned_1369/model/tf_detect/mul_10", "shape": [1, 2], "dtype": "float32"}, {"name": "__inference_pruned_1369/model/tf_detect/strided_slice_13/stack", "shape": [2], "dtype": "int32"}, {"name": "__inference_pruned_1369/model/tf_detect/strided_slice_13/stack_1", "shape": [2], "dtype": "int32"}, {"name": "__inference_pruned_1369/model/tf_detect/strided_slice_13/stack_2", "shape": [2], "dtype": "int32"}, {"name": "__inference_pruned_1369/model/tf_detect/mul_11", "shape": [1, 1, 3, 2], "dtype": "float32"}, {"name": "__inference_pruned_1369/model/tf_detect/strided_slice_14/stack", "shape": [2], "dtype": "int32"}, {"name": "__inference_pruned_1369/model/tf_detect/strided_slice_14/stack_1", "shape": [2], "dtype": "int32"}, {"name": "__inference_pruned_1369/model/tf_detect/strided_slice_14/stack_2", "shape": [2], "dtype": "int32"}, {"name": "__inference_pruned_1369/model/tf_detect/tf_conv2d_1/conv2d_58/Conv2D/ReadVariableOp", "shape": [1, 1, 256, 18], "dtype": "float32"}, {"name": "__inference_pruned_1369/model/tf_detect/tf_conv2d_1/conv2d_58/BiasAdd/ReadVariableOp", "shape": [18], "dtype": "float32"}, {"name": "__inference_pruned_1369/model/tf_detect/Reshape_2/shape_1", "shape": [4], "dtype": "int32"}, {"name": "__inference_pruned_1369/model/tf_detect/strided_slice_15/stack", "shape": [2], "dtype": "int32"}, {"name": "__inference_pruned_1369/model/tf_detect/strided_slice_15/stack_1", "shape": [2], "dtype": "int32"}, {"name": "__inference_pruned_1369/model/tf_detect/strided_slice_15/stack_2", "shape": [2], "dtype": "int32"}, {"name": "__inference_pruned_1369/model/tf_detect/concat_1/axis", "shape": [], "dtype": "int32"}, {"name": "__inference_pruned_1369/model/tf_detect/Reshape_3/shape_1", "shape": [3], "dtype": "int32"}, {"name": "__inference_pruned_1369/model/tf_detect/strided_slice_19/stack", "shape": [2], "dtype": "int32"}, {"name": "__inference_pruned_1369/model/tf_detect/strided_slice_19/stack_1", "shape": [2], "dtype": "int32"}, {"name": "__inference_pruned_1369/model/tf_detect/strided_slice_19/stack_2", "shape": [2], "dtype": "int32"}, {"name": "__inference_pruned_1369/model/tf_detect/mul_16/y", "shape": [], "dtype": "float32"}, {"name": "__inference_pruned_1369/model/tf_detect/sub_2", "shape": [1, 400, 1, 2], "dtype": "float32"}, {"name": "__inference_pruned_1369/model/tf_detect/mul_17", "shape": [1, 2], "dtype": "float32"}, {"name": "__inference_pruned_1369/model/tf_detect/strided_slice_21/stack", "shape": [2], "dtype": "int32"}, {"name": "__inference_pruned_1369/model/tf_detect/strided_slice_21/stack_1", "shape": [2], "dtype": "int32"}, {"name": "__inference_pruned_1369/model/tf_detect/strided_slice_21/stack_2", "shape": [2], "dtype": "int32"}, {"name": "__inference_pruned_1369/model/tf_detect/mul_18", "shape": [1, 1, 3, 2], "dtype": "float32"}, {"name": "__inference_pruned_1369/model/tf_detect/strided_slice_22/stack", "shape": [2], "dtype": "int32"}, {"name": "__inference_pruned_1369/model/tf_detect/strided_slice_22/stack_1", "shape": [2], "dtype": "int32"}, {"name": "__inference_pruned_1369/model/tf_detect/strided_slice_22/stack_2", "shape": [2], "dtype": "int32"}, {"name": "__inference_pruned_1369/model/tfc3_7/tf_conv_52/conv2d_52/Conv2D/ReadVariableOp", "shape": [1, 1, 512, 256], "dtype": "float32"}, {"name": "__inference_pruned_1369/model/tfc3_7/tf_conv_52/conv2d_52/BiasAdd/ReadVariableOp", "shape": [256], "dtype": "float32"}, {"name": "__inference_pruned_1369/model/tfc3_7/sequential_14/tf_bottleneck_10/tf_conv_55/conv2d_55/Conv2D/ReadVariableOp", "shape": [1, 1, 256, 256], "dtype": "float32"}, {"name": "__inference_pruned_1369/model/tfc3_7/sequential_14/tf_bottleneck_10/tf_conv_55/conv2d_55/BiasAdd/ReadVariableOp", "shape": [256], "dtype": "float32"}, {"name": "__inference_pruned_1369/model/tfc3_7/sequential_14/tf_bottleneck_10/tf_conv_56/conv2d_56/Conv2D/ReadVariableOp", "shape": [3, 3, 256, 256], "dtype": "float32"}, {"name": "__inference_pruned_1369/model/tfc3_7/sequential_14/tf_bottleneck_10/tf_conv_56/conv2d_56/BiasAdd/ReadVariableOp", "shape": [256], "dtype": "float32"}, {"name": "__inference_pruned_1369/model/tfc3_6/tf_conv_46/conv2d_46/Conv2D/ReadVariableOp", "shape": [1, 1, 256, 128], "dtype": "float32"}, {"name": "__inference_pruned_1369/model/tfc3_6/tf_conv_46/conv2d_46/BiasAdd/ReadVariableOp", "shape": [128], "dtype": "float32"}, {"name": "__inference_pruned_1369/model/tfc3_6/sequential_12/tf_bottleneck_9/tf_conv_49/conv2d_49/Conv2D/ReadVariableOp", "shape": [1, 1, 128, 128], "dtype": "float32"}, {"name": "__inference_pruned_1369/model/tfc3_6/sequential_12/tf_bottleneck_9/tf_conv_49/conv2d_49/BiasAdd/ReadVariableOp", "shape": [128], "dtype": "float32"}, {"name": "__inference_pruned_1369/model/tfc3_6/sequential_12/tf_bottleneck_9/tf_conv_50/conv2d_50/Conv2D/ReadVariableOp", "shape": [3, 3, 128, 128], "dtype": "float32"}, {"name": "__inference_pruned_1369/model/tfc3_6/sequential_12/tf_bottleneck_9/tf_conv_50/conv2d_50/BiasAdd/ReadVariableOp", "shape": [128], "dtype": "float32"}, {"name": "__inference_pruned_1369/model/tfc3_5/tf_conv_40/conv2d_40/Conv2D/ReadVariableOp", "shape": [1, 1, 256, 64], "dtype": "float32"}, {"name": "__inference_pruned_1369/model/tfc3_5/tf_conv_40/conv2d_40/BiasAdd/ReadVariableOp", "shape": [64], "dtype": "float32"}, {"name": "__inference_pruned_1369/model/tfc3_5/sequential_10/tf_bottleneck_8/tf_conv_43/conv2d_43/Conv2D/ReadVariableOp", "shape": [1, 1, 64, 64], "dtype": "float32"}, {"name": "__inference_pruned_1369/model/tfc3_5/sequential_10/tf_bottleneck_8/tf_conv_43/conv2d_43/BiasAdd/ReadVariableOp", "shape": [64], "dtype": "float32"}, {"name": "__inference_pruned_1369/model/tfc3_5/sequential_10/tf_bottleneck_8/tf_conv_44/conv2d_44/Conv2D/ReadVariableOp", "shape": [3, 3, 64, 64], "dtype": "float32"}, {"name": "__inference_pruned_1369/model/tfc3_5/sequential_10/tf_bottleneck_8/tf_conv_44/conv2d_44/BiasAdd/ReadVariableOp", "shape": [64], "dtype": "float32"}, {"name": "__inference_pruned_1369/model/tf_upsample_1/resize/size", "shape": [2], "dtype": "int32"}, {"name": "__inference_pruned_1369/model/tf_concat_1/concat/axis", "shape": [], "dtype": "int32"}, {"name": "__inference_pruned_1369/model/tfc3_5/tf_conv_41/conv2d_41/Conv2D/ReadVariableOp", "shape": [1, 1, 256, 64], "dtype": "float32"}, {"name": "__inference_pruned_1369/model/tfc3_5/tf_conv_41/conv2d_41/BiasAdd/ReadVariableOp", "shape": [64], "dtype": "float32"}, {"name": "__inference_pruned_1369/model/tfc3_5/concat/axis", "shape": [], "dtype": "int32"}, {"name": "__inference_pruned_1369/model/tfc3_5/tf_conv_42/conv2d_42/Conv2D/ReadVariableOp", "shape": [1, 1, 128, 128], "dtype": "float32"}, {"name": "__inference_pruned_1369/model/tfc3_5/tf_conv_42/conv2d_42/BiasAdd/ReadVariableOp", "shape": [128], "dtype": "float32"}, {"name": "__inference_pruned_1369/model/tf_conv_45/sequential_11/tf_pad_5/Pad/paddings", "shape": [4, 2], "dtype": "int32"}, {"name": "__inference_pruned_1369/model/tf_conv_45/sequential_11/conv2d_45/Conv2D/ReadVariableOp", "shape": [3, 3, 128, 128], "dtype": "float32"}, {"name": "__inference_pruned_1369/model/tf_conv_45/sequential_11/conv2d_45/BiasAdd/ReadVariableOp", "shape": [128], "dtype": "float32"}, {"name": "__inference_pruned_1369/model/tfc3_4/tf_conv_34/conv2d_34/Conv2D/ReadVariableOp", "shape": [1, 1, 512, 128], "dtype": "float32"}, {"name": "__inference_pruned_1369/model/tfc3_4/tf_conv_34/conv2d_34/BiasAdd/ReadVariableOp", "shape": [128], "dtype": "float32"}, {"name": "__inference_pruned_1369/model/tfc3_4/sequential_9/tf_bottleneck_7/tf_conv_37/conv2d_37/Conv2D/ReadVariableOp", "shape": [1, 1, 128, 128], "dtype": "float32"}, {"name": "__inference_pruned_1369/model/tfc3_4/sequential_9/tf_bottleneck_7/tf_conv_37/conv2d_37/BiasAdd/ReadVariableOp", "shape": [128], "dtype": "float32"}, {"name": "__inference_pruned_1369/model/tfc3_4/sequential_9/tf_bottleneck_7/tf_conv_38/conv2d_38/Conv2D/ReadVariableOp", "shape": [3, 3, 128, 128], "dtype": "float32"}, {"name": "__inference_pruned_1369/model/tfc3_4/sequential_9/tf_bottleneck_7/tf_conv_38/conv2d_38/BiasAdd/ReadVariableOp", "shape": [128], "dtype": "float32"}, {"name": "__inference_pruned_1369/model/tf_upsample/resize/size", "shape": [2], "dtype": "int32"}, {"name": "__inference_pruned_1369/model/tf_concat/concat/axis", "shape": [], "dtype": "int32"}, {"name": "__inference_pruned_1369/model/tfc3_4/tf_conv_35/conv2d_35/Conv2D/ReadVariableOp", "shape": [1, 1, 512, 128], "dtype": "float32"}, {"name": "__inference_pruned_1369/model/tfc3_4/tf_conv_35/conv2d_35/BiasAdd/ReadVariableOp", "shape": [128], "dtype": "float32"}, {"name": "__inference_pruned_1369/model/tfc3_4/concat/axis", "shape": [], "dtype": "int32"}, {"name": "__inference_pruned_1369/model/tfc3_4/tf_conv_36/conv2d_36/Conv2D/ReadVariableOp", "shape": [1, 1, 256, 256], "dtype": "float32"}, {"name": "__inference_pruned_1369/model/tfc3_4/tf_conv_36/conv2d_36/BiasAdd/ReadVariableOp", "shape": [256], "dtype": "float32"}, {"name": "__inference_pruned_1369/model/tf_conv_39/conv2d_39/Conv2D/ReadVariableOp", "shape": [1, 1, 256, 128], "dtype": "float32"}, {"name": "__inference_pruned_1369/model/tf_conv_39/conv2d_39/BiasAdd/ReadVariableOp", "shape": [128], "dtype": "float32"}, {"name": "__inference_pruned_1369/model/tf_concat_2/concat/axis", "shape": [], "dtype": "int32"}, {"name": "__inference_pruned_1369/model/tfc3_6/tf_conv_47/conv2d_47/Conv2D/ReadVariableOp", "shape": [1, 1, 256, 128], "dtype": "float32"}, {"name": "__inference_pruned_1369/model/tfc3_6/tf_conv_47/conv2d_47/BiasAdd/ReadVariableOp", "shape": [128], "dtype": "float32"}, {"name": "__inference_pruned_1369/model/tfc3_6/concat/axis", "shape": [], "dtype": "int32"}, {"name": "__inference_pruned_1369/model/tfc3_6/tf_conv_48/conv2d_48/Conv2D/ReadVariableOp", "shape": [1, 1, 256, 256], "dtype": "float32"}, {"name": "__inference_pruned_1369/model/tfc3_6/tf_conv_48/conv2d_48/BiasAdd/ReadVariableOp", "shape": [256], "dtype": "float32"}, {"name": "__inference_pruned_1369/model/tf_conv_51/sequential_13/tf_pad_6/Pad/paddings", "shape": [4, 2], "dtype": "int32"}, {"name": "__inference_pruned_1369/model/tf_conv_51/sequential_13/conv2d_51/Conv2D/ReadVariableOp", "shape": [3, 3, 256, 256], "dtype": "float32"}, {"name": "__inference_pruned_1369/model/tf_conv_51/sequential_13/conv2d_51/BiasAdd/ReadVariableOp", "shape": [256], "dtype": "float32"}, {"name": "__inference_pruned_1369/model/tfc3_3/tf_conv_26/conv2d_26/Conv2D/ReadVariableOp", "shape": [1, 1, 512, 256], "dtype": "float32"}, {"name": "__inference_pruned_1369/model/tfc3_3/tf_conv_26/conv2d_26/BiasAdd/ReadVariableOp", "shape": [256], "dtype": "float32"}, {"name": "__inference_pruned_1369/model/tfc3_3/sequential_8/tf_bottleneck_6/tf_conv_29/conv2d_29/Conv2D/ReadVariableOp", "shape": [1, 1, 256, 256], "dtype": "float32"}, {"name": "__inference_pruned_1369/model/tfc3_3/sequential_8/tf_bottleneck_6/tf_conv_29/conv2d_29/BiasAdd/ReadVariableOp", "shape": [256], "dtype": "float32"}, {"name": "__inference_pruned_1369/model/tfc3_3/sequential_8/tf_bottleneck_6/tf_conv_30/conv2d_30/Conv2D/ReadVariableOp", "shape": [3, 3, 256, 256], "dtype": "float32"}, {"name": "__inference_pruned_1369/model/tfc3_3/sequential_8/tf_bottleneck_6/tf_conv_30/conv2d_30/BiasAdd/ReadVariableOp", "shape": [256], "dtype": "float32"}, {"name": "__inference_pruned_1369/model/tfc3_2/tf_conv_16/conv2d_16/Conv2D/ReadVariableOp", "shape": [1, 1, 256, 128], "dtype": "float32"}, {"name": "__inference_pruned_1369/model/tfc3_2/tf_conv_16/conv2d_16/BiasAdd/ReadVariableOp", "shape": [128], "dtype": "float32"}, {"name": "__inference_pruned_1369/model/tfc3_2/sequential_6/tf_bottleneck_3/tf_conv_19/conv2d_19/Conv2D/ReadVariableOp", "shape": [1, 1, 128, 128], "dtype": "float32"}, {"name": "__inference_pruned_1369/model/tfc3_2/sequential_6/tf_bottleneck_3/tf_conv_19/conv2d_19/BiasAdd/ReadVariableOp", "shape": [128], "dtype": "float32"}, {"name": "__inference_pruned_1369/model/tfc3_2/sequential_6/tf_bottleneck_3/tf_conv_20/conv2d_20/Conv2D/ReadVariableOp", "shape": [3, 3, 128, 128], "dtype": "float32"}, {"name": "__inference_pruned_1369/model/tfc3_2/sequential_6/tf_bottleneck_3/tf_conv_20/conv2d_20/BiasAdd/ReadVariableOp", "shape": [128], "dtype": "float32"}, {"name": "__inference_pruned_1369/model/tfc3_2/sequential_6/tf_bottleneck_4/tf_conv_21/conv2d_21/Conv2D/ReadVariableOp", "shape": [1, 1, 128, 128], "dtype": "float32"}, {"name": "__inference_pruned_1369/model/tfc3_2/sequential_6/tf_bottleneck_4/tf_conv_21/conv2d_21/BiasAdd/ReadVariableOp", "shape": [128], "dtype": "float32"}, {"name": "__inference_pruned_1369/model/tfc3_2/sequential_6/tf_bottleneck_4/tf_conv_22/conv2d_22/Conv2D/ReadVariableOp", "shape": [3, 3, 128, 128], "dtype": "float32"}, {"name": "__inference_pruned_1369/model/tfc3_2/sequential_6/tf_bottleneck_4/tf_conv_22/conv2d_22/BiasAdd/ReadVariableOp", "shape": [128], "dtype": "float32"}, {"name": "__inference_pruned_1369/model/tfc3_2/sequential_6/tf_bottleneck_5/tf_conv_23/conv2d_23/Conv2D/ReadVariableOp", "shape": [1, 1, 128, 128], "dtype": "float32"}, {"name": "__inference_pruned_1369/model/tfc3_2/sequential_6/tf_bottleneck_5/tf_conv_23/conv2d_23/BiasAdd/ReadVariableOp", "shape": [128], "dtype": "float32"}, {"name": "__inference_pruned_1369/model/tfc3_2/sequential_6/tf_bottleneck_5/tf_conv_24/conv2d_24/Conv2D/ReadVariableOp", "shape": [3, 3, 128, 128], "dtype": "float32"}, {"name": "__inference_pruned_1369/model/tfc3_2/sequential_6/tf_bottleneck_5/tf_conv_24/conv2d_24/BiasAdd/ReadVariableOp", "shape": [128], "dtype": "float32"}, {"name": "__inference_pruned_1369/model/tfc3_1/tf_conv_8/conv2d_8/Conv2D/ReadVariableOp", "shape": [1, 1, 128, 64], "dtype": "float32"}, {"name": "__inference_pruned_1369/model/tfc3_1/tf_conv_8/conv2d_8/BiasAdd/ReadVariableOp", "shape": [64], "dtype": "float32"}, {"name": "__inference_pruned_1369/model/tfc3_1/sequential_4/tf_bottleneck_1/tf_conv_11/conv2d_11/Conv2D/ReadVariableOp", "shape": [1, 1, 64, 64], "dtype": "float32"}, {"name": "__inference_pruned_1369/model/tfc3_1/sequential_4/tf_bottleneck_1/tf_conv_11/conv2d_11/BiasAdd/ReadVariableOp", "shape": [64], "dtype": "float32"}, {"name": "__inference_pruned_1369/model/tfc3_1/sequential_4/tf_bottleneck_1/tf_conv_12/conv2d_12/Conv2D/ReadVariableOp", "shape": [3, 3, 64, 64], "dtype": "float32"}, {"name": "__inference_pruned_1369/model/tfc3_1/sequential_4/tf_bottleneck_1/tf_conv_12/conv2d_12/BiasAdd/ReadVariableOp", "shape": [64], "dtype": "float32"}, {"name": "__inference_pruned_1369/model/tfc3_1/sequential_4/tf_bottleneck_2/tf_conv_13/conv2d_13/Conv2D/ReadVariableOp", "shape": [1, 1, 64, 64], "dtype": "float32"}, {"name": "__inference_pruned_1369/model/tfc3_1/sequential_4/tf_bottleneck_2/tf_conv_13/conv2d_13/BiasAdd/ReadVariableOp", "shape": [64], "dtype": "float32"}, {"name": "__inference_pruned_1369/model/tfc3_1/sequential_4/tf_bottleneck_2/tf_conv_14/conv2d_14/Conv2D/ReadVariableOp", "shape": [3, 3, 64, 64], "dtype": "float32"}, {"name": "__inference_pruned_1369/model/tfc3_1/sequential_4/tf_bottleneck_2/tf_conv_14/conv2d_14/BiasAdd/ReadVariableOp", "shape": [64], "dtype": "float32"}, {"name": "__inference_pruned_1369/model/tfc3/tf_conv_2/conv2d_2/Conv2D/ReadVariableOp", "shape": [1, 1, 64, 32], "dtype": "float32"}, {"name": "__inference_pruned_1369/model/tfc3/tf_conv_2/conv2d_2/BiasAdd/ReadVariableOp", "shape": [32], "dtype": "float32"}, {"name": "__inference_pruned_1369/model/tfc3/sequential_2/tf_bottleneck/tf_conv_5/conv2d_5/Conv2D/ReadVariableOp", "shape": [1, 1, 32, 32], "dtype": "float32"}, {"name": "__inference_pruned_1369/model/tfc3/sequential_2/tf_bottleneck/tf_conv_5/conv2d_5/BiasAdd/ReadVariableOp", "shape": [32], "dtype": "float32"}, {"name": "__inference_pruned_1369/model/tfc3/sequential_2/tf_bottleneck/tf_conv_6/conv2d_6/Conv2D/ReadVariableOp", "shape": [3, 3, 32, 32], "dtype": "float32"}, {"name": "__inference_pruned_1369/model/tfc3/sequential_2/tf_bottleneck/tf_conv_6/conv2d_6/BiasAdd/ReadVariableOp", "shape": [32], "dtype": "float32"}, {"name": "__inference_pruned_1369/model/tf_conv/sequential/tf_pad/Pad/paddings", "shape": [4, 2], "dtype": "int32"}, {"name": "__inference_pruned_1369/model/tf_conv/sequential/conv2d/Conv2D/ReadVariableOp", "shape": [6, 6, 3, 32], "dtype": "float32"}, {"name": "__inference_pruned_1369/model/tf_conv/sequential/conv2d/BiasAdd/ReadVariableOp", "shape": [32], "dtype": "float32"}, {"name": "__inference_pruned_1369/model/tf_conv_1/sequential_1/tf_pad_1/Pad/paddings", "shape": [4, 2], "dtype": "int32"}, {"name": "__inference_pruned_1369/model/tf_conv_1/sequential_1/conv2d_1/Conv2D/ReadVariableOp", "shape": [3, 3, 32, 64], "dtype": "float32"}, {"name": "__inference_pruned_1369/model/tf_conv_1/sequential_1/conv2d_1/BiasAdd/ReadVariableOp", "shape": [64], "dtype": "float32"}, {"name": "__inference_pruned_1369/model/tfc3/tf_conv_3/conv2d_3/Conv2D/ReadVariableOp", "shape": [1, 1, 64, 32], "dtype": "float32"}, {"name": "__inference_pruned_1369/model/tfc3/tf_conv_3/conv2d_3/BiasAdd/ReadVariableOp", "shape": [32], "dtype": "float32"}, {"name": "__inference_pruned_1369/model/tfc3/concat/axis", "shape": [], "dtype": "int32"}, {"name": "__inference_pruned_1369/model/tfc3/tf_conv_4/conv2d_4/Conv2D/ReadVariableOp", "shape": [1, 1, 64, 64], "dtype": "float32"}, {"name": "__inference_pruned_1369/model/tfc3/tf_conv_4/conv2d_4/BiasAdd/ReadVariableOp", "shape": [64], "dtype": "float32"}, {"name": "__inference_pruned_1369/model/tf_conv_7/sequential_3/tf_pad_2/Pad/paddings", "shape": [4, 2], "dtype": "int32"}, {"name": "__inference_pruned_1369/model/tf_conv_7/sequential_3/conv2d_7/Conv2D/ReadVariableOp", "shape": [3, 3, 64, 128], "dtype": "float32"}, {"name": "__inference_pruned_1369/model/tf_conv_7/sequential_3/conv2d_7/BiasAdd/ReadVariableOp", "shape": [128], "dtype": "float32"}, {"name": "__inference_pruned_1369/model/tfc3_1/tf_conv_9/conv2d_9/Conv2D/ReadVariableOp", "shape": [1, 1, 128, 64], "dtype": "float32"}, {"name": "__inference_pruned_1369/model/tfc3_1/tf_conv_9/conv2d_9/BiasAdd/ReadVariableOp", "shape": [64], "dtype": "float32"}, {"name": "__inference_pruned_1369/model/tfc3_1/concat/axis", "shape": [], "dtype": "int32"}, {"name": "__inference_pruned_1369/model/tfc3_1/tf_conv_10/conv2d_10/Conv2D/ReadVariableOp", "shape": [1, 1, 128, 128], "dtype": "float32"}, {"name": "__inference_pruned_1369/model/tfc3_1/tf_conv_10/conv2d_10/BiasAdd/ReadVariableOp", "shape": [128], "dtype": "float32"}, {"name": "__inference_pruned_1369/model/tf_conv_15/sequential_5/tf_pad_3/Pad/paddings", "shape": [4, 2], "dtype": "int32"}, {"name": "__inference_pruned_1369/model/tf_conv_15/sequential_5/conv2d_15/Conv2D/ReadVariableOp", "shape": [3, 3, 128, 256], "dtype": "float32"}, {"name": "__inference_pruned_1369/model/tf_conv_15/sequential_5/conv2d_15/BiasAdd/ReadVariableOp", "shape": [256], "dtype": "float32"}, {"name": "__inference_pruned_1369/model/tfc3_2/tf_conv_17/conv2d_17/Conv2D/ReadVariableOp", "shape": [1, 1, 256, 128], "dtype": "float32"}, {"name": "__inference_pruned_1369/model/tfc3_2/tf_conv_17/conv2d_17/BiasAdd/ReadVariableOp", "shape": [128], "dtype": "float32"}, {"name": "__inference_pruned_1369/model/tfc3_2/concat/axis", "shape": [], "dtype": "int32"}, {"name": "__inference_pruned_1369/model/tfc3_2/tf_conv_18/conv2d_18/Conv2D/ReadVariableOp", "shape": [1, 1, 256, 256], "dtype": "float32"}, {"name": "__inference_pruned_1369/model/tfc3_2/tf_conv_18/conv2d_18/BiasAdd/ReadVariableOp", "shape": [256], "dtype": "float32"}, {"name": "__inference_pruned_1369/model/tf_conv_25/sequential_7/tf_pad_4/Pad/paddings", "shape": [4, 2], "dtype": "int32"}, {"name": "__inference_pruned_1369/model/tf_conv_25/sequential_7/conv2d_25/Conv2D/ReadVariableOp", "shape": [3, 3, 256, 512], "dtype": "float32"}, {"name": "__inference_pruned_1369/model/tf_conv_25/sequential_7/conv2d_25/BiasAdd/ReadVariableOp", "shape": [512], "dtype": "float32"}, {"name": "__inference_pruned_1369/model/tfc3_3/tf_conv_27/conv2d_27/Conv2D/ReadVariableOp", "shape": [1, 1, 512, 256], "dtype": "float32"}, {"name": "__inference_pruned_1369/model/tfc3_3/tf_conv_27/conv2d_27/BiasAdd/ReadVariableOp", "shape": [256], "dtype": "float32"}, {"name": "__inference_pruned_1369/model/tfc3_3/concat/axis", "shape": [], "dtype": "int32"}, {"name": "__inference_pruned_1369/model/tfc3_3/tf_conv_28/conv2d_28/Conv2D/ReadVariableOp", "shape": [1, 1, 512, 512], "dtype": "float32"}, {"name": "__inference_pruned_1369/model/tfc3_3/tf_conv_28/conv2d_28/BiasAdd/ReadVariableOp", "shape": [512], "dtype": "float32"}, {"name": "__inference_pruned_1369/model/tfsppf/tf_conv_31/conv2d_31/Conv2D/ReadVariableOp", "shape": [1, 1, 512, 256], "dtype": "float32"}, {"name": "__inference_pruned_1369/model/tfsppf/tf_conv_31/conv2d_31/BiasAdd/ReadVariableOp", "shape": [256], "dtype": "float32"}, {"name": "__inference_pruned_1369/model/tfsppf/concat/axis", "shape": [], "dtype": "int32"}, {"name": "__inference_pruned_1369/model/tfsppf/tf_conv_32/conv2d_32/Conv2D/ReadVariableOp", "shape": [1, 1, 1024, 512], "dtype": "float32"}, {"name": "__inference_pruned_1369/model/tfsppf/tf_conv_32/conv2d_32/BiasAdd/ReadVariableOp", "shape": [512], "dtype": "float32"}, {"name": "__inference_pruned_1369/model/tf_conv_33/conv2d_33/Conv2D/ReadVariableOp", "shape": [1, 1, 512, 256], "dtype": "float32"}, {"name": "__inference_pruned_1369/model/tf_conv_33/conv2d_33/BiasAdd/ReadVariableOp", "shape": [256], "dtype": "float32"}, {"name": "__inference_pruned_1369/model/tf_concat_3/concat/axis", "shape": [], "dtype": "int32"}, {"name": "__inference_pruned_1369/model/tfc3_7/tf_conv_53/conv2d_53/Conv2D/ReadVariableOp", "shape": [1, 1, 512, 256], "dtype": "float32"}, {"name": "__inference_pruned_1369/model/tfc3_7/tf_conv_53/conv2d_53/BiasAdd/ReadVariableOp", "shape": [256], "dtype": "float32"}, {"name": "__inference_pruned_1369/model/tfc3_7/concat/axis", "shape": [], "dtype": "int32"}, {"name": "__inference_pruned_1369/model/tfc3_7/tf_conv_54/conv2d_54/Conv2D/ReadVariableOp", "shape": [1, 1, 512, 512], "dtype": "float32"}, {"name": "__inference_pruned_1369/model/tfc3_7/tf_conv_54/conv2d_54/BiasAdd/ReadVariableOp", "shape": [512], "dtype": "float32"}, {"name": "__inference_pruned_1369/model/tf_detect/tf_conv2d_2/conv2d_59/Conv2D/ReadVariableOp", "shape": [1, 1, 512, 18], "dtype": "float32"}, {"name": "__inference_pruned_1369/model/tf_detect/tf_conv2d_2/conv2d_59/BiasAdd/ReadVariableOp", "shape": [18], "dtype": "float32"}, {"name": "__inference_pruned_1369/model/tf_detect/Reshape_4/shape_1", "shape": [4], "dtype": "int32"}, {"name": "__inference_pruned_1369/model/tf_detect/strided_slice_23/stack", "shape": [2], "dtype": "int32"}, {"name": "__inference_pruned_1369/model/tf_detect/strided_slice_23/stack_1", "shape": [2], "dtype": "int32"}, {"name": "__inference_pruned_1369/model/tf_detect/strided_slice_23/stack_2", "shape": [2], "dtype": "int32"}, {"name": "__inference_pruned_1369/model/tf_detect/concat_2/axis", "shape": [], "dtype": "int32"}, {"name": "__inference_pruned_1369/model/tf_detect/Reshape_5/shape_1", "shape": [3], "dtype": "int32"}, {"name": "__inference_pruned_1369/model/tf_detect/concat_3/axis", "shape": [], "dtype": "int32"}, {"name": "__inference_pruned_1369/model/tf.__operators__.getitem_2/strided_slice/stack", "shape": [3], "dtype": "int32"}, {"name": "__inference_pruned_1369/model/tf.__operators__.getitem_2/strided_slice/stack_1", "shape": [3], "dtype": "int32"}, {"name": "__inference_pruned_1369/model/tf.__operators__.getitem_2/strided_slice/stack_2", "shape": [3], "dtype": "int32"}, {"name": "__inference_pruned_1369/model/agnostic_nms_1/agnostic_nms/TensorArrayUnstack_2/TensorListFromTensor/element_shape", "shape": [2], "dtype": "int32"}, {"name": "__inference_pruned_1369/model/agnostic_nms_1/agnostic_nms/while/maximum_iterations", "shape": [], "dtype": "int32"}, {"name": "__inference_pruned_1369/model/agnostic_nms_1/agnostic_nms/Const", "shape": [], "dtype": "int32"}, {"name": "__inference_pruned_1369/model/agnostic_nms_1/agnostic_nms/while/loop_counter", "shape": [], "dtype": "int32"}, {"name": "__inference_pruned_1369/model/agnostic_nms_1/agnostic_nms/TensorArrayV2Stack/TensorListStack/element_shape", "shape": [2], "dtype": "int32"}, {"name": "__inference_pruned_1369/model/agnostic_nms_1/agnostic_nms/while/cond/_0/model/agnostic_nms_1/agnostic_nms/while/Less/y", "shape": [], "dtype": "int32"}, {"name": "__inference_pruned_1369/model/agnostic_nms_1/agnostic_nms/while/body/_1/model/agnostic_nms_1/agnostic_nms/while/GatherV2_1/axis", "shape": [], "dtype": "int32"}, {"name": "__inference_pruned_1369/model/agnostic_nms_1/agnostic_nms/while/body/_1/model/agnostic_nms_1/agnostic_nms/while/PadV2/paddings/0/0", "shape": [], "dtype": "int32"}, {"name": "__inference_pruned_1369/model/agnostic_nms_1/agnostic_nms/while/body/_1/model/agnostic_nms_1/agnostic_nms/while/sub_1/x", "shape": [], "dtype": "int32"}, {"name": "__inference_pruned_1369/model/agnostic_nms_1/agnostic_nms/while/body/_1/model/agnostic_nms_1/agnostic_nms/while/strided_slice_1/stack", "shape": [1], "dtype": "int32"}, {"name": "__inference_pruned_1369/model/agnostic_nms_1/agnostic_nms/while/body/_1/model/agnostic_nms_1/agnostic_nms/while/strided_slice_1/stack_1", "shape": [1], "dtype": "int32"}, {"name": "__inference_pruned_1369/model/agnostic_nms_1/agnostic_nms/while/body/_1/model/agnostic_nms_1/agnostic_nms/while/strided_slice_1/stack_2", "shape": [1], "dtype": "int32"}, {"name": "__inference_pruned_1369/model/agnostic_nms_1/agnostic_nms/while/body/_1/model/agnostic_nms_1/agnostic_nms/while/PadV2/constant_values", "shape": [], "dtype": "float32"}, {"name": "__inference_pruned_1369/model/agnostic_nms_1/agnostic_nms/while/body/_1/model/agnostic_nms_1/agnostic_nms/while/TensorArrayV2Read_1/TensorListGetItem/element_shape", "shape": [2], "dtype": "int32"}, {"name": "__inference_pruned_1369/model/agnostic_nms_1/agnostic_nms/while/body/_1/model/agnostic_nms_1/agnostic_nms/while/ArgMax/dimension", "shape": [], "dtype": "int32"}, {"name": "__inference_pruned_1369/model/agnostic_nms_1/agnostic_nms/while/body/_1/model/agnostic_nms_1/agnostic_nms/while/GatherV2_2/axis", "shape": [], "dtype": "int32"}, {"name": "__inference_pruned_1369/model/agnostic_nms_1/agnostic_nms/while/body/_1/model/agnostic_nms_1/agnostic_nms/while/PadV2_1/paddings/0/0", "shape": [], "dtype": "int32"}, {"name": "__inference_pruned_1369/model/agnostic_nms_1/agnostic_nms/while/body/_1/model/agnostic_nms_1/agnostic_nms/while/sub_2/x", "shape": [], "dtype": "int32"}, {"name": "__inference_pruned_1369/model/agnostic_nms_1/agnostic_nms/while/body/_1/model/agnostic_nms_1/agnostic_nms/while/strided_slice_2/stack", "shape": [1], "dtype": "int32"}, {"name": "__inference_pruned_1369/model/agnostic_nms_1/agnostic_nms/while/body/_1/model/agnostic_nms_1/agnostic_nms/while/strided_slice_2/stack_1", "shape": [1], "dtype": "int32"}, {"name": "__inference_pruned_1369/model/agnostic_nms_1/agnostic_nms/while/body/_1/model/agnostic_nms_1/agnostic_nms/while/strided_slice_2/stack_2", "shape": [1], "dtype": "int32"}, {"name": "__inference_pruned_1369/model/agnostic_nms_1/agnostic_nms/while/body/_1/model/agnostic_nms_1/agnostic_nms/while/PadV2_1/constant_values", "shape": [], "dtype": "float32"}, {"name": "__inference_pruned_1369/model/agnostic_nms_1/agnostic_nms/while/body/_1/model/agnostic_nms_1/agnostic_nms/while/strided_slice_3/stack", "shape": [1], "dtype": "int32"}, {"name": "__inference_pruned_1369/model/agnostic_nms_1/agnostic_nms/while/body/_1/model/agnostic_nms_1/agnostic_nms/while/strided_slice_3/stack_1", "shape": [1], "dtype": "int32"}, {"name": "__inference_pruned_1369/model/agnostic_nms_1/agnostic_nms/while/body/_1/model/agnostic_nms_1/agnostic_nms/while/strided_slice_3/stack_2", "shape": [1], "dtype": "int32"}, {"name": "__inference_pruned_1369/model/agnostic_nms_1/agnostic_nms/while/body/_1/model/agnostic_nms_1/agnostic_nms/while/Pad/paddings/0/0", "shape": [], "dtype": "int32"}, {"name": "__inference_pruned_1369/model/agnostic_nms_1/agnostic_nms/while/body/_1/model/agnostic_nms_1/agnostic_nms/while/sub/x", "shape": [], "dtype": "int32"}, {"name": "__inference_pruned_1369/model/agnostic_nms_1/agnostic_nms/while/body/_1/model/agnostic_nms_1/agnostic_nms/while/TensorArrayV2Read/TensorListGetItem/element_shape", "shape": [2], "dtype": "int32"}, {"name": "__inference_pruned_1369/model/agnostic_nms_1/agnostic_nms/while/body/_1/model/agnostic_nms_1/agnostic_nms/while/TensorArrayV2Read_2/TensorListGetItem/element_shape", "shape": [2], "dtype": "int32"}, {"name": "__inference_pruned_1369/model/agnostic_nms_1/agnostic_nms/while/body/_1/model/agnostic_nms_1/agnostic_nms/while/Max/reduction_indices", "shape": [], "dtype": "int32"}, {"name": "__inference_pruned_1369/model/agnostic_nms_1/agnostic_nms/while/body/_1/model/agnostic_nms_1/agnostic_nms/while/non_max_suppression/NonMaxSuppressionV3/max_output_size", "shape": [], "dtype": "int32"}, {"name": "__inference_pruned_1369/model/agnostic_nms_1/agnostic_nms/while/body/_1/model/agnostic_nms_1/agnostic_nms/while/non_max_suppression/iou_threshold", "shape": [], "dtype": "float32"}, {"name": "__inference_pruned_1369/model/agnostic_nms_1/agnostic_nms/while/body/_1/model/agnostic_nms_1/agnostic_nms/while/non_max_suppression/score_threshold", "shape": [], "dtype": "float32"}, {"name": "__inference_pruned_1369/model/agnostic_nms_1/agnostic_nms/while/body/_1/model/agnostic_nms_1/agnostic_nms/while/GatherV2/axis", "shape": [], "dtype": "int32"}, {"name": "__inference_pruned_1369/model/agnostic_nms_1/agnostic_nms/while/body/_1/model/agnostic_nms_1/agnostic_nms/while/strided_slice/stack", "shape": [1], "dtype": "int32"}, {"name": "__inference_pruned_1369/model/agnostic_nms_1/agnostic_nms/while/body/_1/model/agnostic_nms_1/agnostic_nms/while/strided_slice/stack_1", "shape": [1], "dtype": "int32"}, {"name": "__inference_pruned_1369/model/agnostic_nms_1/agnostic_nms/while/body/_1/model/agnostic_nms_1/agnostic_nms/while/strided_slice/stack_2", "shape": [1], "dtype": "int32"}, {"name": "__inference_pruned_1369/model/agnostic_nms_1/agnostic_nms/while/body/_1/model/agnostic_nms_1/agnostic_nms/while/Pad/paddings/1_1", "shape": [2], "dtype": "int32"}, {"name": "__inference_pruned_1369/model/agnostic_nms_1/agnostic_nms/while/body/_1/model/agnostic_nms_1/agnostic_nms/while/add/y", "shape": [], "dtype": "int32"}, {"name": "__inference_pruned_1369/model/agnostic_nms_1/agnostic_nms/while/body/_1/model/agnostic_nms_1/agnostic_nms/while/add_1/y", "shape": [], "dtype": "int32"}, {"name": "__inference_pruned_1369/ConstantFolding/model/agnostic_nms_1/agnostic_nms/while/body/_1/model/agnostic_nms_1/agnostic_nms/while/PadV2/paddings_const_axis", "shape": [], "dtype": "int32"}, {"name": "__inference_pruned_1369/ConstantFolding/model/agnostic_nms_1/agnostic_nms/while/body/_1/model/agnostic_nms_1/agnostic_nms/while/PadV2_1/paddings_const_axis", "shape": [], "dtype": "int32"}]}]}